node {
  name: "Placeholder"
  op: "Placeholder"
  attr {
    key: "dtype"
    value {
      type: DT_FLOAT
    }
  }
  attr {
    key: "shape"
    value {
      shape {
        dim {
          size: -1
        }
        dim {
          size: 5
        }
      }
    }
  }
}
node {
  name: "Placeholder_1"
  op: "Placeholder"
  attr {
    key: "dtype"
    value {
      type: DT_FLOAT
    }
  }
  attr {
    key: "shape"
    value {
      shape {
        dim {
          size: -1
        }
        dim {
          size: 3
        }
      }
    }
  }
}
node {
  name: "Placeholder_2"
  op: "Placeholder"
  attr {
    key: "dtype"
    value {
      type: DT_INT64
    }
  }
  attr {
    key: "shape"
    value {
      shape {
        dim {
          size: 2
        }
      }
    }
  }
}
node {
  name: "Placeholder_3"
  op: "Placeholder"
  attr {
    key: "dtype"
    value {
      type: DT_FLOAT
    }
  }
  attr {
    key: "shape"
    value {
      shape {
        dim {
          size: -1
        }
      }
    }
  }
}
node {
  name: "Placeholder_4"
  op: "Placeholder"
  attr {
    key: "dtype"
    value {
      type: DT_INT64
    }
  }
  attr {
    key: "shape"
    value {
      shape {
        dim {
          size: -1
        }
        dim {
          size: 2
        }
      }
    }
  }
}
node {
  name: "Placeholder_5"
  op: "Placeholder"
  attr {
    key: "dtype"
    value {
      type: DT_INT64
    }
  }
  attr {
    key: "shape"
    value {
      shape {
        dim {
          size: 2
        }
      }
    }
  }
}
node {
  name: "Placeholder_6"
  op: "Placeholder"
  attr {
    key: "dtype"
    value {
      type: DT_FLOAT
    }
  }
  attr {
    key: "shape"
    value {
      shape {
        dim {
          size: -1
        }
      }
    }
  }
}
node {
  name: "Placeholder_7"
  op: "Placeholder"
  attr {
    key: "dtype"
    value {
      type: DT_INT64
    }
  }
  attr {
    key: "shape"
    value {
      shape {
        dim {
          size: -1
        }
        dim {
          size: 2
        }
      }
    }
  }
}
node {
  name: "Placeholder_8"
  op: "Placeholder"
  attr {
    key: "dtype"
    value {
      type: DT_INT64
    }
  }
  attr {
    key: "shape"
    value {
      shape {
        dim {
          size: 2
        }
      }
    }
  }
}
node {
  name: "Placeholder_9"
  op: "Placeholder"
  attr {
    key: "dtype"
    value {
      type: DT_FLOAT
    }
  }
  attr {
    key: "shape"
    value {
      shape {
        dim {
          size: -1
        }
      }
    }
  }
}
node {
  name: "Placeholder_10"
  op: "Placeholder"
  attr {
    key: "dtype"
    value {
      type: DT_INT64
    }
  }
  attr {
    key: "shape"
    value {
      shape {
        dim {
          size: -1
        }
        dim {
          size: 2
        }
      }
    }
  }
}
node {
  name: "Placeholder_11"
  op: "Placeholder"
  attr {
    key: "dtype"
    value {
      type: DT_INT64
    }
  }
  attr {
    key: "shape"
    value {
      shape {
        dim {
          size: 2
        }
      }
    }
  }
}
node {
  name: "Placeholder_12"
  op: "Placeholder"
  attr {
    key: "dtype"
    value {
      type: DT_FLOAT
    }
  }
  attr {
    key: "shape"
    value {
      shape {
        dim {
          size: -1
        }
      }
    }
  }
}
node {
  name: "Placeholder_13"
  op: "Placeholder"
  attr {
    key: "dtype"
    value {
      type: DT_INT64
    }
  }
  attr {
    key: "shape"
    value {
      shape {
        dim {
          size: -1
        }
        dim {
          size: 2
        }
      }
    }
  }
}
node {
  name: "Placeholder_14"
  op: "Placeholder"
  attr {
    key: "dtype"
    value {
      type: DT_INT64
    }
  }
  attr {
    key: "shape"
    value {
      shape {
        dim {
          size: 2
        }
      }
    }
  }
}
node {
  name: "Placeholder_15"
  op: "Placeholder"
  attr {
    key: "dtype"
    value {
      type: DT_FLOAT
    }
  }
  attr {
    key: "shape"
    value {
      shape {
        dim {
          size: -1
        }
      }
    }
  }
}
node {
  name: "Placeholder_16"
  op: "Placeholder"
  attr {
    key: "dtype"
    value {
      type: DT_INT64
    }
  }
  attr {
    key: "shape"
    value {
      shape {
        dim {
          size: -1
        }
        dim {
          size: 2
        }
      }
    }
  }
}
node {
  name: "Placeholder_17"
  op: "Placeholder"
  attr {
    key: "dtype"
    value {
      type: DT_INT64
    }
  }
  attr {
    key: "shape"
    value {
      shape {
        dim {
          size: 2
        }
      }
    }
  }
}
node {
  name: "Placeholder_18"
  op: "Placeholder"
  attr {
    key: "dtype"
    value {
      type: DT_FLOAT
    }
  }
  attr {
    key: "shape"
    value {
      shape {
        dim {
          size: -1
        }
      }
    }
  }
}
node {
  name: "Placeholder_19"
  op: "Placeholder"
  attr {
    key: "dtype"
    value {
      type: DT_INT64
    }
  }
  attr {
    key: "shape"
    value {
      shape {
        dim {
          size: -1
        }
        dim {
          size: 2
        }
      }
    }
  }
}
node {
  name: "Placeholder_20"
  op: "Placeholder"
  attr {
    key: "dtype"
    value {
      type: DT_INT64
    }
  }
  attr {
    key: "shape"
    value {
      shape {
        dim {
          size: 2
        }
      }
    }
  }
}
node {
  name: "Placeholder_21"
  op: "Placeholder"
  attr {
    key: "dtype"
    value {
      type: DT_FLOAT
    }
  }
  attr {
    key: "shape"
    value {
      shape {
        dim {
          size: -1
        }
      }
    }
  }
}
node {
  name: "Placeholder_22"
  op: "Placeholder"
  attr {
    key: "dtype"
    value {
      type: DT_INT64
    }
  }
  attr {
    key: "shape"
    value {
      shape {
        dim {
          size: -1
        }
        dim {
          size: 2
        }
      }
    }
  }
}
node {
  name: "Placeholder_23"
  op: "Placeholder"
  attr {
    key: "dtype"
    value {
      type: DT_INT64
    }
  }
  attr {
    key: "shape"
    value {
      shape {
        dim {
          size: 2
        }
      }
    }
  }
}
node {
  name: "Placeholder_24"
  op: "Placeholder"
  attr {
    key: "dtype"
    value {
      type: DT_FLOAT
    }
  }
  attr {
    key: "shape"
    value {
      shape {
        dim {
          size: -1
        }
      }
    }
  }
}
node {
  name: "Placeholder_25"
  op: "Placeholder"
  attr {
    key: "dtype"
    value {
      type: DT_INT64
    }
  }
  attr {
    key: "shape"
    value {
      shape {
        dim {
          size: -1
        }
        dim {
          size: 2
        }
      }
    }
  }
}
node {
  name: "Placeholder_26"
  op: "Placeholder"
  attr {
    key: "dtype"
    value {
      type: DT_FLOAT
    }
  }
  attr {
    key: "shape"
    value {
      shape {
        dim {
          size: -1
        }
        dim {
          size: 1
        }
      }
    }
  }
}
node {
  name: "Placeholder_27"
  op: "Placeholder"
  attr {
    key: "dtype"
    value {
      type: DT_FLOAT
    }
  }
  attr {
    key: "shape"
    value {
      shape {
        dim {
          size: -1
        }
        dim {
          size: 1
        }
      }
    }
  }
}
node {
  name: "Placeholder_28"
  op: "Placeholder"
  attr {
    key: "dtype"
    value {
      type: DT_FLOAT
    }
  }
  attr {
    key: "shape"
    value {
      shape {
        dim {
          size: -1
        }
        dim {
          size: 1
        }
      }
    }
  }
}
node {
  name: "Placeholder_29"
  op: "Placeholder"
  attr {
    key: "dtype"
    value {
      type: DT_FLOAT
    }
  }
  attr {
    key: "shape"
    value {
      shape {
        dim {
          size: -1
        }
        dim {
          size: 1
        }
      }
    }
  }
}
node {
  name: "Placeholder_30"
  op: "Placeholder"
  attr {
    key: "dtype"
    value {
      type: DT_FLOAT
    }
  }
  attr {
    key: "shape"
    value {
      shape {
        dim {
          size: -1
        }
        dim {
          size: 1
        }
      }
    }
  }
}
node {
  name: "Placeholder_31"
  op: "Placeholder"
  attr {
    key: "dtype"
    value {
      type: DT_FLOAT
    }
  }
  attr {
    key: "shape"
    value {
      shape {
        dim {
          size: -1
        }
        dim {
          size: 1
        }
      }
    }
  }
}
node {
  name: "Placeholder_32"
  op: "Placeholder"
  attr {
    key: "dtype"
    value {
      type: DT_FLOAT
    }
  }
  attr {
    key: "shape"
    value {
      shape {
        dim {
          size: -1
        }
        dim {
          size: 1
        }
      }
    }
  }
}
node {
  name: "Placeholder_33"
  op: "Placeholder"
  attr {
    key: "dtype"
    value {
      type: DT_FLOAT
    }
  }
  attr {
    key: "shape"
    value {
      shape {
        dim {
          size: -1
        }
        dim {
          size: 1
        }
      }
    }
  }
}
node {
  name: "actor_agent/Variable"
  op: "Const"
  attr {
    key: "dtype"
    value {
      type: DT_FLOAT
    }
  }
  attr {
    key: "value"
    value {
      tensor {
        dtype: DT_FLOAT
        tensor_shape {
          dim {
            size: 5
          }
          dim {
            size: 16
          }
        }
        tensor_content: "…"
      }
    }
  }
}
node {
  name: "actor_agent/Variable/read"
  op: "Identity"
  input: "actor_agent/Variable"
  attr {
    key: "T"
    value {
      type: DT_FLOAT
    }
  }
  attr {
    key: "_class"
    value {
      list {
        s: "loc:@actor_agent/Variable"
      }
    }
  }
}
node {
  name: "actor_agent_1/Variable"
  op: "Const"
  attr {
    key: "dtype"
    value {
      type: DT_FLOAT
    }
  }
  attr {
    key: "value"
    value {
      tensor {
        dtype: DT_FLOAT
        tensor_shape {
          dim {
            size: 16
          }
        }
        tensor_content: "…"
      }
    }
  }
}
node {
  name: "actor_agent_1/Variable/read"
  op: "Identity"
  input: "actor_agent_1/Variable"
  attr {
    key: "T"
    value {
      type: DT_FLOAT
    }
  }
  attr {
    key: "_class"
    value {
      list {
        s: "loc:@actor_agent_1/Variable"
      }
    }
  }
}
node {
  name: "actor_agent_2/Variable"
  op: "Const"
  attr {
    key: "dtype"
    value {
      type: DT_FLOAT
    }
  }
  attr {
    key: "value"
    value {
      tensor {
        dtype: DT_FLOAT
        tensor_shape {
          dim {
            size: 16
          }
          dim {
            size: 8
          }
        }
        tensor_content: "…"
      }
    }
  }
}
node {
  name: "actor_agent_2/Variable/read"
  op: "Identity"
  input: "actor_agent_2/Variable"
  attr {
    key: "T"
    value {
      type: DT_FLOAT
    }
  }
  attr {
    key: "_class"
    value {
      list {
        s: "loc:@actor_agent_2/Variable"
      }
    }
  }
}
node {
  name: "actor_agent_3/Variable"
  op: "Const"
  attr {
    key: "dtype"
    value {
      type: DT_FLOAT
    }
  }
  attr {
    key: "value"
    value {
      tensor {
        dtype: DT_FLOAT
        tensor_shape {
          dim {
            size: 8
          }
        }
        tensor_content: "…"
      }
    }
  }
}
node {
  name: "actor_agent_3/Variable/read"
  op: "Identity"
  input: "actor_agent_3/Variable"
  attr {
    key: "T"
    value {
      type: DT_FLOAT
    }
  }
  attr {
    key: "_class"
    value {
      list {
        s: "loc:@actor_agent_3/Variable"
      }
    }
  }
}
node {
  name: "actor_agent_4/Variable"
  op: "Const"
  attr {
    key: "dtype"
    value {
      type: DT_FLOAT
    }
  }
  attr {
    key: "value"
    value {
      tensor {
        dtype: DT_FLOAT
        tensor_shape {
          dim {
            size: 8
          }
          dim {
            size: 8
          }
        }
        tensor_content: "…"
      }
    }
  }
}
node {
  name: "actor_agent_4/Variable/read"
  op: "Identity"
  input: "actor_agent_4/Variable"
  attr {
    key: "T"
    value {
      type: DT_FLOAT
    }
  }
  attr {
    key: "_class"
    value {
      list {
        s: "loc:@actor_agent_4/Variable"
      }
    }
  }
}
node {
  name: "actor_agent_5/Variable"
  op: "Const"
  attr {
    key: "dtype"
    value {
      type: DT_FLOAT
    }
  }
  attr {
    key: "value"
    value {
      tensor {
        dtype: DT_FLOAT
        tensor_shape {
          dim {
            size: 8
          }
        }
        tensor_content: "…"
      }
    }
  }
}
node {
  name: "actor_agent_5/Variable/read"
  op: "Identity"
  input: "actor_agent_5/Variable"
  attr {
    key: "T"
    value {
      type: DT_FLOAT
    }
  }
  attr {
    key: "_class"
    value {
      list {
        s: "loc:@actor_agent_5/Variable"
      }
    }
  }
}
node {
  name: "actor_agent_6/Variable"
  op: "Const"
  attr {
    key: "dtype"
    value {
      type: DT_FLOAT
    }
  }
  attr {
    key: "value"
    value {
      tensor {
        dtype: DT_FLOAT
        tensor_shape {
          dim {
            size: 8
          }
          dim {
            size: 16
          }
        }
        tensor_content: "…"
      }
    }
  }
}
node {
  name: "actor_agent_6/Variable/read"
  op: "Identity"
  input: "actor_agent_6/Variable"
  attr {
    key: "T"
    value {
      type: DT_FLOAT
    }
  }
  attr {
    key: "_class"
    value {
      list {
        s: "loc:@actor_agent_6/Variable"
      }
    }
  }
}
node {
  name: "actor_agent_7/Variable"
  op: "Const"
  attr {
    key: "dtype"
    value {
      type: DT_FLOAT
    }
  }
  attr {
    key: "value"
    value {
      tensor {
        dtype: DT_FLOAT
        tensor_shape {
          dim {
            size: 16
          }
        }
        tensor_content: "…"
      }
    }
  }
}
node {
  name: "actor_agent_7/Variable/read"
  op: "Identity"
  input: "actor_agent_7/Variable"
  attr {
    key: "T"
    value {
      type: DT_FLOAT
    }
  }
  attr {
    key: "_class"
    value {
      list {
        s: "loc:@actor_agent_7/Variable"
      }
    }
  }
}
node {
  name: "actor_agent_8/Variable"
  op: "Const"
  attr {
    key: "dtype"
    value {
      type: DT_FLOAT
    }
  }
  attr {
    key: "value"
    value {
      tensor {
        dtype: DT_FLOAT
        tensor_shape {
          dim {
            size: 16
          }
          dim {
            size: 8
          }
        }
        tensor_content: "…"
      }
    }
  }
}
node {
  name: "actor_agent_8/Variable/read"
  op: "Identity"
  input: "actor_agent_8/Variable"
  attr {
    key: "T"
    value {
      type: DT_FLOAT
    }
  }
  attr {
    key: "_class"
    value {
      list {
        s: "loc:@actor_agent_8/Variable"
      }
    }
  }
}
node {
  name: "actor_agent_9/Variable"
  op: "Const"
  attr {
    key: "dtype"
    value {
      type: DT_FLOAT
    }
  }
  attr {
    key: "value"
    value {
      tensor {
        dtype: DT_FLOAT
        tensor_shape {
          dim {
            size: 8
          }
        }
        tensor_content: "…"
      }
    }
  }
}
node {
  name: "actor_agent_9/Variable/read"
  op: "Identity"
  input: "actor_agent_9/Variable"
  attr {
    key: "T"
    value {
      type: DT_FLOAT
    }
  }
  attr {
    key: "_class"
    value {
      list {
        s: "loc:@actor_agent_9/Variable"
      }
    }
  }
}
node {
  name: "actor_agent_10/Variable"
  op: "Const"
  attr {
    key: "dtype"
    value {
      type: DT_FLOAT
    }
  }
  attr {
    key: "value"
    value {
      tensor {
        dtype: DT_FLOAT
        tensor_shape {
          dim {
            size: 8
          }
          dim {
            size: 8
          }
        }
        tensor_content: "…"
      }
    }
  }
}
node {
  name: "actor_agent_10/Variable/read"
  op: "Identity"
  input: "actor_agent_10/Variable"
  attr {
    key: "T"
    value {
      type: DT_FLOAT
    }
  }
  attr {
    key: "_class"
    value {
      list {
        s: "loc:@actor_agent_10/Variable"
      }
    }
  }
}
node {
  name: "actor_agent_11/Variable"
  op: "Const"
  attr {
    key: "dtype"
    value {
      type: DT_FLOAT
    }
  }
  attr {
    key: "value"
    value {
      tensor {
        dtype: DT_FLOAT
        tensor_shape {
          dim {
            size: 8
          }
        }
        tensor_content: "…"
      }
    }
  }
}
node {
  name: "actor_agent_11/Variable/read"
  op: "Identity"
  input: "actor_agent_11/Variable"
  attr {
    key: "T"
    value {
      type: DT_FLOAT
    }
  }
  attr {
    key: "_class"
    value {
      list {
        s: "loc:@actor_agent_11/Variable"
      }
    }
  }
}
node {
  name: "actor_agent_12/Variable"
  op: "Const"
  attr {
    key: "dtype"
    value {
      type: DT_FLOAT
    }
  }
  attr {
    key: "value"
    value {
      tensor {
        dtype: DT_FLOAT
        tensor_shape {
          dim {
            size: 8
          }
          dim {
            size: 16
          }
        }
        tensor_content: "…"
      }
    }
  }
}
node {
  name: "actor_agent_12/Variable/read"
  op: "Identity"
  input: "actor_agent_12/Variable"
  attr {
    key: "T"
    value {
      type: DT_FLOAT
    }
  }
  attr {
    key: "_class"
    value {
      list {
        s: "loc:@actor_agent_12/Variable"
      }
    }
  }
}
node {
  name: "actor_agent_13/Variable"
  op: "Const"
  attr {
    key: "dtype"
    value {
      type: DT_FLOAT
    }
  }
  attr {
    key: "value"
    value {
      tensor {
        dtype: DT_FLOAT
        tensor_shape {
          dim {
            size: 16
          }
        }
        tensor_content: "…"
      }
    }
  }
}
node {
  name: "actor_agent_13/Variable/read"
  op: "Identity"
  input: "actor_agent_13/Variable"
  attr {
    key: "T"
    value {
      type: DT_FLOAT
    }
  }
  attr {
    key: "_class"
    value {
      list {
        s: "loc:@actor_agent_13/Variable"
      }
    }
  }
}
node {
  name: "actor_agent_14/Variable"
  op: "Const"
  attr {
    key: "dtype"
    value {
      type: DT_FLOAT
    }
  }
  attr {
    key: "value"
    value {
      tensor {
        dtype: DT_FLOAT
        tensor_shape {
          dim {
            size: 16
          }
          dim {
            size: 8
          }
        }
        tensor_content: "…"
      }
    }
  }
}
node {
  name: "actor_agent_14/Variable/read"
  op: "Identity"
  input: "actor_agent_14/Variable"
  attr {
    key: "T"
    value {
      type: DT_FLOAT
    }
  }
  attr {
    key: "_class"
    value {
      list {
        s: "loc:@actor_agent_14/Variable"
      }
    }
  }
}
node {
  name: "actor_agent_15/Variable"
  op: "Const"
  attr {
    key: "dtype"
    value {
      type: DT_FLOAT
    }
  }
  attr {
    key: "value"
    value {
      tensor {
        dtype: DT_FLOAT
        tensor_shape {
          dim {
            size: 8
          }
        }
        tensor_content: "…"
      }
    }
  }
}
node {
  name: "actor_agent_15/Variable/read"
  op: "Identity"
  input: "actor_agent_15/Variable"
  attr {
    key: "T"
    value {
      type: DT_FLOAT
    }
  }
  attr {
    key: "_class"
    value {
      list {
        s: "loc:@actor_agent_15/Variable"
      }
    }
  }
}
node {
  name: "actor_agent_16/Variable"
  op: "Const"
  attr {
    key: "dtype"
    value {
      type: DT_FLOAT
    }
  }
  attr {
    key: "value"
    value {
      tensor {
        dtype: DT_FLOAT
        tensor_shape {
          dim {
            size: 8
          }
          dim {
            size: 8
          }
        }
        tensor_content: "…"
      }
    }
  }
}
node {
  name: "actor_agent_16/Variable/read"
  op: "Identity"
  input: "actor_agent_16/Variable"
  attr {
    key: "T"
    value {
      type: DT_FLOAT
    }
  }
  attr {
    key: "_class"
    value {
      list {
        s: "loc:@actor_agent_16/Variable"
      }
    }
  }
}
node {
  name: "actor_agent_17/Variable"
  op: "Const"
  attr {
    key: "dtype"
    value {
      type: DT_FLOAT
    }
  }
  attr {
    key: "value"
    value {
      tensor {
        dtype: DT_FLOAT
        tensor_shape {
          dim {
            size: 8
          }
        }
        tensor_content: "…"
      }
    }
  }
}
node {
  name: "actor_agent_17/Variable/read"
  op: "Identity"
  input: "actor_agent_17/Variable"
  attr {
    key: "T"
    value {
      type: DT_FLOAT
    }
  }
  attr {
    key: "_class"
    value {
      list {
        s: "loc:@actor_agent_17/Variable"
      }
    }
  }
}
node {
  name: "MatMul"
  op: "MatMul"
  input: "Placeholder"
  input: "actor_agent/Variable/read"
  attr {
    key: "T"
    value {
      type: DT_FLOAT
    }
  }
  attr {
    key: "transpose_a"
    value {
      b: false
    }
  }
  attr {
    key: "transpose_b"
    value {
      b: false
    }
  }
}
node {
  name: "add"
  op: "Add"
  input: "MatMul"
  input: "actor_agent_1/Variable/read"
  attr {
    key: "T"
    value {
      type: DT_FLOAT
    }
  }
}
node {
  name: "LeakyRelu/alpha"
  op: "Const"
  attr {
    key: "dtype"
    value {
      type: DT_FLOAT
    }
  }
  attr {
    key: "value"
    value {
      tensor {
        dtype: DT_FLOAT
        tensor_shape {
        }
        float_val: 0.20000000298023224
      }
    }
  }
}
node {
  name: "LeakyRelu/mul"
  op: "Mul"
  input: "LeakyRelu/alpha"
  input: "add"
  attr {
    key: "T"
    value {
      type: DT_FLOAT
    }
  }
}
node {
  name: "LeakyRelu/Maximum"
  op: "Maximum"
  input: "LeakyRelu/mul"
  input: "add"
  attr {
    key: "T"
    value {
      type: DT_FLOAT
    }
  }
}
node {
  name: "MatMul_1"
  op: "MatMul"
  input: "LeakyRelu/Maximum"
  input: "actor_agent_2/Variable/read"
  attr {
    key: "T"
    value {
      type: DT_FLOAT
    }
  }
  attr {
    key: "transpose_a"
    value {
      b: false
    }
  }
  attr {
    key: "transpose_b"
    value {
      b: false
    }
  }
}
node {
  name: "add_1"
  op: "Add"
  input: "MatMul_1"
  input: "actor_agent_3/Variable/read"
  attr {
    key: "T"
    value {
      type: DT_FLOAT
    }
  }
}
node {
  name: "LeakyRelu_1/alpha"
  op: "Const"
  attr {
    key: "dtype"
    value {
      type: DT_FLOAT
    }
  }
  attr {
    key: "value"
    value {
      tensor {
        dtype: DT_FLOAT
        tensor_shape {
        }
        float_val: 0.20000000298023224
      }
    }
  }
}
node {
  name: "LeakyRelu_1/mul"
  op: "Mul"
  input: "LeakyRelu_1/alpha"
  input: "add_1"
  attr {
    key: "T"
    value {
      type: DT_FLOAT
    }
  }
}
node {
  name: "LeakyRelu_1/Maximum"
  op: "Maximum"
  input: "LeakyRelu_1/mul"
  input: "add_1"
  attr {
    key: "T"
    value {
      type: DT_FLOAT
    }
  }
}
node {
  name: "MatMul_2"
  op: "MatMul"
  input: "LeakyRelu_1/Maximum"
  input: "actor_agent_4/Variable/read"
  attr {
    key: "T"
    value {
      type: DT_FLOAT
    }
  }
  attr {
    key: "transpose_a"
    value {
      b: false
    }
  }
  attr {
    key: "transpose_b"
    value {
      b: false
    }
  }
}
node {
  name: "add_2"
  op: "Add"
  input: "MatMul_2"
  input: "actor_agent_5/Variable/read"
  attr {
    key: "T"
    value {
      type: DT_FLOAT
    }
  }
}
node {
  name: "LeakyRelu_2/alpha"
  op: "Const"
  attr {
    key: "dtype"
    value {
      type: DT_FLOAT
    }
  }
  attr {
    key: "value"
    value {
      tensor {
        dtype: DT_FLOAT
        tensor_shape {
        }
        float_val: 0.20000000298023224
      }
    }
  }
}
node {
  name: "LeakyRelu_2/mul"
  op: "Mul"
  input: "LeakyRelu_2/alpha"
  input: "add_2"
  attr {
    key: "T"
    value {
      type: DT_FLOAT
    }
  }
}
node {
  name: "LeakyRelu_2/Maximum"
  op: "Maximum"
  input: "LeakyRelu_2/mul"
  input: "add_2"
  attr {
    key: "T"
    value {
      type: DT_FLOAT
    }
  }
}
node {
  name: "MatMul_3"
  op: "MatMul"
  input: "LeakyRelu_2/Maximum"
  input: "actor_agent_6/Variable/read"
  attr {
    key: "T"
    value {
      type: DT_FLOAT
    }
  }
  attr {
    key: "transpose_a"
    value {
      b: false
    }
  }
  attr {
    key: "transpose_b"
    value {
      b: false
    }
  }
}
node {
  name: "add_3"
  op: "Add"
  input: "MatMul_3"
  input: "actor_agent_7/Variable/read"
  attr {
    key: "T"
    value {
      type: DT_FLOAT
    }
  }
}
node {
  name: "LeakyRelu_3/alpha"
  op: "Const"
  attr {
    key: "dtype"
    value {
      type: DT_FLOAT
    }
  }
  attr {
    key: "value"
    value {
      tensor {
        dtype: DT_FLOAT
        tensor_shape {
        }
        float_val: 0.20000000298023224
      }
    }
  }
}
node {
  name: "LeakyRelu_3/mul"
  op: "Mul"
  input: "LeakyRelu_3/alpha"
  input: "add_3"
  attr {
    key: "T"
    value {
      type: DT_FLOAT
    }
  }
}
node {
  name: "LeakyRelu_3/Maximum"
  op: "Maximum"
  input: "LeakyRelu_3/mul"
  input: "add_3"
  attr {
    key: "T"
    value {
      type: DT_FLOAT
    }
  }
}
node {
  name: "MatMul_4"
  op: "MatMul"
  input: "LeakyRelu_3/Maximum"
  input: "actor_agent_8/Variable/read"
  attr {
    key: "T"
    value {
      type: DT_FLOAT
    }
  }
  attr {
    key: "transpose_a"
    value {
      b: false
    }
  }
  attr {
    key: "transpose_b"
    value {
      b: false
    }
  }
}
node {
  name: "add_4"
  op: "Add"
  input: "MatMul_4"
  input: "actor_agent_9/Variable/read"
  attr {
    key: "T"
    value {
      type: DT_FLOAT
    }
  }
}
node {
  name: "LeakyRelu_4/alpha"
  op: "Const"
  attr {
    key: "dtype"
    value {
      type: DT_FLOAT
    }
  }
  attr {
    key: "value"
    value {
      tensor {
        dtype: DT_FLOAT
        tensor_shape {
        }
        float_val: 0.20000000298023224
      }
    }
  }
}
node {
  name: "LeakyRelu_4/mul"
  op: "Mul"
  input: "LeakyRelu_4/alpha"
  input: "add_4"
  attr {
    key: "T"
    value {
      type: DT_FLOAT
    }
  }
}
node {
  name: "LeakyRelu_4/Maximum"
  op: "Maximum"
  input: "LeakyRelu_4/mul"
  input: "add_4"
  attr {
    key: "T"
    value {
      type: DT_FLOAT
    }
  }
}
node {
  name: "MatMul_5"
  op: "MatMul"
  input: "LeakyRelu_4/Maximum"
  input: "actor_agent_10/Variable/read"
  attr {
    key: "T"
    value {
      type: DT_FLOAT
    }
  }
  attr {
    key: "transpose_a"
    value {
      b: false
    }
  }
  attr {
    key: "transpose_b"
    value {
      b: false
    }
  }
}
node {
  name: "add_5"
  op: "Add"
  input: "MatMul_5"
  input: "actor_agent_11/Variable/read"
  attr {
    key: "T"
    value {
      type: DT_FLOAT
    }
  }
}
node {
  name: "LeakyRelu_5/alpha"
  op: "Const"
  attr {
    key: "dtype"
    value {
      type: DT_FLOAT
    }
  }
  attr {
    key: "value"
    value {
      tensor {
        dtype: DT_FLOAT
        tensor_shape {
        }
        float_val: 0.20000000298023224
      }
    }
  }
}
node {
  name: "LeakyRelu_5/mul"
  op: "Mul"
  input: "LeakyRelu_5/alpha"
  input: "add_5"
  attr {
    key: "T"
    value {
      type: DT_FLOAT
    }
  }
}
node {
  name: "LeakyRelu_5/Maximum"
  op: "Maximum"
  input: "LeakyRelu_5/mul"
  input: "add_5"
  attr {
    key: "T"
    value {
      type: DT_FLOAT
    }
  }
}
node {
  name: "SparseTensorDenseMatMul/SparseTensorDenseMatMul"
  op: "SparseTensorDenseMatMul"
  input: "Placeholder_4"
  input: "Placeholder_3"
  input: "Placeholder_2"
  input: "LeakyRelu_5/Maximum"
  attr {
    key: "T"
    value {
      type: DT_FLOAT
    }
  }
  attr {
    key: "Tindices"
    value {
      type: DT_INT64
    }
  }
  attr {
    key: "adjoint_a"
    value {
      b: false
    }
  }
  attr {
    key: "adjoint_b"
    value {
      b: false
    }
  }
}
node {
  name: "MatMul_6"
  op: "MatMul"
  input: "SparseTensorDenseMatMul/SparseTensorDenseMatMul"
  input: "actor_agent_12/Variable/read"
  attr {
    key: "T"
    value {
      type: DT_FLOAT
    }
  }
  attr {
    key: "transpose_a"
    value {
      b: false
    }
  }
  attr {
    key: "transpose_b"
    value {
      b: false
    }
  }
}
node {
  name: "add_6"
  op: "Add"
  input: "MatMul_6"
  input: "actor_agent_13/Variable/read"
  attr {
    key: "T"
    value {
      type: DT_FLOAT
    }
  }
}
node {
  name: "LeakyRelu_6/alpha"
  op: "Const"
  attr {
    key: "dtype"
    value {
      type: DT_FLOAT
    }
  }
  attr {
    key: "value"
    value {
      tensor {
        dtype: DT_FLOAT
        tensor_shape {
        }
        float_val: 0.20000000298023224
      }
    }
  }
}
node {
  name: "LeakyRelu_6/mul"
  op: "Mul"
  input: "LeakyRelu_6/alpha"
  input: "add_6"
  attr {
    key: "T"
    value {
      type: DT_FLOAT
    }
  }
}
node {
  name: "LeakyRelu_6/Maximum"
  op: "Maximum"
  input: "LeakyRelu_6/mul"
  input: "add_6"
  attr {
    key: "T"
    value {
      type: DT_FLOAT
    }
  }
}
node {
  name: "MatMul_7"
  op: "MatMul"
  input: "LeakyRelu_6/Maximum"
  input: "actor_agent_14/Variable/read"
  attr {
    key: "T"
    value {
      type: DT_FLOAT
    }
  }
  attr {
    key: "transpose_a"
    value {
      b: false
    }
  }
  attr {
    key: "transpose_b"
    value {
      b: false
    }
  }
}
node {
  name: "add_7"
  op: "Add"
  input: "MatMul_7"
  input: "actor_agent_15/Variable/read"
  attr {
    key: "T"
    value {
      type: DT_FLOAT
    }
  }
}
node {
  name: "LeakyRelu_7/alpha"
  op: "Const"
  attr {
    key: "dtype"
    value {
      type: DT_FLOAT
    }
  }
  attr {
    key: "value"
    value {
      tensor {
        dtype: DT_FLOAT
        tensor_shape {
        }
        float_val: 0.20000000298023224
      }
    }
  }
}
node {
  name: "LeakyRelu_7/mul"
  op: "Mul"
  input: "LeakyRelu_7/alpha"
  input: "add_7"
  attr {
    key: "T"
    value {
      type: DT_FLOAT
    }
  }
}
node {
  name: "LeakyRelu_7/Maximum"
  op: "Maximum"
  input: "LeakyRelu_7/mul"
  input: "add_7"
  attr {
    key: "T"
    value {
      type: DT_FLOAT
    }
  }
}
node {
  name: "MatMul_8"
  op: "MatMul"
  input: "LeakyRelu_7/Maximum"
  input: "actor_agent_16/Variable/read"
  attr {
    key: "T"
    value {
      type: DT_FLOAT
    }
  }
  attr {
    key: "transpose_a"
    value {
      b: false
    }
  }
  attr {
    key: "transpose_b"
    value {
      b: false
    }
  }
}
node {
  name: "add_8"
  op: "Add"
  input: "MatMul_8"
  input: "actor_agent_17/Variable/read"
  attr {
    key: "T"
    value {
      type: DT_FLOAT
    }
  }
}
node {
  name: "LeakyRelu_8/alpha"
  op: "Const"
  attr {
    key: "dtype"
    value {
      type: DT_FLOAT
    }
  }
  attr {
    key: "value"
    value {
      tensor {
        dtype: DT_FLOAT
        tensor_shape {
        }
        float_val: 0.20000000298023224
      }
    }
  }
}
node {
  name: "LeakyRelu_8/mul"
  op: "Mul"
  input: "LeakyRelu_8/alpha"
  input: "add_8"
  attr {
    key: "T"
    value {
      type: DT_FLOAT
    }
  }
}
node {
  name: "LeakyRelu_8/Maximum"
  op: "Maximum"
  input: "LeakyRelu_8/mul"
  input: "add_8"
  attr {
    key: "T"
    value {
      type: DT_FLOAT
    }
  }
}
node {
  name: "mul"
  op: "Mul"
  input: "LeakyRelu_8/Maximum"
  input: "Placeholder_26"
  attr {
    key: "T"
    value {
      type: DT_FLOAT
    }
  }
}
node {
  name: "add_9"
  op: "Add"
  input: "LeakyRelu_2/Maximum"
  input: "mul"
  attr {
    key: "T"
    value {
      type: DT_FLOAT
    }
  }
}
node {
  name: "MatMul_9"
  op: "MatMul"
  input: "add_9"
  input: "actor_agent_6/Variable/read"
  attr {
    key: "T"
    value {
      type: DT_FLOAT
    }
  }
  attr {
    key: "transpose_a"
    value {
      b: false
    }
  }
  attr {
    key: "transpose_b"
    value {
      b: false
    }
  }
}
node {
  name: "add_10"
  op: "Add"
  input: "MatMul_9"
  input: "actor_agent_7/Variable/read"
  attr {
    key: "T"
    value {
      type: DT_FLOAT
    }
  }
}
node {
  name: "LeakyRelu_9/alpha"
  op: "Const"
  attr {
    key: "dtype"
    value {
      type: DT_FLOAT
    }
  }
  attr {
    key: "value"
    value {
      tensor {
        dtype: DT_FLOAT
        tensor_shape {
        }
        float_val: 0.20000000298023224
      }
    }
  }
}
node {
  name: "LeakyRelu_9/mul"
  op: "Mul"
  input: "LeakyRelu_9/alpha"
  input: "add_10"
  attr {
    key: "T"
    value {
      type: DT_FLOAT
    }
  }
}
node {
  name: "LeakyRelu_9/Maximum"
  op: "Maximum"
  input: "LeakyRelu_9/mul"
  input: "add_10"
  attr {
    key: "T"
    value {
      type: DT_FLOAT
    }
  }
}
node {
  name: "MatMul_10"
  op: "MatMul"
  input: "LeakyRelu_9/Maximum"
  input: "actor_agent_8/Variable/read"
  attr {
    key: "T"
    value {
      type: DT_FLOAT
    }
  }
  attr {
    key: "transpose_a"
    value {
      b: false
    }
  }
  attr {
    key: "transpose_b"
    value {
      b: false
    }
  }
}
node {
  name: "add_11"
  op: "Add"
  input: "MatMul_10"
  input: "actor_agent_9/Variable/read"
  attr {
    key: "T"
    value {
      type: DT_FLOAT
    }
  }
}
node {
  name: "LeakyRelu_10/alpha"
  op: "Const"
  attr {
    key: "dtype"
    value {
      type: DT_FLOAT
    }
  }
  attr {
    key: "value"
    value {
      tensor {
        dtype: DT_FLOAT
        tensor_shape {
        }
        float_val: 0.20000000298023224
      }
    }
  }
}
node {
  name: "LeakyRelu_10/mul"
  op: "Mul"
  input: "LeakyRelu_10/alpha"
  input: "add_11"
  attr {
    key: "T"
    value {
      type: DT_FLOAT
    }
  }
}
node {
  name: "LeakyRelu_10/Maximum"
  op: "Maximum"
  input: "LeakyRelu_10/mul"
  input: "add_11"
  attr {
    key: "T"
    value {
      type: DT_FLOAT
    }
  }
}
node {
  name: "MatMul_11"
  op: "MatMul"
  input: "LeakyRelu_10/Maximum"
  input: "actor_agent_10/Variable/read"
  attr {
    key: "T"
    value {
      type: DT_FLOAT
    }
  }
  attr {
    key: "transpose_a"
    value {
      b: false
    }
  }
  attr {
    key: "transpose_b"
    value {
      b: false
    }
  }
}
node {
  name: "add_12"
  op: "Add"
  input: "MatMul_11"
  input: "actor_agent_11/Variable/read"
  attr {
    key: "T"
    value {
      type: DT_FLOAT
    }
  }
}
node {
  name: "LeakyRelu_11/alpha"
  op: "Const"
  attr {
    key: "dtype"
    value {
      type: DT_FLOAT
    }
  }
  attr {
    key: "value"
    value {
      tensor {
        dtype: DT_FLOAT
        tensor_shape {
        }
        float_val: 0.20000000298023224
      }
    }
  }
}
node {
  name: "LeakyRelu_11/mul"
  op: "Mul"
  input: "LeakyRelu_11/alpha"
  input: "add_12"
  attr {
    key: "T"
    value {
      type: DT_FLOAT
    }
  }
}
node {
  name: "LeakyRelu_11/Maximum"
  op: "Maximum"
  input: "LeakyRelu_11/mul"
  input: "add_12"
  attr {
    key: "T"
    value {
      type: DT_FLOAT
    }
  }
}
node {
  name: "SparseTensorDenseMatMul_1/SparseTensorDenseMatMul"
  op: "SparseTensorDenseMatMul"
  input: "Placeholder_7"
  input: "Placeholder_6"
  input: "Placeholder_5"
  input: "LeakyRelu_11/Maximum"
  attr {
    key: "T"
    value {
      type: DT_FLOAT
    }
  }
  attr {
    key: "Tindices"
    value {
      type: DT_INT64
    }
  }
  attr {
    key: "adjoint_a"
    value {
      b: false
    }
  }
  attr {
    key: "adjoint_b"
    value {
      b: false
    }
  }
}
node {
  name: "MatMul_12"
  op: "MatMul"
  input: "SparseTensorDenseMatMul_1/SparseTensorDenseMatMul"
  input: "actor_agent_12/Variable/read"
  attr {
    key: "T"
    value {
      type: DT_FLOAT
    }
  }
  attr {
    key: "transpose_a"
    value {
      b: false
    }
  }
  attr {
    key: "transpose_b"
    value {
      b: false
    }
  }
}
node {
  name: "add_13"
  op: "Add"
  input: "MatMul_12"
  input: "actor_agent_13/Variable/read"
  attr {
    key: "T"
    value {
      type: DT_FLOAT
    }
  }
}
node {
  name: "LeakyRelu_12/alpha"
  op: "Const"
  attr {
    key: "dtype"
    value {
      type: DT_FLOAT
    }
  }
  attr {
    key: "value"
    value {
      tensor {
        dtype: DT_FLOAT
        tensor_shape {
        }
        float_val: 0.20000000298023224
      }
    }
  }
}
node {
  name: "LeakyRelu_12/mul"
  op: "Mul"
  input: "LeakyRelu_12/alpha"
  input: "add_13"
  attr {
    key: "T"
    value {
      type: DT_FLOAT
    }
  }
}
node {
  name: "LeakyRelu_12/Maximum"
  op: "Maximum"
  input: "LeakyRelu_12/mul"
  input: "add_13"
  attr {
    key: "T"
    value {
      type: DT_FLOAT
    }
  }
}
node {
  name: "MatMul_13"
  op: "MatMul"
  input: "LeakyRelu_12/Maximum"
  input: "actor_agent_14/Variable/read"
  attr {
    key: "T"
    value {
      type: DT_FLOAT
    }
  }
  attr {
    key: "transpose_a"
    value {
      b: false
    }
  }
  attr {
    key: "transpose_b"
    value {
      b: false
    }
  }
}
node {
  name: "add_14"
  op: "Add"
  input: "MatMul_13"
  input: "actor_agent_15/Variable/read"
  attr {
    key: "T"
    value {
      type: DT_FLOAT
    }
  }
}
node {
  name: "LeakyRelu_13/alpha"
  op: "Const"
  attr {
    key: "dtype"
    value {
      type: DT_FLOAT
    }
  }
  attr {
    key: "value"
    value {
      tensor {
        dtype: DT_FLOAT
        tensor_shape {
        }
        float_val: 0.20000000298023224
      }
    }
  }
}
node {
  name: "LeakyRelu_13/mul"
  op: "Mul"
  input: "LeakyRelu_13/alpha"
  input: "add_14"
  attr {
    key: "T"
    value {
      type: DT_FLOAT
    }
  }
}
node {
  name: "LeakyRelu_13/Maximum"
  op: "Maximum"
  input: "LeakyRelu_13/mul"
  input: "add_14"
  attr {
    key: "T"
    value {
      type: DT_FLOAT
    }
  }
}
node {
  name: "MatMul_14"
  op: "MatMul"
  input: "LeakyRelu_13/Maximum"
  input: "actor_agent_16/Variable/read"
  attr {
    key: "T"
    value {
      type: DT_FLOAT
    }
  }
  attr {
    key: "transpose_a"
    value {
      b: false
    }
  }
  attr {
    key: "transpose_b"
    value {
      b: false
    }
  }
}
node {
  name: "add_15"
  op: "Add"
  input: "MatMul_14"
  input: "actor_agent_17/Variable/read"
  attr {
    key: "T"
    value {
      type: DT_FLOAT
    }
  }
}
node {
  name: "LeakyRelu_14/alpha"
  op: "Const"
  attr {
    key: "dtype"
    value {
      type: DT_FLOAT
    }
  }
  attr {
    key: "value"
    value {
      tensor {
        dtype: DT_FLOAT
        tensor_shape {
        }
        float_val: 0.20000000298023224
      }
    }
  }
}
node {
  name: "LeakyRelu_14/mul"
  op: "Mul"
  input: "LeakyRelu_14/alpha"
  input: "add_15"
  attr {
    key: "T"
    value {
      type: DT_FLOAT
    }
  }
}
node {
  name: "LeakyRelu_14/Maximum"
  op: "Maximum"
  input: "LeakyRelu_14/mul"
  input: "add_15"
  attr {
    key: "T"
    value {
      type: DT_FLOAT
    }
  }
}
node {
  name: "mul_1"
  op: "Mul"
  input: "LeakyRelu_14/Maximum"
  input: "Placeholder_27"
  attr {
    key: "T"
    value {
      type: DT_FLOAT
    }
  }
}
node {
  name: "add_16"
  op: "Add"
  input: "add_9"
  input: "mul_1"
  attr {
    key: "T"
    value {
      type: DT_FLOAT
    }
  }
}
node {
  name: "MatMul_15"
  op: "MatMul"
  input: "add_16"
  input: "actor_agent_6/Variable/read"
  attr {
    key: "T"
    value {
      type: DT_FLOAT
    }
  }
  attr {
    key: "transpose_a"
    value {
      b: false
    }
  }
  attr {
    key: "transpose_b"
    value {
      b: false
    }
  }
}
node {
  name: "add_17"
  op: "Add"
  input: "MatMul_15"
  input: "actor_agent_7/Variable/read"
  attr {
    key: "T"
    value {
      type: DT_FLOAT
    }
  }
}
node {
  name: "LeakyRelu_15/alpha"
  op: "Const"
  attr {
    key: "dtype"
    value {
      type: DT_FLOAT
    }
  }
  attr {
    key: "value"
    value {
      tensor {
        dtype: DT_FLOAT
        tensor_shape {
        }
        float_val: 0.20000000298023224
      }
    }
  }
}
node {
  name: "LeakyRelu_15/mul"
  op: "Mul"
  input: "LeakyRelu_15/alpha"
  input: "add_17"
  attr {
    key: "T"
    value {
      type: DT_FLOAT
    }
  }
}
node {
  name: "LeakyRelu_15/Maximum"
  op: "Maximum"
  input: "LeakyRelu_15/mul"
  input: "add_17"
  attr {
    key: "T"
    value {
      type: DT_FLOAT
    }
  }
}
node {
  name: "MatMul_16"
  op: "MatMul"
  input: "LeakyRelu_15/Maximum"
  input: "actor_agent_8/Variable/read"
  attr {
    key: "T"
    value {
      type: DT_FLOAT
    }
  }
  attr {
    key: "transpose_a"
    value {
      b: false
    }
  }
  attr {
    key: "transpose_b"
    value {
      b: false
    }
  }
}
node {
  name: "add_18"
  op: "Add"
  input: "MatMul_16"
  input: "actor_agent_9/Variable/read"
  attr {
    key: "T"
    value {
      type: DT_FLOAT
    }
  }
}
node {
  name: "LeakyRelu_16/alpha"
  op: "Const"
  attr {
    key: "dtype"
    value {
      type: DT_FLOAT
    }
  }
  attr {
    key: "value"
    value {
      tensor {
        dtype: DT_FLOAT
        tensor_shape {
        }
        float_val: 0.20000000298023224
      }
    }
  }
}
node {
  name: "LeakyRelu_16/mul"
  op: "Mul"
  input: "LeakyRelu_16/alpha"
  input: "add_18"
  attr {
    key: "T"
    value {
      type: DT_FLOAT
    }
  }
}
node {
  name: "LeakyRelu_16/Maximum"
  op: "Maximum"
  input: "LeakyRelu_16/mul"
  input: "add_18"
  attr {
    key: "T"
    value {
      type: DT_FLOAT
    }
  }
}
node {
  name: "MatMul_17"
  op: "MatMul"
  input: "LeakyRelu_16/Maximum"
  input: "actor_agent_10/Variable/read"
  attr {
    key: "T"
    value {
      type: DT_FLOAT
    }
  }
  attr {
    key: "transpose_a"
    value {
      b: false
    }
  }
  attr {
    key: "transpose_b"
    value {
      b: false
    }
  }
}
node {
  name: "add_19"
  op: "Add"
  input: "MatMul_17"
  input: "actor_agent_11/Variable/read"
  attr {
    key: "T"
    value {
      type: DT_FLOAT
    }
  }
}
node {
  name: "LeakyRelu_17/alpha"
  op: "Const"
  attr {
    key: "dtype"
    value {
      type: DT_FLOAT
    }
  }
  attr {
    key: "value"
    value {
      tensor {
        dtype: DT_FLOAT
        tensor_shape {
        }
        float_val: 0.20000000298023224
      }
    }
  }
}
node {
  name: "LeakyRelu_17/mul"
  op: "Mul"
  input: "LeakyRelu_17/alpha"
  input: "add_19"
  attr {
    key: "T"
    value {
      type: DT_FLOAT
    }
  }
}
node {
  name: "LeakyRelu_17/Maximum"
  op: "Maximum"
  input: "LeakyRelu_17/mul"
  input: "add_19"
  attr {
    key: "T"
    value {
      type: DT_FLOAT
    }
  }
}
node {
  name: "SparseTensorDenseMatMul_2/SparseTensorDenseMatMul"
  op: "SparseTensorDenseMatMul"
  input: "Placeholder_10"
  input: "Placeholder_9"
  input: "Placeholder_8"
  input: "LeakyRelu_17/Maximum"
  attr {
    key: "T"
    value {
      type: DT_FLOAT
    }
  }
  attr {
    key: "Tindices"
    value {
      type: DT_INT64
    }
  }
  attr {
    key: "adjoint_a"
    value {
      b: false
    }
  }
  attr {
    key: "adjoint_b"
    value {
      b: false
    }
  }
}
node {
  name: "MatMul_18"
  op: "MatMul"
  input: "SparseTensorDenseMatMul_2/SparseTensorDenseMatMul"
  input: "actor_agent_12/Variable/read"
  attr {
    key: "T"
    value {
      type: DT_FLOAT
    }
  }
  attr {
    key: "transpose_a"
    value {
      b: false
    }
  }
  attr {
    key: "transpose_b"
    value {
      b: false
    }
  }
}
node {
  name: "add_20"
  op: "Add"
  input: "MatMul_18"
  input: "actor_agent_13/Variable/read"
  attr {
    key: "T"
    value {
      type: DT_FLOAT
    }
  }
}
node {
  name: "LeakyRelu_18/alpha"
  op: "Const"
  attr {
    key: "dtype"
    value {
      type: DT_FLOAT
    }
  }
  attr {
    key: "value"
    value {
      tensor {
        dtype: DT_FLOAT
        tensor_shape {
        }
        float_val: 0.20000000298023224
      }
    }
  }
}
node {
  name: "LeakyRelu_18/mul"
  op: "Mul"
  input: "LeakyRelu_18/alpha"
  input: "add_20"
  attr {
    key: "T"
    value {
      type: DT_FLOAT
    }
  }
}
node {
  name: "LeakyRelu_18/Maximum"
  op: "Maximum"
  input: "LeakyRelu_18/mul"
  input: "add_20"
  attr {
    key: "T"
    value {
      type: DT_FLOAT
    }
  }
}
node {
  name: "MatMul_19"
  op: "MatMul"
  input: "LeakyRelu_18/Maximum"
  input: "actor_agent_14/Variable/read"
  attr {
    key: "T"
    value {
      type: DT_FLOAT
    }
  }
  attr {
    key: "transpose_a"
    value {
      b: false
    }
  }
  attr {
    key: "transpose_b"
    value {
      b: false
    }
  }
}
node {
  name: "add_21"
  op: "Add"
  input: "MatMul_19"
  input: "actor_agent_15/Variable/read"
  attr {
    key: "T"
    value {
      type: DT_FLOAT
    }
  }
}
node {
  name: "LeakyRelu_19/alpha"
  op: "Const"
  attr {
    key: "dtype"
    value {
      type: DT_FLOAT
    }
  }
  attr {
    key: "value"
    value {
      tensor {
        dtype: DT_FLOAT
        tensor_shape {
        }
        float_val: 0.20000000298023224
      }
    }
  }
}
node {
  name: "LeakyRelu_19/mul"
  op: "Mul"
  input: "LeakyRelu_19/alpha"
  input: "add_21"
  attr {
    key: "T"
    value {
      type: DT_FLOAT
    }
  }
}
node {
  name: "LeakyRelu_19/Maximum"
  op: "Maximum"
  input: "LeakyRelu_19/mul"
  input: "add_21"
  attr {
    key: "T"
    value {
      type: DT_FLOAT
    }
  }
}
node {
  name: "MatMul_20"
  op: "MatMul"
  input: "LeakyRelu_19/Maximum"
  input: "actor_agent_16/Variable/read"
  attr {
    key: "T"
    value {
      type: DT_FLOAT
    }
  }
  attr {
    key: "transpose_a"
    value {
      b: false
    }
  }
  attr {
    key: "transpose_b"
    value {
      b: false
    }
  }
}
node {
  name: "add_22"
  op: "Add"
  input: "MatMul_20"
  input: "actor_agent_17/Variable/read"
  attr {
    key: "T"
    value {
      type: DT_FLOAT
    }
  }
}
node {
  name: "LeakyRelu_20/alpha"
  op: "Const"
  attr {
    key: "dtype"
    value {
      type: DT_FLOAT
    }
  }
  attr {
    key: "value"
    value {
      tensor {
        dtype: DT_FLOAT
        tensor_shape {
        }
        float_val: 0.20000000298023224
      }
    }
  }
}
node {
  name: "LeakyRelu_20/mul"
  op: "Mul"
  input: "LeakyRelu_20/alpha"
  input: "add_22"
  attr {
    key: "T"
    value {
      type: DT_FLOAT
    }
  }
}
node {
  name: "LeakyRelu_20/Maximum"
  op: "Maximum"
  input: "LeakyRelu_20/mul"
  input: "add_22"
  attr {
    key: "T"
    value {
      type: DT_FLOAT
    }
  }
}
node {
  name: "mul_2"
  op: "Mul"
  input: "LeakyRelu_20/Maximum"
  input: "Placeholder_28"
  attr {
    key: "T"
    value {
      type: DT_FLOAT
    }
  }
}
node {
  name: "add_23"
  op: "Add"
  input: "add_16"
  input: "mul_2"
  attr {
    key: "T"
    value {
      type: DT_FLOAT
    }
  }
}
node {
  name: "MatMul_21"
  op: "MatMul"
  input: "add_23"
  input: "actor_agent_6/Variable/read"
  attr {
    key: "T"
    value {
      type: DT_FLOAT
    }
  }
  attr {
    key: "transpose_a"
    value {
      b: false
    }
  }
  attr {
    key: "transpose_b"
    value {
      b: false
    }
  }
}
node {
  name: "add_24"
  op: "Add"
  input: "MatMul_21"
  input: "actor_agent_7/Variable/read"
  attr {
    key: "T"
    value {
      type: DT_FLOAT
    }
  }
}
node {
  name: "LeakyRelu_21/alpha"
  op: "Const"
  attr {
    key: "dtype"
    value {
      type: DT_FLOAT
    }
  }
  attr {
    key: "value"
    value {
      tensor {
        dtype: DT_FLOAT
        tensor_shape {
        }
        float_val: 0.20000000298023224
      }
    }
  }
}
node {
  name: "LeakyRelu_21/mul"
  op: "Mul"
  input: "LeakyRelu_21/alpha"
  input: "add_24"
  attr {
    key: "T"
    value {
      type: DT_FLOAT
    }
  }
}
node {
  name: "LeakyRelu_21/Maximum"
  op: "Maximum"
  input: "LeakyRelu_21/mul"
  input: "add_24"
  attr {
    key: "T"
    value {
      type: DT_FLOAT
    }
  }
}
node {
  name: "MatMul_22"
  op: "MatMul"
  input: "LeakyRelu_21/Maximum"
  input: "actor_agent_8/Variable/read"
  attr {
    key: "T"
    value {
      type: DT_FLOAT
    }
  }
  attr {
    key: "transpose_a"
    value {
      b: false
    }
  }
  attr {
    key: "transpose_b"
    value {
      b: false
    }
  }
}
node {
  name: "add_25"
  op: "Add"
  input: "MatMul_22"
  input: "actor_agent_9/Variable/read"
  attr {
    key: "T"
    value {
      type: DT_FLOAT
    }
  }
}
node {
  name: "LeakyRelu_22/alpha"
  op: "Const"
  attr {
    key: "dtype"
    value {
      type: DT_FLOAT
    }
  }
  attr {
    key: "value"
    value {
      tensor {
        dtype: DT_FLOAT
        tensor_shape {
        }
        float_val: 0.20000000298023224
      }
    }
  }
}
node {
  name: "LeakyRelu_22/mul"
  op: "Mul"
  input: "LeakyRelu_22/alpha"
  input: "add_25"
  attr {
    key: "T"
    value {
      type: DT_FLOAT
    }
  }
}
node {
  name: "LeakyRelu_22/Maximum"
  op: "Maximum"
  input: "LeakyRelu_22/mul"
  input: "add_25"
  attr {
    key: "T"
    value {
      type: DT_FLOAT
    }
  }
}
node {
  name: "MatMul_23"
  op: "MatMul"
  input: "LeakyRelu_22/Maximum"
  input: "actor_agent_10/Variable/read"
  attr {
    key: "T"
    value {
      type: DT_FLOAT
    }
  }
  attr {
    key: "transpose_a"
    value {
      b: false
    }
  }
  attr {
    key: "transpose_b"
    value {
      b: false
    }
  }
}
node {
  name: "add_26"
  op: "Add"
  input: "MatMul_23"
  input: "actor_agent_11/Variable/read"
  attr {
    key: "T"
    value {
      type: DT_FLOAT
    }
  }
}
node {
  name: "LeakyRelu_23/alpha"
  op: "Const"
  attr {
    key: "dtype"
    value {
      type: DT_FLOAT
    }
  }
  attr {
    key: "value"
    value {
      tensor {
        dtype: DT_FLOAT
        tensor_shape {
        }
        float_val: 0.20000000298023224
      }
    }
  }
}
node {
  name: "LeakyRelu_23/mul"
  op: "Mul"
  input: "LeakyRelu_23/alpha"
  input: "add_26"
  attr {
    key: "T"
    value {
      type: DT_FLOAT
    }
  }
}
node {
  name: "LeakyRelu_23/Maximum"
  op: "Maximum"
  input: "LeakyRelu_23/mul"
  input: "add_26"
  attr {
    key: "T"
    value {
      type: DT_FLOAT
    }
  }
}
node {
  name: "SparseTensorDenseMatMul_3/SparseTensorDenseMatMul"
  op: "SparseTensorDenseMatMul"
  input: "Placeholder_13"
  input: "Placeholder_12"
  input: "Placeholder_11"
  input: "LeakyRelu_23/Maximum"
  attr {
    key: "T"
    value {
      type: DT_FLOAT
    }
  }
  attr {
    key: "Tindices"
    value {
      type: DT_INT64
    }
  }
  attr {
    key: "adjoint_a"
    value {
      b: false
    }
  }
  attr {
    key: "adjoint_b"
    value {
      b: false
    }
  }
}
node {
  name: "MatMul_24"
  op: "MatMul"
  input: "SparseTensorDenseMatMul_3/SparseTensorDenseMatMul"
  input: "actor_agent_12/Variable/read"
  attr {
    key: "T"
    value {
      type: DT_FLOAT
    }
  }
  attr {
    key: "transpose_a"
    value {
      b: false
    }
  }
  attr {
    key: "transpose_b"
    value {
      b: false
    }
  }
}
node {
  name: "add_27"
  op: "Add"
  input: "MatMul_24"
  input: "actor_agent_13/Variable/read"
  attr {
    key: "T"
    value {
      type: DT_FLOAT
    }
  }
}
node {
  name: "LeakyRelu_24/alpha"
  op: "Const"
  attr {
    key: "dtype"
    value {
      type: DT_FLOAT
    }
  }
  attr {
    key: "value"
    value {
      tensor {
        dtype: DT_FLOAT
        tensor_shape {
        }
        float_val: 0.20000000298023224
      }
    }
  }
}
node {
  name: "LeakyRelu_24/mul"
  op: "Mul"
  input: "LeakyRelu_24/alpha"
  input: "add_27"
  attr {
    key: "T"
    value {
      type: DT_FLOAT
    }
  }
}
node {
  name: "LeakyRelu_24/Maximum"
  op: "Maximum"
  input: "LeakyRelu_24/mul"
  input: "add_27"
  attr {
    key: "T"
    value {
      type: DT_FLOAT
    }
  }
}
node {
  name: "MatMul_25"
  op: "MatMul"
  input: "LeakyRelu_24/Maximum"
  input: "actor_agent_14/Variable/read"
  attr {
    key: "T"
    value {
      type: DT_FLOAT
    }
  }
  attr {
    key: "transpose_a"
    value {
      b: false
    }
  }
  attr {
    key: "transpose_b"
    value {
      b: false
    }
  }
}
node {
  name: "add_28"
  op: "Add"
  input: "MatMul_25"
  input: "actor_agent_15/Variable/read"
  attr {
    key: "T"
    value {
      type: DT_FLOAT
    }
  }
}
node {
  name: "LeakyRelu_25/alpha"
  op: "Const"
  attr {
    key: "dtype"
    value {
      type: DT_FLOAT
    }
  }
  attr {
    key: "value"
    value {
      tensor {
        dtype: DT_FLOAT
        tensor_shape {
        }
        float_val: 0.20000000298023224
      }
    }
  }
}
node {
  name: "LeakyRelu_25/mul"
  op: "Mul"
  input: "LeakyRelu_25/alpha"
  input: "add_28"
  attr {
    key: "T"
    value {
      type: DT_FLOAT
    }
  }
}
node {
  name: "LeakyRelu_25/Maximum"
  op: "Maximum"
  input: "LeakyRelu_25/mul"
  input: "add_28"
  attr {
    key: "T"
    value {
      type: DT_FLOAT
    }
  }
}
node {
  name: "MatMul_26"
  op: "MatMul"
  input: "LeakyRelu_25/Maximum"
  input: "actor_agent_16/Variable/read"
  attr {
    key: "T"
    value {
      type: DT_FLOAT
    }
  }
  attr {
    key: "transpose_a"
    value {
      b: false
    }
  }
  attr {
    key: "transpose_b"
    value {
      b: false
    }
  }
}
node {
  name: "add_29"
  op: "Add"
  input: "MatMul_26"
  input: "actor_agent_17/Variable/read"
  attr {
    key: "T"
    value {
      type: DT_FLOAT
    }
  }
}
node {
  name: "LeakyRelu_26/alpha"
  op: "Const"
  attr {
    key: "dtype"
    value {
      type: DT_FLOAT
    }
  }
  attr {
    key: "value"
    value {
      tensor {
        dtype: DT_FLOAT
        tensor_shape {
        }
        float_val: 0.20000000298023224
      }
    }
  }
}
node {
  name: "LeakyRelu_26/mul"
  op: "Mul"
  input: "LeakyRelu_26/alpha"
  input: "add_29"
  attr {
    key: "T"
    value {
      type: DT_FLOAT
    }
  }
}
node {
  name: "LeakyRelu_26/Maximum"
  op: "Maximum"
  input: "LeakyRelu_26/mul"
  input: "add_29"
  attr {
    key: "T"
    value {
      type: DT_FLOAT
    }
  }
}
node {
  name: "mul_3"
  op: "Mul"
  input: "LeakyRelu_26/Maximum"
  input: "Placeholder_29"
  attr {
    key: "T"
    value {
      type: DT_FLOAT
    }
  }
}
node {
  name: "add_30"
  op: "Add"
  input: "add_23"
  input: "mul_3"
  attr {
    key: "T"
    value {
      type: DT_FLOAT
    }
  }
}
node {
  name: "MatMul_27"
  op: "MatMul"
  input: "add_30"
  input: "actor_agent_6/Variable/read"
  attr {
    key: "T"
    value {
      type: DT_FLOAT
    }
  }
  attr {
    key: "transpose_a"
    value {
      b: false
    }
  }
  attr {
    key: "transpose_b"
    value {
      b: false
    }
  }
}
node {
  name: "add_31"
  op: "Add"
  input: "MatMul_27"
  input: "actor_agent_7/Variable/read"
  attr {
    key: "T"
    value {
      type: DT_FLOAT
    }
  }
}
node {
  name: "LeakyRelu_27/alpha"
  op: "Const"
  attr {
    key: "dtype"
    value {
      type: DT_FLOAT
    }
  }
  attr {
    key: "value"
    value {
      tensor {
        dtype: DT_FLOAT
        tensor_shape {
        }
        float_val: 0.20000000298023224
      }
    }
  }
}
node {
  name: "LeakyRelu_27/mul"
  op: "Mul"
  input: "LeakyRelu_27/alpha"
  input: "add_31"
  attr {
    key: "T"
    value {
      type: DT_FLOAT
    }
  }
}
node {
  name: "LeakyRelu_27/Maximum"
  op: "Maximum"
  input: "LeakyRelu_27/mul"
  input: "add_31"
  attr {
    key: "T"
    value {
      type: DT_FLOAT
    }
  }
}
node {
  name: "MatMul_28"
  op: "MatMul"
  input: "LeakyRelu_27/Maximum"
  input: "actor_agent_8/Variable/read"
  attr {
    key: "T"
    value {
      type: DT_FLOAT
    }
  }
  attr {
    key: "transpose_a"
    value {
      b: false
    }
  }
  attr {
    key: "transpose_b"
    value {
      b: false
    }
  }
}
node {
  name: "add_32"
  op: "Add"
  input: "MatMul_28"
  input: "actor_agent_9/Variable/read"
  attr {
    key: "T"
    value {
      type: DT_FLOAT
    }
  }
}
node {
  name: "LeakyRelu_28/alpha"
  op: "Const"
  attr {
    key: "dtype"
    value {
      type: DT_FLOAT
    }
  }
  attr {
    key: "value"
    value {
      tensor {
        dtype: DT_FLOAT
        tensor_shape {
        }
        float_val: 0.20000000298023224
      }
    }
  }
}
node {
  name: "LeakyRelu_28/mul"
  op: "Mul"
  input: "LeakyRelu_28/alpha"
  input: "add_32"
  attr {
    key: "T"
    value {
      type: DT_FLOAT
    }
  }
}
node {
  name: "LeakyRelu_28/Maximum"
  op: "Maximum"
  input: "LeakyRelu_28/mul"
  input: "add_32"
  attr {
    key: "T"
    value {
      type: DT_FLOAT
    }
  }
}
node {
  name: "MatMul_29"
  op: "MatMul"
  input: "LeakyRelu_28/Maximum"
  input: "actor_agent_10/Variable/read"
  attr {
    key: "T"
    value {
      type: DT_FLOAT
    }
  }
  attr {
    key: "transpose_a"
    value {
      b: false
    }
  }
  attr {
    key: "transpose_b"
    value {
      b: false
    }
  }
}
node {
  name: "add_33"
  op: "Add"
  input: "MatMul_29"
  input: "actor_agent_11/Variable/read"
  attr {
    key: "T"
    value {
      type: DT_FLOAT
    }
  }
}
node {
  name: "LeakyRelu_29/alpha"
  op: "Const"
  attr {
    key: "dtype"
    value {
      type: DT_FLOAT
    }
  }
  attr {
    key: "value"
    value {
      tensor {
        dtype: DT_FLOAT
        tensor_shape {
        }
        float_val: 0.20000000298023224
      }
    }
  }
}
node {
  name: "LeakyRelu_29/mul"
  op: "Mul"
  input: "LeakyRelu_29/alpha"
  input: "add_33"
  attr {
    key: "T"
    value {
      type: DT_FLOAT
    }
  }
}
node {
  name: "LeakyRelu_29/Maximum"
  op: "Maximum"
  input: "LeakyRelu_29/mul"
  input: "add_33"
  attr {
    key: "T"
    value {
      type: DT_FLOAT
    }
  }
}
node {
  name: "SparseTensorDenseMatMul_4/SparseTensorDenseMatMul"
  op: "SparseTensorDenseMatMul"
  input: "Placeholder_16"
  input: "Placeholder_15"
  input: "Placeholder_14"
  input: "LeakyRelu_29/Maximum"
  attr {
    key: "T"
    value {
      type: DT_FLOAT
    }
  }
  attr {
    key: "Tindices"
    value {
      type: DT_INT64
    }
  }
  attr {
    key: "adjoint_a"
    value {
      b: false
    }
  }
  attr {
    key: "adjoint_b"
    value {
      b: false
    }
  }
}
node {
  name: "MatMul_30"
  op: "MatMul"
  input: "SparseTensorDenseMatMul_4/SparseTensorDenseMatMul"
  input: "actor_agent_12/Variable/read"
  attr {
    key: "T"
    value {
      type: DT_FLOAT
    }
  }
  attr {
    key: "transpose_a"
    value {
      b: false
    }
  }
  attr {
    key: "transpose_b"
    value {
      b: false
    }
  }
}
node {
  name: "add_34"
  op: "Add"
  input: "MatMul_30"
  input: "actor_agent_13/Variable/read"
  attr {
    key: "T"
    value {
      type: DT_FLOAT
    }
  }
}
node {
  name: "LeakyRelu_30/alpha"
  op: "Const"
  attr {
    key: "dtype"
    value {
      type: DT_FLOAT
    }
  }
  attr {
    key: "value"
    value {
      tensor {
        dtype: DT_FLOAT
        tensor_shape {
        }
        float_val: 0.20000000298023224
      }
    }
  }
}
node {
  name: "LeakyRelu_30/mul"
  op: "Mul"
  input: "LeakyRelu_30/alpha"
  input: "add_34"
  attr {
    key: "T"
    value {
      type: DT_FLOAT
    }
  }
}
node {
  name: "LeakyRelu_30/Maximum"
  op: "Maximum"
  input: "LeakyRelu_30/mul"
  input: "add_34"
  attr {
    key: "T"
    value {
      type: DT_FLOAT
    }
  }
}
node {
  name: "MatMul_31"
  op: "MatMul"
  input: "LeakyRelu_30/Maximum"
  input: "actor_agent_14/Variable/read"
  attr {
    key: "T"
    value {
      type: DT_FLOAT
    }
  }
  attr {
    key: "transpose_a"
    value {
      b: false
    }
  }
  attr {
    key: "transpose_b"
    value {
      b: false
    }
  }
}
node {
  name: "add_35"
  op: "Add"
  input: "MatMul_31"
  input: "actor_agent_15/Variable/read"
  attr {
    key: "T"
    value {
      type: DT_FLOAT
    }
  }
}
node {
  name: "LeakyRelu_31/alpha"
  op: "Const"
  attr {
    key: "dtype"
    value {
      type: DT_FLOAT
    }
  }
  attr {
    key: "value"
    value {
      tensor {
        dtype: DT_FLOAT
        tensor_shape {
        }
        float_val: 0.20000000298023224
      }
    }
  }
}
node {
  name: "LeakyRelu_31/mul"
  op: "Mul"
  input: "LeakyRelu_31/alpha"
  input: "add_35"
  attr {
    key: "T"
    value {
      type: DT_FLOAT
    }
  }
}
node {
  name: "LeakyRelu_31/Maximum"
  op: "Maximum"
  input: "LeakyRelu_31/mul"
  input: "add_35"
  attr {
    key: "T"
    value {
      type: DT_FLOAT
    }
  }
}
node {
  name: "MatMul_32"
  op: "MatMul"
  input: "LeakyRelu_31/Maximum"
  input: "actor_agent_16/Variable/read"
  attr {
    key: "T"
    value {
      type: DT_FLOAT
    }
  }
  attr {
    key: "transpose_a"
    value {
      b: false
    }
  }
  attr {
    key: "transpose_b"
    value {
      b: false
    }
  }
}
node {
  name: "add_36"
  op: "Add"
  input: "MatMul_32"
  input: "actor_agent_17/Variable/read"
  attr {
    key: "T"
    value {
      type: DT_FLOAT
    }
  }
}
node {
  name: "LeakyRelu_32/alpha"
  op: "Const"
  attr {
    key: "dtype"
    value {
      type: DT_FLOAT
    }
  }
  attr {
    key: "value"
    value {
      tensor {
        dtype: DT_FLOAT
        tensor_shape {
        }
        float_val: 0.20000000298023224
      }
    }
  }
}
node {
  name: "LeakyRelu_32/mul"
  op: "Mul"
  input: "LeakyRelu_32/alpha"
  input: "add_36"
  attr {
    key: "T"
    value {
      type: DT_FLOAT
    }
  }
}
node {
  name: "LeakyRelu_32/Maximum"
  op: "Maximum"
  input: "LeakyRelu_32/mul"
  input: "add_36"
  attr {
    key: "T"
    value {
      type: DT_FLOAT
    }
  }
}
node {
  name: "mul_4"
  op: "Mul"
  input: "LeakyRelu_32/Maximum"
  input: "Placeholder_30"
  attr {
    key: "T"
    value {
      type: DT_FLOAT
    }
  }
}
node {
  name: "add_37"
  op: "Add"
  input: "add_30"
  input: "mul_4"
  attr {
    key: "T"
    value {
      type: DT_FLOAT
    }
  }
}
node {
  name: "MatMul_33"
  op: "MatMul"
  input: "add_37"
  input: "actor_agent_6/Variable/read"
  attr {
    key: "T"
    value {
      type: DT_FLOAT
    }
  }
  attr {
    key: "transpose_a"
    value {
      b: false
    }
  }
  attr {
    key: "transpose_b"
    value {
      b: false
    }
  }
}
node {
  name: "add_38"
  op: "Add"
  input: "MatMul_33"
  input: "actor_agent_7/Variable/read"
  attr {
    key: "T"
    value {
      type: DT_FLOAT
    }
  }
}
node {
  name: "LeakyRelu_33/alpha"
  op: "Const"
  attr {
    key: "dtype"
    value {
      type: DT_FLOAT
    }
  }
  attr {
    key: "value"
    value {
      tensor {
        dtype: DT_FLOAT
        tensor_shape {
        }
        float_val: 0.20000000298023224
      }
    }
  }
}
node {
  name: "LeakyRelu_33/mul"
  op: "Mul"
  input: "LeakyRelu_33/alpha"
  input: "add_38"
  attr {
    key: "T"
    value {
      type: DT_FLOAT
    }
  }
}
node {
  name: "LeakyRelu_33/Maximum"
  op: "Maximum"
  input: "LeakyRelu_33/mul"
  input: "add_38"
  attr {
    key: "T"
    value {
      type: DT_FLOAT
    }
  }
}
node {
  name: "MatMul_34"
  op: "MatMul"
  input: "LeakyRelu_33/Maximum"
  input: "actor_agent_8/Variable/read"
  attr {
    key: "T"
    value {
      type: DT_FLOAT
    }
  }
  attr {
    key: "transpose_a"
    value {
      b: false
    }
  }
  attr {
    key: "transpose_b"
    value {
      b: false
    }
  }
}
node {
  name: "add_39"
  op: "Add"
  input: "MatMul_34"
  input: "actor_agent_9/Variable/read"
  attr {
    key: "T"
    value {
      type: DT_FLOAT
    }
  }
}
node {
  name: "LeakyRelu_34/alpha"
  op: "Const"
  attr {
    key: "dtype"
    value {
      type: DT_FLOAT
    }
  }
  attr {
    key: "value"
    value {
      tensor {
        dtype: DT_FLOAT
        tensor_shape {
        }
        float_val: 0.20000000298023224
      }
    }
  }
}
node {
  name: "LeakyRelu_34/mul"
  op: "Mul"
  input: "LeakyRelu_34/alpha"
  input: "add_39"
  attr {
    key: "T"
    value {
      type: DT_FLOAT
    }
  }
}
node {
  name: "LeakyRelu_34/Maximum"
  op: "Maximum"
  input: "LeakyRelu_34/mul"
  input: "add_39"
  attr {
    key: "T"
    value {
      type: DT_FLOAT
    }
  }
}
node {
  name: "MatMul_35"
  op: "MatMul"
  input: "LeakyRelu_34/Maximum"
  input: "actor_agent_10/Variable/read"
  attr {
    key: "T"
    value {
      type: DT_FLOAT
    }
  }
  attr {
    key: "transpose_a"
    value {
      b: false
    }
  }
  attr {
    key: "transpose_b"
    value {
      b: false
    }
  }
}
node {
  name: "add_40"
  op: "Add"
  input: "MatMul_35"
  input: "actor_agent_11/Variable/read"
  attr {
    key: "T"
    value {
      type: DT_FLOAT
    }
  }
}
node {
  name: "LeakyRelu_35/alpha"
  op: "Const"
  attr {
    key: "dtype"
    value {
      type: DT_FLOAT
    }
  }
  attr {
    key: "value"
    value {
      tensor {
        dtype: DT_FLOAT
        tensor_shape {
        }
        float_val: 0.20000000298023224
      }
    }
  }
}
node {
  name: "LeakyRelu_35/mul"
  op: "Mul"
  input: "LeakyRelu_35/alpha"
  input: "add_40"
  attr {
    key: "T"
    value {
      type: DT_FLOAT
    }
  }
}
node {
  name: "LeakyRelu_35/Maximum"
  op: "Maximum"
  input: "LeakyRelu_35/mul"
  input: "add_40"
  attr {
    key: "T"
    value {
      type: DT_FLOAT
    }
  }
}
node {
  name: "SparseTensorDenseMatMul_5/SparseTensorDenseMatMul"
  op: "SparseTensorDenseMatMul"
  input: "Placeholder_19"
  input: "Placeholder_18"
  input: "Placeholder_17"
  input: "LeakyRelu_35/Maximum"
  attr {
    key: "T"
    value {
      type: DT_FLOAT
    }
  }
  attr {
    key: "Tindices"
    value {
      type: DT_INT64
    }
  }
  attr {
    key: "adjoint_a"
    value {
      b: false
    }
  }
  attr {
    key: "adjoint_b"
    value {
      b: false
    }
  }
}
node {
  name: "MatMul_36"
  op: "MatMul"
  input: "SparseTensorDenseMatMul_5/SparseTensorDenseMatMul"
  input: "actor_agent_12/Variable/read"
  attr {
    key: "T"
    value {
      type: DT_FLOAT
    }
  }
  attr {
    key: "transpose_a"
    value {
      b: false
    }
  }
  attr {
    key: "transpose_b"
    value {
      b: false
    }
  }
}
node {
  name: "add_41"
  op: "Add"
  input: "MatMul_36"
  input: "actor_agent_13/Variable/read"
  attr {
    key: "T"
    value {
      type: DT_FLOAT
    }
  }
}
node {
  name: "LeakyRelu_36/alpha"
  op: "Const"
  attr {
    key: "dtype"
    value {
      type: DT_FLOAT
    }
  }
  attr {
    key: "value"
    value {
      tensor {
        dtype: DT_FLOAT
        tensor_shape {
        }
        float_val: 0.20000000298023224
      }
    }
  }
}
node {
  name: "LeakyRelu_36/mul"
  op: "Mul"
  input: "LeakyRelu_36/alpha"
  input: "add_41"
  attr {
    key: "T"
    value {
      type: DT_FLOAT
    }
  }
}
node {
  name: "LeakyRelu_36/Maximum"
  op: "Maximum"
  input: "LeakyRelu_36/mul"
  input: "add_41"
  attr {
    key: "T"
    value {
      type: DT_FLOAT
    }
  }
}
node {
  name: "MatMul_37"
  op: "MatMul"
  input: "LeakyRelu_36/Maximum"
  input: "actor_agent_14/Variable/read"
  attr {
    key: "T"
    value {
      type: DT_FLOAT
    }
  }
  attr {
    key: "transpose_a"
    value {
      b: false
    }
  }
  attr {
    key: "transpose_b"
    value {
      b: false
    }
  }
}
node {
  name: "add_42"
  op: "Add"
  input: "MatMul_37"
  input: "actor_agent_15/Variable/read"
  attr {
    key: "T"
    value {
      type: DT_FLOAT
    }
  }
}
node {
  name: "LeakyRelu_37/alpha"
  op: "Const"
  attr {
    key: "dtype"
    value {
      type: DT_FLOAT
    }
  }
  attr {
    key: "value"
    value {
      tensor {
        dtype: DT_FLOAT
        tensor_shape {
        }
        float_val: 0.20000000298023224
      }
    }
  }
}
node {
  name: "LeakyRelu_37/mul"
  op: "Mul"
  input: "LeakyRelu_37/alpha"
  input: "add_42"
  attr {
    key: "T"
    value {
      type: DT_FLOAT
    }
  }
}
node {
  name: "LeakyRelu_37/Maximum"
  op: "Maximum"
  input: "LeakyRelu_37/mul"
  input: "add_42"
  attr {
    key: "T"
    value {
      type: DT_FLOAT
    }
  }
}
node {
  name: "MatMul_38"
  op: "MatMul"
  input: "LeakyRelu_37/Maximum"
  input: "actor_agent_16/Variable/read"
  attr {
    key: "T"
    value {
      type: DT_FLOAT
    }
  }
  attr {
    key: "transpose_a"
    value {
      b: false
    }
  }
  attr {
    key: "transpose_b"
    value {
      b: false
    }
  }
}
node {
  name: "add_43"
  op: "Add"
  input: "MatMul_38"
  input: "actor_agent_17/Variable/read"
  attr {
    key: "T"
    value {
      type: DT_FLOAT
    }
  }
}
node {
  name: "LeakyRelu_38/alpha"
  op: "Const"
  attr {
    key: "dtype"
    value {
      type: DT_FLOAT
    }
  }
  attr {
    key: "value"
    value {
      tensor {
        dtype: DT_FLOAT
        tensor_shape {
        }
        float_val: 0.20000000298023224
      }
    }
  }
}
node {
  name: "LeakyRelu_38/mul"
  op: "Mul"
  input: "LeakyRelu_38/alpha"
  input: "add_43"
  attr {
    key: "T"
    value {
      type: DT_FLOAT
    }
  }
}
node {
  name: "LeakyRelu_38/Maximum"
  op: "Maximum"
  input: "LeakyRelu_38/mul"
  input: "add_43"
  attr {
    key: "T"
    value {
      type: DT_FLOAT
    }
  }
}
node {
  name: "mul_5"
  op: "Mul"
  input: "LeakyRelu_38/Maximum"
  input: "Placeholder_31"
  attr {
    key: "T"
    value {
      type: DT_FLOAT
    }
  }
}
node {
  name: "add_44"
  op: "Add"
  input: "add_37"
  input: "mul_5"
  attr {
    key: "T"
    value {
      type: DT_FLOAT
    }
  }
}
node {
  name: "MatMul_39"
  op: "MatMul"
  input: "add_44"
  input: "actor_agent_6/Variable/read"
  attr {
    key: "T"
    value {
      type: DT_FLOAT
    }
  }
  attr {
    key: "transpose_a"
    value {
      b: false
    }
  }
  attr {
    key: "transpose_b"
    value {
      b: false
    }
  }
}
node {
  name: "add_45"
  op: "Add"
  input: "MatMul_39"
  input: "actor_agent_7/Variable/read"
  attr {
    key: "T"
    value {
      type: DT_FLOAT
    }
  }
}
node {
  name: "LeakyRelu_39/alpha"
  op: "Const"
  attr {
    key: "dtype"
    value {
      type: DT_FLOAT
    }
  }
  attr {
    key: "value"
    value {
      tensor {
        dtype: DT_FLOAT
        tensor_shape {
        }
        float_val: 0.20000000298023224
      }
    }
  }
}
node {
  name: "LeakyRelu_39/mul"
  op: "Mul"
  input: "LeakyRelu_39/alpha"
  input: "add_45"
  attr {
    key: "T"
    value {
      type: DT_FLOAT
    }
  }
}
node {
  name: "LeakyRelu_39/Maximum"
  op: "Maximum"
  input: "LeakyRelu_39/mul"
  input: "add_45"
  attr {
    key: "T"
    value {
      type: DT_FLOAT
    }
  }
}
node {
  name: "MatMul_40"
  op: "MatMul"
  input: "LeakyRelu_39/Maximum"
  input: "actor_agent_8/Variable/read"
  attr {
    key: "T"
    value {
      type: DT_FLOAT
    }
  }
  attr {
    key: "transpose_a"
    value {
      b: false
    }
  }
  attr {
    key: "transpose_b"
    value {
      b: false
    }
  }
}
node {
  name: "add_46"
  op: "Add"
  input: "MatMul_40"
  input: "actor_agent_9/Variable/read"
  attr {
    key: "T"
    value {
      type: DT_FLOAT
    }
  }
}
node {
  name: "LeakyRelu_40/alpha"
  op: "Const"
  attr {
    key: "dtype"
    value {
      type: DT_FLOAT
    }
  }
  attr {
    key: "value"
    value {
      tensor {
        dtype: DT_FLOAT
        tensor_shape {
        }
        float_val: 0.20000000298023224
      }
    }
  }
}
node {
  name: "LeakyRelu_40/mul"
  op: "Mul"
  input: "LeakyRelu_40/alpha"
  input: "add_46"
  attr {
    key: "T"
    value {
      type: DT_FLOAT
    }
  }
}
node {
  name: "LeakyRelu_40/Maximum"
  op: "Maximum"
  input: "LeakyRelu_40/mul"
  input: "add_46"
  attr {
    key: "T"
    value {
      type: DT_FLOAT
    }
  }
}
node {
  name: "MatMul_41"
  op: "MatMul"
  input: "LeakyRelu_40/Maximum"
  input: "actor_agent_10/Variable/read"
  attr {
    key: "T"
    value {
      type: DT_FLOAT
    }
  }
  attr {
    key: "transpose_a"
    value {
      b: false
    }
  }
  attr {
    key: "transpose_b"
    value {
      b: false
    }
  }
}
node {
  name: "add_47"
  op: "Add"
  input: "MatMul_41"
  input: "actor_agent_11/Variable/read"
  attr {
    key: "T"
    value {
      type: DT_FLOAT
    }
  }
}
node {
  name: "LeakyRelu_41/alpha"
  op: "Const"
  attr {
    key: "dtype"
    value {
      type: DT_FLOAT
    }
  }
  attr {
    key: "value"
    value {
      tensor {
        dtype: DT_FLOAT
        tensor_shape {
        }
        float_val: 0.20000000298023224
      }
    }
  }
}
node {
  name: "LeakyRelu_41/mul"
  op: "Mul"
  input: "LeakyRelu_41/alpha"
  input: "add_47"
  attr {
    key: "T"
    value {
      type: DT_FLOAT
    }
  }
}
node {
  name: "LeakyRelu_41/Maximum"
  op: "Maximum"
  input: "LeakyRelu_41/mul"
  input: "add_47"
  attr {
    key: "T"
    value {
      type: DT_FLOAT
    }
  }
}
node {
  name: "SparseTensorDenseMatMul_6/SparseTensorDenseMatMul"
  op: "SparseTensorDenseMatMul"
  input: "Placeholder_22"
  input: "Placeholder_21"
  input: "Placeholder_20"
  input: "LeakyRelu_41/Maximum"
  attr {
    key: "T"
    value {
      type: DT_FLOAT
    }
  }
  attr {
    key: "Tindices"
    value {
      type: DT_INT64
    }
  }
  attr {
    key: "adjoint_a"
    value {
      b: false
    }
  }
  attr {
    key: "adjoint_b"
    value {
      b: false
    }
  }
}
node {
  name: "MatMul_42"
  op: "MatMul"
  input: "SparseTensorDenseMatMul_6/SparseTensorDenseMatMul"
  input: "actor_agent_12/Variable/read"
  attr {
    key: "T"
    value {
      type: DT_FLOAT
    }
  }
  attr {
    key: "transpose_a"
    value {
      b: false
    }
  }
  attr {
    key: "transpose_b"
    value {
      b: false
    }
  }
}
node {
  name: "add_48"
  op: "Add"
  input: "MatMul_42"
  input: "actor_agent_13/Variable/read"
  attr {
    key: "T"
    value {
      type: DT_FLOAT
    }
  }
}
node {
  name: "LeakyRelu_42/alpha"
  op: "Const"
  attr {
    key: "dtype"
    value {
      type: DT_FLOAT
    }
  }
  attr {
    key: "value"
    value {
      tensor {
        dtype: DT_FLOAT
        tensor_shape {
        }
        float_val: 0.20000000298023224
      }
    }
  }
}
node {
  name: "LeakyRelu_42/mul"
  op: "Mul"
  input: "LeakyRelu_42/alpha"
  input: "add_48"
  attr {
    key: "T"
    value {
      type: DT_FLOAT
    }
  }
}
node {
  name: "LeakyRelu_42/Maximum"
  op: "Maximum"
  input: "LeakyRelu_42/mul"
  input: "add_48"
  attr {
    key: "T"
    value {
      type: DT_FLOAT
    }
  }
}
node {
  name: "MatMul_43"
  op: "MatMul"
  input: "LeakyRelu_42/Maximum"
  input: "actor_agent_14/Variable/read"
  attr {
    key: "T"
    value {
      type: DT_FLOAT
    }
  }
  attr {
    key: "transpose_a"
    value {
      b: false
    }
  }
  attr {
    key: "transpose_b"
    value {
      b: false
    }
  }
}
node {
  name: "add_49"
  op: "Add"
  input: "MatMul_43"
  input: "actor_agent_15/Variable/read"
  attr {
    key: "T"
    value {
      type: DT_FLOAT
    }
  }
}
node {
  name: "LeakyRelu_43/alpha"
  op: "Const"
  attr {
    key: "dtype"
    value {
      type: DT_FLOAT
    }
  }
  attr {
    key: "value"
    value {
      tensor {
        dtype: DT_FLOAT
        tensor_shape {
        }
        float_val: 0.20000000298023224
      }
    }
  }
}
node {
  name: "LeakyRelu_43/mul"
  op: "Mul"
  input: "LeakyRelu_43/alpha"
  input: "add_49"
  attr {
    key: "T"
    value {
      type: DT_FLOAT
    }
  }
}
node {
  name: "LeakyRelu_43/Maximum"
  op: "Maximum"
  input: "LeakyRelu_43/mul"
  input: "add_49"
  attr {
    key: "T"
    value {
      type: DT_FLOAT
    }
  }
}
node {
  name: "MatMul_44"
  op: "MatMul"
  input: "LeakyRelu_43/Maximum"
  input: "actor_agent_16/Variable/read"
  attr {
    key: "T"
    value {
      type: DT_FLOAT
    }
  }
  attr {
    key: "transpose_a"
    value {
      b: false
    }
  }
  attr {
    key: "transpose_b"
    value {
      b: false
    }
  }
}
node {
  name: "add_50"
  op: "Add"
  input: "MatMul_44"
  input: "actor_agent_17/Variable/read"
  attr {
    key: "T"
    value {
      type: DT_FLOAT
    }
  }
}
node {
  name: "LeakyRelu_44/alpha"
  op: "Const"
  attr {
    key: "dtype"
    value {
      type: DT_FLOAT
    }
  }
  attr {
    key: "value"
    value {
      tensor {
        dtype: DT_FLOAT
        tensor_shape {
        }
        float_val: 0.20000000298023224
      }
    }
  }
}
node {
  name: "LeakyRelu_44/mul"
  op: "Mul"
  input: "LeakyRelu_44/alpha"
  input: "add_50"
  attr {
    key: "T"
    value {
      type: DT_FLOAT
    }
  }
}
node {
  name: "LeakyRelu_44/Maximum"
  op: "Maximum"
  input: "LeakyRelu_44/mul"
  input: "add_50"
  attr {
    key: "T"
    value {
      type: DT_FLOAT
    }
  }
}
node {
  name: "mul_6"
  op: "Mul"
  input: "LeakyRelu_44/Maximum"
  input: "Placeholder_32"
  attr {
    key: "T"
    value {
      type: DT_FLOAT
    }
  }
}
node {
  name: "add_51"
  op: "Add"
  input: "add_44"
  input: "mul_6"
  attr {
    key: "T"
    value {
      type: DT_FLOAT
    }
  }
}
node {
  name: "MatMul_45"
  op: "MatMul"
  input: "add_51"
  input: "actor_agent_6/Variable/read"
  attr {
    key: "T"
    value {
      type: DT_FLOAT
    }
  }
  attr {
    key: "transpose_a"
    value {
      b: false
    }
  }
  attr {
    key: "transpose_b"
    value {
      b: false
    }
  }
}
node {
  name: "add_52"
  op: "Add"
  input: "MatMul_45"
  input: "actor_agent_7/Variable/read"
  attr {
    key: "T"
    value {
      type: DT_FLOAT
    }
  }
}
node {
  name: "LeakyRelu_45/alpha"
  op: "Const"
  attr {
    key: "dtype"
    value {
      type: DT_FLOAT
    }
  }
  attr {
    key: "value"
    value {
      tensor {
        dtype: DT_FLOAT
        tensor_shape {
        }
        float_val: 0.20000000298023224
      }
    }
  }
}
node {
  name: "LeakyRelu_45/mul"
  op: "Mul"
  input: "LeakyRelu_45/alpha"
  input: "add_52"
  attr {
    key: "T"
    value {
      type: DT_FLOAT
    }
  }
}
node {
  name: "LeakyRelu_45/Maximum"
  op: "Maximum"
  input: "LeakyRelu_45/mul"
  input: "add_52"
  attr {
    key: "T"
    value {
      type: DT_FLOAT
    }
  }
}
node {
  name: "MatMul_46"
  op: "MatMul"
  input: "LeakyRelu_45/Maximum"
  input: "actor_agent_8/Variable/read"
  attr {
    key: "T"
    value {
      type: DT_FLOAT
    }
  }
  attr {
    key: "transpose_a"
    value {
      b: false
    }
  }
  attr {
    key: "transpose_b"
    value {
      b: false
    }
  }
}
node {
  name: "add_53"
  op: "Add"
  input: "MatMul_46"
  input: "actor_agent_9/Variable/read"
  attr {
    key: "T"
    value {
      type: DT_FLOAT
    }
  }
}
node {
  name: "LeakyRelu_46/alpha"
  op: "Const"
  attr {
    key: "dtype"
    value {
      type: DT_FLOAT
    }
  }
  attr {
    key: "value"
    value {
      tensor {
        dtype: DT_FLOAT
        tensor_shape {
        }
        float_val: 0.20000000298023224
      }
    }
  }
}
node {
  name: "LeakyRelu_46/mul"
  op: "Mul"
  input: "LeakyRelu_46/alpha"
  input: "add_53"
  attr {
    key: "T"
    value {
      type: DT_FLOAT
    }
  }
}
node {
  name: "LeakyRelu_46/Maximum"
  op: "Maximum"
  input: "LeakyRelu_46/mul"
  input: "add_53"
  attr {
    key: "T"
    value {
      type: DT_FLOAT
    }
  }
}
node {
  name: "MatMul_47"
  op: "MatMul"
  input: "LeakyRelu_46/Maximum"
  input: "actor_agent_10/Variable/read"
  attr {
    key: "T"
    value {
      type: DT_FLOAT
    }
  }
  attr {
    key: "transpose_a"
    value {
      b: false
    }
  }
  attr {
    key: "transpose_b"
    value {
      b: false
    }
  }
}
node {
  name: "add_54"
  op: "Add"
  input: "MatMul_47"
  input: "actor_agent_11/Variable/read"
  attr {
    key: "T"
    value {
      type: DT_FLOAT
    }
  }
}
node {
  name: "LeakyRelu_47/alpha"
  op: "Const"
  attr {
    key: "dtype"
    value {
      type: DT_FLOAT
    }
  }
  attr {
    key: "value"
    value {
      tensor {
        dtype: DT_FLOAT
        tensor_shape {
        }
        float_val: 0.20000000298023224
      }
    }
  }
}
node {
  name: "LeakyRelu_47/mul"
  op: "Mul"
  input: "LeakyRelu_47/alpha"
  input: "add_54"
  attr {
    key: "T"
    value {
      type: DT_FLOAT
    }
  }
}
node {
  name: "LeakyRelu_47/Maximum"
  op: "Maximum"
  input: "LeakyRelu_47/mul"
  input: "add_54"
  attr {
    key: "T"
    value {
      type: DT_FLOAT
    }
  }
}
node {
  name: "SparseTensorDenseMatMul_7/SparseTensorDenseMatMul"
  op: "SparseTensorDenseMatMul"
  input: "Placeholder_25"
  input: "Placeholder_24"
  input: "Placeholder_23"
  input: "LeakyRelu_47/Maximum"
  attr {
    key: "T"
    value {
      type: DT_FLOAT
    }
  }
  attr {
    key: "Tindices"
    value {
      type: DT_INT64
    }
  }
  attr {
    key: "adjoint_a"
    value {
      b: false
    }
  }
  attr {
    key: "adjoint_b"
    value {
      b: false
    }
  }
}
node {
  name: "MatMul_48"
  op: "MatMul"
  input: "SparseTensorDenseMatMul_7/SparseTensorDenseMatMul"
  input: "actor_agent_12/Variable/read"
  attr {
    key: "T"
    value {
      type: DT_FLOAT
    }
  }
  attr {
    key: "transpose_a"
    value {
      b: false
    }
  }
  attr {
    key: "transpose_b"
    value {
      b: false
    }
  }
}
node {
  name: "add_55"
  op: "Add"
  input: "MatMul_48"
  input: "actor_agent_13/Variable/read"
  attr {
    key: "T"
    value {
      type: DT_FLOAT
    }
  }
}
node {
  name: "LeakyRelu_48/alpha"
  op: "Const"
  attr {
    key: "dtype"
    value {
      type: DT_FLOAT
    }
  }
  attr {
    key: "value"
    value {
      tensor {
        dtype: DT_FLOAT
        tensor_shape {
        }
        float_val: 0.20000000298023224
      }
    }
  }
}
node {
  name: "LeakyRelu_48/mul"
  op: "Mul"
  input: "LeakyRelu_48/alpha"
  input: "add_55"
  attr {
    key: "T"
    value {
      type: DT_FLOAT
    }
  }
}
node {
  name: "LeakyRelu_48/Maximum"
  op: "Maximum"
  input: "LeakyRelu_48/mul"
  input: "add_55"
  attr {
    key: "T"
    value {
      type: DT_FLOAT
    }
  }
}
node {
  name: "MatMul_49"
  op: "MatMul"
  input: "LeakyRelu_48/Maximum"
  input: "actor_agent_14/Variable/read"
  attr {
    key: "T"
    value {
      type: DT_FLOAT
    }
  }
  attr {
    key: "transpose_a"
    value {
      b: false
    }
  }
  attr {
    key: "transpose_b"
    value {
      b: false
    }
  }
}
node {
  name: "add_56"
  op: "Add"
  input: "MatMul_49"
  input: "actor_agent_15/Variable/read"
  attr {
    key: "T"
    value {
      type: DT_FLOAT
    }
  }
}
node {
  name: "LeakyRelu_49/alpha"
  op: "Const"
  attr {
    key: "dtype"
    value {
      type: DT_FLOAT
    }
  }
  attr {
    key: "value"
    value {
      tensor {
        dtype: DT_FLOAT
        tensor_shape {
        }
        float_val: 0.20000000298023224
      }
    }
  }
}
node {
  name: "LeakyRelu_49/mul"
  op: "Mul"
  input: "LeakyRelu_49/alpha"
  input: "add_56"
  attr {
    key: "T"
    value {
      type: DT_FLOAT
    }
  }
}
node {
  name: "LeakyRelu_49/Maximum"
  op: "Maximum"
  input: "LeakyRelu_49/mul"
  input: "add_56"
  attr {
    key: "T"
    value {
      type: DT_FLOAT
    }
  }
}
node {
  name: "MatMul_50"
  op: "MatMul"
  input: "LeakyRelu_49/Maximum"
  input: "actor_agent_16/Variable/read"
  attr {
    key: "T"
    value {
      type: DT_FLOAT
    }
  }
  attr {
    key: "transpose_a"
    value {
      b: false
    }
  }
  attr {
    key: "transpose_b"
    value {
      b: false
    }
  }
}
node {
  name: "add_57"
  op: "Add"
  input: "MatMul_50"
  input: "actor_agent_17/Variable/read"
  attr {
    key: "T"
    value {
      type: DT_FLOAT
    }
  }
}
node {
  name: "LeakyRelu_50/alpha"
  op: "Const"
  attr {
    key: "dtype"
    value {
      type: DT_FLOAT
    }
  }
  attr {
    key: "value"
    value {
      tensor {
        dtype: DT_FLOAT
        tensor_shape {
        }
        float_val: 0.20000000298023224
      }
    }
  }
}
node {
  name: "LeakyRelu_50/mul"
  op: "Mul"
  input: "LeakyRelu_50/alpha"
  input: "add_57"
  attr {
    key: "T"
    value {
      type: DT_FLOAT
    }
  }
}
node {
  name: "LeakyRelu_50/Maximum"
  op: "Maximum"
  input: "LeakyRelu_50/mul"
  input: "add_57"
  attr {
    key: "T"
    value {
      type: DT_FLOAT
    }
  }
}
node {
  name: "mul_7"
  op: "Mul"
  input: "LeakyRelu_50/Maximum"
  input: "Placeholder_33"
  attr {
    key: "T"
    value {
      type: DT_FLOAT
    }
  }
}
node {
  name: "add_58"
  op: "Add"
  input: "add_51"
  input: "mul_7"
  attr {
    key: "T"
    value {
      type: DT_FLOAT
    }
  }
}
node {
  name: "concat/axis"
  op: "Const"
  attr {
    key: "dtype"
    value {
      type: DT_INT32
    }
  }
  attr {
    key: "value"
    value {
      tensor {
        dtype: DT_INT32
        tensor_shape {
        }
        int_val: 1
      }
    }
  }
}
node {
  name: "concat"
  op: "ConcatV2"
  input: "Placeholder"
  input: "add_58"
  input: "concat/axis"
  attr {
    key: "N"
    value {
      i: 2
    }
  }
  attr {
    key: "T"
    value {
      type: DT_FLOAT
    }
  }
  attr {
    key: "Tidx"
    value {
      type: DT_INT32
    }
  }
}
node {
  name: "Placeholder_34"
  op: "Placeholder"
  attr {
    key: "dtype"
    value {
      type: DT_INT64
    }
  }
  attr {
    key: "shape"
    value {
      shape {
        dim {
          size: 2
        }
      }
    }
  }
}
node {
  name: "Placeholder_35"
  op: "Placeholder"
  attr {
    key: "dtype"
    value {
      type: DT_FLOAT
    }
  }
  attr {
    key: "shape"
    value {
      shape {
        dim {
          size: -1
        }
      }
    }
  }
}
node {
  name: "Placeholder_36"
  op: "Placeholder"
  attr {
    key: "dtype"
    value {
      type: DT_INT64
    }
  }
  attr {
    key: "shape"
    value {
      shape {
        dim {
          size: -1
        }
        dim {
          size: 2
        }
      }
    }
  }
}
node {
  name: "Placeholder_37"
  op: "Placeholder"
  attr {
    key: "dtype"
    value {
      type: DT_INT64
    }
  }
  attr {
    key: "shape"
    value {
      shape {
        dim {
          size: 2
        }
      }
    }
  }
}
node {
  name: "Placeholder_38"
  op: "Placeholder"
  attr {
    key: "dtype"
    value {
      type: DT_FLOAT
    }
  }
  attr {
    key: "shape"
    value {
      shape {
        dim {
          size: -1
        }
      }
    }
  }
}
node {
  name: "Placeholder_39"
  op: "Placeholder"
  attr {
    key: "dtype"
    value {
      type: DT_INT64
    }
  }
  attr {
    key: "shape"
    value {
      shape {
        dim {
          size: -1
        }
        dim {
          size: 2
        }
      }
    }
  }
}
node {
  name: "actor_agent_18/Variable"
  op: "Const"
  attr {
    key: "dtype"
    value {
      type: DT_FLOAT
    }
  }
  attr {
    key: "value"
    value {
      tensor {
        dtype: DT_FLOAT
        tensor_shape {
          dim {
            size: 13
          }
          dim {
            size: 16
          }
        }
        tensor_content: "…"
      }
    }
  }
}
node {
  name: "actor_agent_18/Variable/read"
  op: "Identity"
  input: "actor_agent_18/Variable"
  attr {
    key: "T"
    value {
      type: DT_FLOAT
    }
  }
  attr {
    key: "_class"
    value {
      list {
        s: "loc:@actor_agent_18/Variable"
      }
    }
  }
}
node {
  name: "actor_agent_19/Variable"
  op: "Const"
  attr {
    key: "dtype"
    value {
      type: DT_FLOAT
    }
  }
  attr {
    key: "value"
    value {
      tensor {
        dtype: DT_FLOAT
        tensor_shape {
          dim {
            size: 16
          }
        }
        tensor_content: "…"
      }
    }
  }
}
node {
  name: "actor_agent_19/Variable/read"
  op: "Identity"
  input: "actor_agent_19/Variable"
  attr {
    key: "T"
    value {
      type: DT_FLOAT
    }
  }
  attr {
    key: "_class"
    value {
      list {
        s: "loc:@actor_agent_19/Variable"
      }
    }
  }
}
node {
  name: "actor_agent_20/Variable"
  op: "Const"
  attr {
    key: "dtype"
    value {
      type: DT_FLOAT
    }
  }
  attr {
    key: "value"
    value {
      tensor {
        dtype: DT_FLOAT
        tensor_shape {
          dim {
            size: 16
          }
          dim {
            size: 8
          }
        }
        tensor_content: "…"
      }
    }
  }
}
node {
  name: "actor_agent_20/Variable/read"
  op: "Identity"
  input: "actor_agent_20/Variable"
  attr {
    key: "T"
    value {
      type: DT_FLOAT
    }
  }
  attr {
    key: "_class"
    value {
      list {
        s: "loc:@actor_agent_20/Variable"
      }
    }
  }
}
node {
  name: "actor_agent_21/Variable"
  op: "Const"
  attr {
    key: "dtype"
    value {
      type: DT_FLOAT
    }
  }
  attr {
    key: "value"
    value {
      tensor {
        dtype: DT_FLOAT
        tensor_shape {
          dim {
            size: 8
          }
        }
        tensor_content: "…"
      }
    }
  }
}
node {
  name: "actor_agent_21/Variable/read"
  op: "Identity"
  input: "actor_agent_21/Variable"
  attr {
    key: "T"
    value {
      type: DT_FLOAT
    }
  }
  attr {
    key: "_class"
    value {
      list {
        s: "loc:@actor_agent_21/Variable"
      }
    }
  }
}
node {
  name: "actor_agent_22/Variable"
  op: "Const"
  attr {
    key: "dtype"
    value {
      type: DT_FLOAT
    }
  }
  attr {
    key: "value"
    value {
      tensor {
        dtype: DT_FLOAT
        tensor_shape {
          dim {
            size: 8
          }
          dim {
            size: 8
          }
        }
        tensor_content: "…"
      }
    }
  }
}
node {
  name: "actor_agent_22/Variable/read"
  op: "Identity"
  input: "actor_agent_22/Variable"
  attr {
    key: "T"
    value {
      type: DT_FLOAT
    }
  }
  attr {
    key: "_class"
    value {
      list {
        s: "loc:@actor_agent_22/Variable"
      }
    }
  }
}
node {
  name: "actor_agent_23/Variable"
  op: "Const"
  attr {
    key: "dtype"
    value {
      type: DT_FLOAT
    }
  }
  attr {
    key: "value"
    value {
      tensor {
        dtype: DT_FLOAT
        tensor_shape {
          dim {
            size: 8
          }
        }
        tensor_content: "…"
      }
    }
  }
}
node {
  name: "actor_agent_23/Variable/read"
  op: "Identity"
  input: "actor_agent_23/Variable"
  attr {
    key: "T"
    value {
      type: DT_FLOAT
    }
  }
  attr {
    key: "_class"
    value {
      list {
        s: "loc:@actor_agent_23/Variable"
      }
    }
  }
}
node {
  name: "actor_agent_24/Variable"
  op: "Const"
  attr {
    key: "dtype"
    value {
      type: DT_FLOAT
    }
  }
  attr {
    key: "value"
    value {
      tensor {
        dtype: DT_FLOAT
        tensor_shape {
          dim {
            size: 8
          }
          dim {
            size: 16
          }
        }
        tensor_content: "…"
      }
    }
  }
}
node {
  name: "actor_agent_24/Variable/read"
  op: "Identity"
  input: "actor_agent_24/Variable"
  attr {
    key: "T"
    value {
      type: DT_FLOAT
    }
  }
  attr {
    key: "_class"
    value {
      list {
        s: "loc:@actor_agent_24/Variable"
      }
    }
  }
}
node {
  name: "actor_agent_25/Variable"
  op: "Const"
  attr {
    key: "dtype"
    value {
      type: DT_FLOAT
    }
  }
  attr {
    key: "value"
    value {
      tensor {
        dtype: DT_FLOAT
        tensor_shape {
          dim {
            size: 16
          }
        }
        tensor_content: "…"
      }
    }
  }
}
node {
  name: "actor_agent_25/Variable/read"
  op: "Identity"
  input: "actor_agent_25/Variable"
  attr {
    key: "T"
    value {
      type: DT_FLOAT
    }
  }
  attr {
    key: "_class"
    value {
      list {
        s: "loc:@actor_agent_25/Variable"
      }
    }
  }
}
node {
  name: "actor_agent_26/Variable"
  op: "Const"
  attr {
    key: "dtype"
    value {
      type: DT_FLOAT
    }
  }
  attr {
    key: "value"
    value {
      tensor {
        dtype: DT_FLOAT
        tensor_shape {
          dim {
            size: 16
          }
          dim {
            size: 8
          }
        }
        tensor_content: "…"
      }
    }
  }
}
node {
  name: "actor_agent_26/Variable/read"
  op: "Identity"
  input: "actor_agent_26/Variable"
  attr {
    key: "T"
    value {
      type: DT_FLOAT
    }
  }
  attr {
    key: "_class"
    value {
      list {
        s: "loc:@actor_agent_26/Variable"
      }
    }
  }
}
node {
  name: "actor_agent_27/Variable"
  op: "Const"
  attr {
    key: "dtype"
    value {
      type: DT_FLOAT
    }
  }
  attr {
    key: "value"
    value {
      tensor {
        dtype: DT_FLOAT
        tensor_shape {
          dim {
            size: 8
          }
        }
        tensor_content: "…"
      }
    }
  }
}
node {
  name: "actor_agent_27/Variable/read"
  op: "Identity"
  input: "actor_agent_27/Variable"
  attr {
    key: "T"
    value {
      type: DT_FLOAT
    }
  }
  attr {
    key: "_class"
    value {
      list {
        s: "loc:@actor_agent_27/Variable"
      }
    }
  }
}
node {
  name: "actor_agent_28/Variable"
  op: "Const"
  attr {
    key: "dtype"
    value {
      type: DT_FLOAT
    }
  }
  attr {
    key: "value"
    value {
      tensor {
        dtype: DT_FLOAT
        tensor_shape {
          dim {
            size: 8
          }
          dim {
            size: 8
          }
        }
        tensor_content: "…"
      }
    }
  }
}
node {
  name: "actor_agent_28/Variable/read"
  op: "Identity"
  input: "actor_agent_28/Variable"
  attr {
    key: "T"
    value {
      type: DT_FLOAT
    }
  }
  attr {
    key: "_class"
    value {
      list {
        s: "loc:@actor_agent_28/Variable"
      }
    }
  }
}
node {
  name: "actor_agent_29/Variable"
  op: "Const"
  attr {
    key: "dtype"
    value {
      type: DT_FLOAT
    }
  }
  attr {
    key: "value"
    value {
      tensor {
        dtype: DT_FLOAT
        tensor_shape {
          dim {
            size: 8
          }
        }
        tensor_content: "…"
      }
    }
  }
}
node {
  name: "actor_agent_29/Variable/read"
  op: "Identity"
  input: "actor_agent_29/Variable"
  attr {
    key: "T"
    value {
      type: DT_FLOAT
    }
  }
  attr {
    key: "_class"
    value {
      list {
        s: "loc:@actor_agent_29/Variable"
      }
    }
  }
}
node {
  name: "MatMul_51"
  op: "MatMul"
  input: "concat"
  input: "actor_agent_18/Variable/read"
  attr {
    key: "T"
    value {
      type: DT_FLOAT
    }
  }
  attr {
    key: "transpose_a"
    value {
      b: false
    }
  }
  attr {
    key: "transpose_b"
    value {
      b: false
    }
  }
}
node {
  name: "add_59"
  op: "Add"
  input: "MatMul_51"
  input: "actor_agent_19/Variable/read"
  attr {
    key: "T"
    value {
      type: DT_FLOAT
    }
  }
}
node {
  name: "LeakyRelu_51/alpha"
  op: "Const"
  attr {
    key: "dtype"
    value {
      type: DT_FLOAT
    }
  }
  attr {
    key: "value"
    value {
      tensor {
        dtype: DT_FLOAT
        tensor_shape {
        }
        float_val: 0.20000000298023224
      }
    }
  }
}
node {
  name: "LeakyRelu_51/mul"
  op: "Mul"
  input: "LeakyRelu_51/alpha"
  input: "add_59"
  attr {
    key: "T"
    value {
      type: DT_FLOAT
    }
  }
}
node {
  name: "LeakyRelu_51/Maximum"
  op: "Maximum"
  input: "LeakyRelu_51/mul"
  input: "add_59"
  attr {
    key: "T"
    value {
      type: DT_FLOAT
    }
  }
}
node {
  name: "MatMul_52"
  op: "MatMul"
  input: "LeakyRelu_51/Maximum"
  input: "actor_agent_20/Variable/read"
  attr {
    key: "T"
    value {
      type: DT_FLOAT
    }
  }
  attr {
    key: "transpose_a"
    value {
      b: false
    }
  }
  attr {
    key: "transpose_b"
    value {
      b: false
    }
  }
}
node {
  name: "add_60"
  op: "Add"
  input: "MatMul_52"
  input: "actor_agent_21/Variable/read"
  attr {
    key: "T"
    value {
      type: DT_FLOAT
    }
  }
}
node {
  name: "LeakyRelu_52/alpha"
  op: "Const"
  attr {
    key: "dtype"
    value {
      type: DT_FLOAT
    }
  }
  attr {
    key: "value"
    value {
      tensor {
        dtype: DT_FLOAT
        tensor_shape {
        }
        float_val: 0.20000000298023224
      }
    }
  }
}
node {
  name: "LeakyRelu_52/mul"
  op: "Mul"
  input: "LeakyRelu_52/alpha"
  input: "add_60"
  attr {
    key: "T"
    value {
      type: DT_FLOAT
    }
  }
}
node {
  name: "LeakyRelu_52/Maximum"
  op: "Maximum"
  input: "LeakyRelu_52/mul"
  input: "add_60"
  attr {
    key: "T"
    value {
      type: DT_FLOAT
    }
  }
}
node {
  name: "MatMul_53"
  op: "MatMul"
  input: "LeakyRelu_52/Maximum"
  input: "actor_agent_22/Variable/read"
  attr {
    key: "T"
    value {
      type: DT_FLOAT
    }
  }
  attr {
    key: "transpose_a"
    value {
      b: false
    }
  }
  attr {
    key: "transpose_b"
    value {
      b: false
    }
  }
}
node {
  name: "add_61"
  op: "Add"
  input: "MatMul_53"
  input: "actor_agent_23/Variable/read"
  attr {
    key: "T"
    value {
      type: DT_FLOAT
    }
  }
}
node {
  name: "LeakyRelu_53/alpha"
  op: "Const"
  attr {
    key: "dtype"
    value {
      type: DT_FLOAT
    }
  }
  attr {
    key: "value"
    value {
      tensor {
        dtype: DT_FLOAT
        tensor_shape {
        }
        float_val: 0.20000000298023224
      }
    }
  }
}
node {
  name: "LeakyRelu_53/mul"
  op: "Mul"
  input: "LeakyRelu_53/alpha"
  input: "add_61"
  attr {
    key: "T"
    value {
      type: DT_FLOAT
    }
  }
}
node {
  name: "LeakyRelu_53/Maximum"
  op: "Maximum"
  input: "LeakyRelu_53/mul"
  input: "add_61"
  attr {
    key: "T"
    value {
      type: DT_FLOAT
    }
  }
}
node {
  name: "SparseTensorDenseMatMul_8/SparseTensorDenseMatMul"
  op: "SparseTensorDenseMatMul"
  input: "Placeholder_36"
  input: "Placeholder_35"
  input: "Placeholder_34"
  input: "LeakyRelu_53/Maximum"
  attr {
    key: "T"
    value {
      type: DT_FLOAT
    }
  }
  attr {
    key: "Tindices"
    value {
      type: DT_INT64
    }
  }
  attr {
    key: "adjoint_a"
    value {
      b: false
    }
  }
  attr {
    key: "adjoint_b"
    value {
      b: false
    }
  }
}
node {
  name: "MatMul_54"
  op: "MatMul"
  input: "SparseTensorDenseMatMul_8/SparseTensorDenseMatMul"
  input: "actor_agent_24/Variable/read"
  attr {
    key: "T"
    value {
      type: DT_FLOAT
    }
  }
  attr {
    key: "transpose_a"
    value {
      b: false
    }
  }
  attr {
    key: "transpose_b"
    value {
      b: false
    }
  }
}
node {
  name: "add_62"
  op: "Add"
  input: "MatMul_54"
  input: "actor_agent_25/Variable/read"
  attr {
    key: "T"
    value {
      type: DT_FLOAT
    }
  }
}
node {
  name: "LeakyRelu_54/alpha"
  op: "Const"
  attr {
    key: "dtype"
    value {
      type: DT_FLOAT
    }
  }
  attr {
    key: "value"
    value {
      tensor {
        dtype: DT_FLOAT
        tensor_shape {
        }
        float_val: 0.20000000298023224
      }
    }
  }
}
node {
  name: "LeakyRelu_54/mul"
  op: "Mul"
  input: "LeakyRelu_54/alpha"
  input: "add_62"
  attr {
    key: "T"
    value {
      type: DT_FLOAT
    }
  }
}
node {
  name: "LeakyRelu_54/Maximum"
  op: "Maximum"
  input: "LeakyRelu_54/mul"
  input: "add_62"
  attr {
    key: "T"
    value {
      type: DT_FLOAT
    }
  }
}
node {
  name: "MatMul_55"
  op: "MatMul"
  input: "LeakyRelu_54/Maximum"
  input: "actor_agent_26/Variable/read"
  attr {
    key: "T"
    value {
      type: DT_FLOAT
    }
  }
  attr {
    key: "transpose_a"
    value {
      b: false
    }
  }
  attr {
    key: "transpose_b"
    value {
      b: false
    }
  }
}
node {
  name: "add_63"
  op: "Add"
  input: "MatMul_55"
  input: "actor_agent_27/Variable/read"
  attr {
    key: "T"
    value {
      type: DT_FLOAT
    }
  }
}
node {
  name: "LeakyRelu_55/alpha"
  op: "Const"
  attr {
    key: "dtype"
    value {
      type: DT_FLOAT
    }
  }
  attr {
    key: "value"
    value {
      tensor {
        dtype: DT_FLOAT
        tensor_shape {
        }
        float_val: 0.20000000298023224
      }
    }
  }
}
node {
  name: "LeakyRelu_55/mul"
  op: "Mul"
  input: "LeakyRelu_55/alpha"
  input: "add_63"
  attr {
    key: "T"
    value {
      type: DT_FLOAT
    }
  }
}
node {
  name: "LeakyRelu_55/Maximum"
  op: "Maximum"
  input: "LeakyRelu_55/mul"
  input: "add_63"
  attr {
    key: "T"
    value {
      type: DT_FLOAT
    }
  }
}
node {
  name: "MatMul_56"
  op: "MatMul"
  input: "LeakyRelu_55/Maximum"
  input: "actor_agent_28/Variable/read"
  attr {
    key: "T"
    value {
      type: DT_FLOAT
    }
  }
  attr {
    key: "transpose_a"
    value {
      b: false
    }
  }
  attr {
    key: "transpose_b"
    value {
      b: false
    }
  }
}
node {
  name: "add_64"
  op: "Add"
  input: "MatMul_56"
  input: "actor_agent_29/Variable/read"
  attr {
    key: "T"
    value {
      type: DT_FLOAT
    }
  }
}
node {
  name: "LeakyRelu_56/alpha"
  op: "Const"
  attr {
    key: "dtype"
    value {
      type: DT_FLOAT
    }
  }
  attr {
    key: "value"
    value {
      tensor {
        dtype: DT_FLOAT
        tensor_shape {
        }
        float_val: 0.20000000298023224
      }
    }
  }
}
node {
  name: "LeakyRelu_56/mul"
  op: "Mul"
  input: "LeakyRelu_56/alpha"
  input: "add_64"
  attr {
    key: "T"
    value {
      type: DT_FLOAT
    }
  }
}
node {
  name: "LeakyRelu_56/Maximum"
  op: "Maximum"
  input: "LeakyRelu_56/mul"
  input: "add_64"
  attr {
    key: "T"
    value {
      type: DT_FLOAT
    }
  }
}
node {
  name: "SparseTensorDenseMatMul_9/SparseTensorDenseMatMul"
  op: "SparseTensorDenseMatMul"
  input: "Placeholder_39"
  input: "Placeholder_38"
  input: "Placeholder_37"
  input: "LeakyRelu_56/Maximum"
  attr {
    key: "T"
    value {
      type: DT_FLOAT
    }
  }
  attr {
    key: "Tindices"
    value {
      type: DT_INT64
    }
  }
  attr {
    key: "adjoint_a"
    value {
      b: false
    }
  }
  attr {
    key: "adjoint_b"
    value {
      b: false
    }
  }
}
node {
  name: "Placeholder_40"
  op: "Placeholder"
  attr {
    key: "dtype"
    value {
      type: DT_FLOAT
    }
  }
  attr {
    key: "shape"
    value {
      shape {
        dim {
          size: -1
        }
        dim {
          size: -1
        }
      }
    }
  }
}
node {
  name: "Shape"
  op: "Shape"
  input: "Placeholder_40"
  attr {
    key: "T"
    value {
      type: DT_FLOAT
    }
  }
  attr {
    key: "out_type"
    value {
      type: DT_INT32
    }
  }
}
node {
  name: "strided_slice/stack"
  op: "Const"
  attr {
    key: "dtype"
    value {
      type: DT_INT32
    }
  }
  attr {
    key: "value"
    value {
      tensor {
        dtype: DT_INT32
        tensor_shape {
          dim {
            size: 1
          }
        }
        int_val: 0
      }
    }
  }
}
node {
  name: "strided_slice/stack_1"
  op: "Const"
  attr {
    key: "dtype"
    value {
      type: DT_INT32
    }
  }
  attr {
    key: "value"
    value {
      tensor {
        dtype: DT_INT32
        tensor_shape {
          dim {
            size: 1
          }
        }
        int_val: 1
      }
    }
  }
}
node {
  name: "strided_slice/stack_2"
  op: "Const"
  attr {
    key: "dtype"
    value {
      type: DT_INT32
    }
  }
  attr {
    key: "value"
    value {
      tensor {
        dtype: DT_INT32
        tensor_shape {
          dim {
            size: 1
          }
        }
        int_val: 1
      }
    }
  }
}
node {
  name: "strided_slice"
  op: "StridedSlice"
  input: "Shape"
  input: "strided_slice/stack"
  input: "strided_slice/stack_1"
  input: "strided_slice/stack_2"
  attr {
    key: "Index"
    value {
      type: DT_INT32
    }
  }
  attr {
    key: "T"
    value {
      type: DT_INT32
    }
  }
  attr {
    key: "begin_mask"
    value {
      i: 0
    }
  }
  attr {
    key: "ellipsis_mask"
    value {
      i: 0
    }
  }
  attr {
    key: "end_mask"
    value {
      i: 0
    }
  }
  attr {
    key: "new_axis_mask"
    value {
      i: 0
    }
  }
  attr {
    key: "shrink_axis_mask"
    value {
      i: 1
    }
  }
}
node {
  name: "Reshape_1/shape/1"
  op: "Const"
  attr {
    key: "dtype"
    value {
      type: DT_INT32
    }
  }
  attr {
    key: "value"
    value {
      tensor {
        dtype: DT_INT32
        tensor_shape {
        }
        int_val: -1
      }
    }
  }
}
node {
  name: "Reshape_1/shape/2"
  op: "Const"
  attr {
    key: "dtype"
    value {
      type: DT_INT32
    }
  }
  attr {
    key: "value"
    value {
      tensor {
        dtype: DT_INT32
        tensor_shape {
        }
        int_val: 3
      }
    }
  }
}
node {
  name: "Reshape_1/shape"
  op: "Pack"
  input: "strided_slice"
  input: "Reshape_1/shape/1"
  input: "Reshape_1/shape/2"
  attr {
    key: "N"
    value {
      i: 3
    }
  }
  attr {
    key: "T"
    value {
      type: DT_INT32
    }
  }
  attr {
    key: "axis"
    value {
      i: 0
    }
  }
}
node {
  name: "Reshape_1"
  op: "Reshape"
  input: "Placeholder_1"
  input: "Reshape_1/shape"
  attr {
    key: "T"
    value {
      type: DT_FLOAT
    }
  }
  attr {
    key: "Tshape"
    value {
      type: DT_INT32
    }
  }
}
node {
  name: "Reshape_3/shape/1"
  op: "Const"
  attr {
    key: "dtype"
    value {
      type: DT_INT32
    }
  }
  attr {
    key: "value"
    value {
      tensor {
        dtype: DT_INT32
        tensor_shape {
        }
        int_val: -1
      }
    }
  }
}
node {
  name: "Reshape_3/shape/2"
  op: "Const"
  attr {
    key: "dtype"
    value {
      type: DT_INT32
    }
  }
  attr {
    key: "value"
    value {
      tensor {
        dtype: DT_INT32
        tensor_shape {
        }
        int_val: 8
      }
    }
  }
}
node {
  name: "Reshape_3/shape"
  op: "Pack"
  input: "strided_slice"
  input: "Reshape_3/shape/1"
  input: "Reshape_3/shape/2"
  attr {
    key: "N"
    value {
      i: 3
    }
  }
  attr {
    key: "T"
    value {
      type: DT_INT32
    }
  }
  attr {
    key: "axis"
    value {
      i: 0
    }
  }
}
node {
  name: "Reshape_3"
  op: "Reshape"
  input: "SparseTensorDenseMatMul_8/SparseTensorDenseMatMul"
  input: "Reshape_3/shape"
  attr {
    key: "T"
    value {
      type: DT_FLOAT
    }
  }
  attr {
    key: "Tshape"
    value {
      type: DT_INT32
    }
  }
}
node {
  name: "Reshape_4/shape/1"
  op: "Const"
  attr {
    key: "dtype"
    value {
      type: DT_INT32
    }
  }
  attr {
    key: "value"
    value {
      tensor {
        dtype: DT_INT32
        tensor_shape {
        }
        int_val: -1
      }
    }
  }
}
node {
  name: "Reshape_4/shape/2"
  op: "Const"
  attr {
    key: "dtype"
    value {
      type: DT_INT32
    }
  }
  attr {
    key: "value"
    value {
      tensor {
        dtype: DT_INT32
        tensor_shape {
        }
        int_val: 8
      }
    }
  }
}
node {
  name: "Reshape_4/shape"
  op: "Pack"
  input: "strided_slice"
  input: "Reshape_4/shape/1"
  input: "Reshape_4/shape/2"
  attr {
    key: "N"
    value {
      i: 3
    }
  }
  attr {
    key: "T"
    value {
      type: DT_INT32
    }
  }
  attr {
    key: "axis"
    value {
      i: 0
    }
  }
}
node {
  name: "Reshape_4"
  op: "Reshape"
  input: "SparseTensorDenseMatMul_9/SparseTensorDenseMatMul"
  input: "Reshape_4/shape"
  attr {
    key: "T"
    value {
      type: DT_FLOAT
    }
  }
  attr {
    key: "Tshape"
    value {
      type: DT_INT32
    }
  }
}
node {
  name: "Shape_1"
  op: "Shape"
  input: "Reshape_3"
  attr {
    key: "T"
    value {
      type: DT_FLOAT
    }
  }
  attr {
    key: "out_type"
    value {
      type: DT_INT32
    }
  }
}
node {
  name: "strided_slice_1/stack"
  op: "Const"
  attr {
    key: "dtype"
    value {
      type: DT_INT32
    }
  }
  attr {
    key: "value"
    value {
      tensor {
        dtype: DT_INT32
        tensor_shape {
          dim {
            size: 1
          }
        }
        int_val: 1
      }
    }
  }
}
node {
  name: "strided_slice_1/stack_1"
  op: "Const"
  attr {
    key: "dtype"
    value {
      type: DT_INT32
    }
  }
  attr {
    key: "value"
    value {
      tensor {
        dtype: DT_INT32
        tensor_shape {
          dim {
            size: 1
          }
        }
        int_val: 2
      }
    }
  }
}
node {
  name: "strided_slice_1/stack_2"
  op: "Const"
  attr {
    key: "dtype"
    value {
      type: DT_INT32
    }
  }
  attr {
    key: "value"
    value {
      tensor {
        dtype: DT_INT32
        tensor_shape {
          dim {
            size: 1
          }
        }
        int_val: 1
      }
    }
  }
}
node {
  name: "strided_slice_1"
  op: "StridedSlice"
  input: "Shape_1"
  input: "strided_slice_1/stack"
  input: "strided_slice_1/stack_1"
  input: "strided_slice_1/stack_2"
  attr {
    key: "Index"
    value {
      type: DT_INT32
    }
  }
  attr {
    key: "T"
    value {
      type: DT_INT32
    }
  }
  attr {
    key: "begin_mask"
    value {
      i: 0
    }
  }
  attr {
    key: "ellipsis_mask"
    value {
      i: 0
    }
  }
  attr {
    key: "end_mask"
    value {
      i: 0
    }
  }
  attr {
    key: "new_axis_mask"
    value {
      i: 0
    }
  }
  attr {
    key: "shrink_axis_mask"
    value {
      i: 1
    }
  }
}
node {
  name: "Tile_1/multiples/0"
  op: "Const"
  attr {
    key: "dtype"
    value {
      type: DT_INT32
    }
  }
  attr {
    key: "value"
    value {
      tensor {
        dtype: DT_INT32
        tensor_shape {
        }
        int_val: 1
      }
    }
  }
}
node {
  name: "Tile_1/multiples/2"
  op: "Const"
  attr {
    key: "dtype"
    value {
      type: DT_INT32
    }
  }
  attr {
    key: "value"
    value {
      tensor {
        dtype: DT_INT32
        tensor_shape {
        }
        int_val: 1
      }
    }
  }
}
node {
  name: "Tile_1/multiples"
  op: "Pack"
  input: "Tile_1/multiples/0"
  input: "strided_slice_1"
  input: "Tile_1/multiples/2"
  attr {
    key: "N"
    value {
      i: 3
    }
  }
  attr {
    key: "T"
    value {
      type: DT_INT32
    }
  }
  attr {
    key: "axis"
    value {
      i: 0
    }
  }
}
node {
  name: "Tile_1"
  op: "Tile"
  input: "Reshape_4"
  input: "Tile_1/multiples"
  attr {
    key: "T"
    value {
      type: DT_FLOAT
    }
  }
  attr {
    key: "Tmultiples"
    value {
      type: DT_INT32
    }
  }
}
node {
  name: "actor_agent_30/concat_1/axis"
  op: "Const"
  attr {
    key: "dtype"
    value {
      type: DT_INT32
    }
  }
  attr {
    key: "value"
    value {
      tensor {
        dtype: DT_INT32
        tensor_shape {
        }
        int_val: 2
      }
    }
  }
}
node {
  name: "actor_agent_30/concat_1"
  op: "ConcatV2"
  input: "Reshape_1"
  input: "Reshape_3"
  input: "Tile_1"
  input: "actor_agent_30/concat_1/axis"
  attr {
    key: "N"
    value {
      i: 3
    }
  }
  attr {
    key: "T"
    value {
      type: DT_FLOAT
    }
  }
  attr {
    key: "Tidx"
    value {
      type: DT_INT32
    }
  }
}
node {
  name: "actor_agent_30/Shape"
  op: "Shape"
  input: "actor_agent_30/concat_1"
  attr {
    key: "T"
    value {
      type: DT_FLOAT
    }
  }
  attr {
    key: "out_type"
    value {
      type: DT_INT32
    }
  }
}
node {
  name: "actor_agent_30/strided_slice/stack"
  op: "Const"
  attr {
    key: "dtype"
    value {
      type: DT_INT32
    }
  }
  attr {
    key: "value"
    value {
      tensor {
        dtype: DT_INT32
        tensor_shape {
          dim {
            size: 1
          }
        }
        int_val: 0
      }
    }
  }
}
node {
  name: "actor_agent_30/strided_slice/stack_1"
  op: "Const"
  attr {
    key: "dtype"
    value {
      type: DT_INT32
    }
  }
  attr {
    key: "value"
    value {
      tensor {
        dtype: DT_INT32
        tensor_shape {
          dim {
            size: 1
          }
        }
        int_val: 1
      }
    }
  }
}
node {
  name: "actor_agent_30/strided_slice/stack_2"
  op: "Const"
  attr {
    key: "dtype"
    value {
      type: DT_INT32
    }
  }
  attr {
    key: "value"
    value {
      tensor {
        dtype: DT_INT32
        tensor_shape {
          dim {
            size: 1
          }
        }
        int_val: 1
      }
    }
  }
}
node {
  name: "actor_agent_30/strided_slice"
  op: "StridedSlice"
  input: "actor_agent_30/Shape"
  input: "actor_agent_30/strided_slice/stack"
  input: "actor_agent_30/strided_slice/stack_1"
  input: "actor_agent_30/strided_slice/stack_2"
  attr {
    key: "Index"
    value {
      type: DT_INT32
    }
  }
  attr {
    key: "T"
    value {
      type: DT_INT32
    }
  }
  attr {
    key: "begin_mask"
    value {
      i: 0
    }
  }
  attr {
    key: "ellipsis_mask"
    value {
      i: 0
    }
  }
  attr {
    key: "end_mask"
    value {
      i: 0
    }
  }
  attr {
    key: "new_axis_mask"
    value {
      i: 0
    }
  }
  attr {
    key: "shrink_axis_mask"
    value {
      i: 1
    }
  }
}
node {
  name: "actor_agent_30/Shape_1"
  op: "Shape"
  input: "actor_agent_30/concat_1"
  attr {
    key: "T"
    value {
      type: DT_FLOAT
    }
  }
  attr {
    key: "out_type"
    value {
      type: DT_INT32
    }
  }
}
node {
  name: "actor_agent_30/strided_slice_1/stack"
  op: "Const"
  attr {
    key: "dtype"
    value {
      type: DT_INT32
    }
  }
  attr {
    key: "value"
    value {
      tensor {
        dtype: DT_INT32
        tensor_shape {
          dim {
            size: 1
          }
        }
        int_val: 1
      }
    }
  }
}
node {
  name: "actor_agent_30/strided_slice_1/stack_1"
  op: "Const"
  attr {
    key: "dtype"
    value {
      type: DT_INT32
    }
  }
  attr {
    key: "value"
    value {
      tensor {
        dtype: DT_INT32
        tensor_shape {
          dim {
            size: 1
          }
        }
        int_val: 2
      }
    }
  }
}
node {
  name: "actor_agent_30/strided_slice_1/stack_2"
  op: "Const"
  attr {
    key: "dtype"
    value {
      type: DT_INT32
    }
  }
  attr {
    key: "value"
    value {
      tensor {
        dtype: DT_INT32
        tensor_shape {
          dim {
            size: 1
          }
        }
        int_val: 1
      }
    }
  }
}
node {
  name: "actor_agent_30/strided_slice_1"
  op: "StridedSlice"
  input: "actor_agent_30/Shape_1"
  input: "actor_agent_30/strided_slice_1/stack"
  input: "actor_agent_30/strided_slice_1/stack_1"
  input: "actor_agent_30/strided_slice_1/stack_2"
  attr {
    key: "Index"
    value {
      type: DT_INT32
    }
  }
  attr {
    key: "T"
    value {
      type: DT_INT32
    }
  }
  attr {
    key: "begin_mask"
    value {
      i: 0
    }
  }
  attr {
    key: "ellipsis_mask"
    value {
      i: 0
    }
  }
  attr {
    key: "end_mask"
    value {
      i: 0
    }
  }
  attr {
    key: "new_axis_mask"
    value {
      i: 0
    }
  }
  attr {
    key: "shrink_axis_mask"
    value {
      i: 1
    }
  }
}
node {
  name: "actor_agent_30/Tile/multiples"
  op: "Const"
  attr {
    key: "dtype"
    value {
      type: DT_INT32
    }
  }
  attr {
    key: "value"
    value {
      tensor {
        dtype: DT_INT32
        tensor_shape {
          dim {
            size: 3
          }
        }
        tensor_content: "\001\000\000\000\001\000\000\0002\000\000\000"
      }
    }
  }
}
node {
  name: "actor_agent_30/Tile"
  op: "Tile"
  input: "actor_agent_30/concat_1"
  input: "actor_agent_30/Tile/multiples"
  attr {
    key: "T"
    value {
      type: DT_FLOAT
    }
  }
  attr {
    key: "Tmultiples"
    value {
      type: DT_INT32
    }
  }
}
node {
  name: "actor_agent_30/mul_1/y"
  op: "Const"
  attr {
    key: "dtype"
    value {
      type: DT_INT32
    }
  }
  attr {
    key: "value"
    value {
      tensor {
        dtype: DT_INT32
        tensor_shape {
        }
        int_val: 50
      }
    }
  }
}
node {
  name: "actor_agent_30/mul_1"
  op: "Mul"
  input: "actor_agent_30/strided_slice_1"
  input: "actor_agent_30/mul_1/y"
  attr {
    key: "T"
    value {
      type: DT_INT32
    }
  }
}
node {
  name: "actor_agent_30/Reshape_1/shape/2"
  op: "Const"
  attr {
    key: "dtype"
    value {
      type: DT_INT32
    }
  }
  attr {
    key: "value"
    value {
      tensor {
        dtype: DT_INT32
        tensor_shape {
        }
        int_val: 19
      }
    }
  }
}
node {
  name: "actor_agent_30/Reshape_1/shape"
  op: "Pack"
  input: "actor_agent_30/strided_slice"
  input: "actor_agent_30/mul_1"
  input: "actor_agent_30/Reshape_1/shape/2"
  attr {
    key: "N"
    value {
      i: 3
    }
  }
  attr {
    key: "T"
    value {
      type: DT_INT32
    }
  }
  attr {
    key: "axis"
    value {
      i: 0
    }
  }
}
node {
  name: "actor_agent_30/Reshape_1"
  op: "Reshape"
  input: "actor_agent_30/Tile"
  input: "actor_agent_30/Reshape_1/shape"
  attr {
    key: "T"
    value {
      type: DT_FLOAT
    }
  }
  attr {
    key: "Tshape"
    value {
      type: DT_INT32
    }
  }
}
node {
  name: "actor_agent_30/Const"
  op: "Const"
  attr {
    key: "dtype"
    value {
      type: DT_FLOAT
    }
  }
  attr {
    key: "value"
    value {
      tensor {
        dtype: DT_FLOAT
        tensor_shape {
          dim {
            size: 50
          }
        }
        tensor_content: "…"
      }
    }
  }
}
node {
  name: "actor_agent_30/Reshape_2/shape"
  op: "Const"
  attr {
    key: "dtype"
    value {
      type: DT_INT32
    }
  }
  attr {
    key: "value"
    value {
      tensor {
        dtype: DT_INT32
        tensor_shape {
          dim {
            size: 3
          }
        }
        tensor_content: "\001\000\000\000\001\000\000\0002\000\000\000"
      }
    }
  }
}
node {
  name: "actor_agent_30/Reshape_2"
  op: "Reshape"
  input: "actor_agent_30/Const"
  input: "actor_agent_30/Reshape_2/shape"
  attr {
    key: "T"
    value {
      type: DT_FLOAT
    }
  }
  attr {
    key: "Tshape"
    value {
      type: DT_INT32
    }
  }
}
node {
  name: "actor_agent_30/Tile_1/multiples/0"
  op: "Const"
  attr {
    key: "dtype"
    value {
      type: DT_INT32
    }
  }
  attr {
    key: "value"
    value {
      tensor {
        dtype: DT_INT32
        tensor_shape {
        }
        int_val: 1
      }
    }
  }
}
node {
  name: "actor_agent_30/Tile_1/multiples/1"
  op: "Const"
  attr {
    key: "dtype"
    value {
      type: DT_INT32
    }
  }
  attr {
    key: "value"
    value {
      tensor {
        dtype: DT_INT32
        tensor_shape {
        }
        int_val: 1
      }
    }
  }
}
node {
  name: "actor_agent_30/Tile_1/multiples"
  op: "Pack"
  input: "actor_agent_30/Tile_1/multiples/0"
  input: "actor_agent_30/Tile_1/multiples/1"
  input: "actor_agent_30/strided_slice_1"
  attr {
    key: "N"
    value {
      i: 3
    }
  }
  attr {
    key: "T"
    value {
      type: DT_INT32
    }
  }
  attr {
    key: "axis"
    value {
      i: 0
    }
  }
}
node {
  name: "actor_agent_30/Tile_1"
  op: "Tile"
  input: "actor_agent_30/Reshape_2"
  input: "actor_agent_30/Tile_1/multiples"
  attr {
    key: "T"
    value {
      type: DT_FLOAT
    }
  }
  attr {
    key: "Tmultiples"
    value {
      type: DT_INT32
    }
  }
}
node {
  name: "actor_agent_30/mul_2/y"
  op: "Const"
  attr {
    key: "dtype"
    value {
      type: DT_INT32
    }
  }
  attr {
    key: "value"
    value {
      tensor {
        dtype: DT_INT32
        tensor_shape {
        }
        int_val: 50
      }
    }
  }
}
node {
  name: "actor_agent_30/mul_2"
  op: "Mul"
  input: "actor_agent_30/strided_slice_1"
  input: "actor_agent_30/mul_2/y"
  attr {
    key: "T"
    value {
      type: DT_INT32
    }
  }
}
node {
  name: "actor_agent_30/Reshape_3/shape/0"
  op: "Const"
  attr {
    key: "dtype"
    value {
      type: DT_INT32
    }
  }
  attr {
    key: "value"
    value {
      tensor {
        dtype: DT_INT32
        tensor_shape {
        }
        int_val: 1
      }
    }
  }
}
node {
  name: "actor_agent_30/Reshape_3/shape/2"
  op: "Const"
  attr {
    key: "dtype"
    value {
      type: DT_INT32
    }
  }
  attr {
    key: "value"
    value {
      tensor {
        dtype: DT_INT32
        tensor_shape {
        }
        int_val: 1
      }
    }
  }
}
node {
  name: "actor_agent_30/Reshape_3/shape"
  op: "Pack"
  input: "actor_agent_30/Reshape_3/shape/0"
  input: "actor_agent_30/mul_2"
  input: "actor_agent_30/Reshape_3/shape/2"
  attr {
    key: "N"
    value {
      i: 3
    }
  }
  attr {
    key: "T"
    value {
      type: DT_INT32
    }
  }
  attr {
    key: "axis"
    value {
      i: 0
    }
  }
}
node {
  name: "actor_agent_30/Reshape_3"
  op: "Reshape"
  input: "actor_agent_30/Tile_1"
  input: "actor_agent_30/Reshape_3/shape"
  attr {
    key: "T"
    value {
      type: DT_FLOAT
    }
  }
  attr {
    key: "Tshape"
    value {
      type: DT_INT32
    }
  }
}
node {
  name: "actor_agent_30/Tile_2/multiples/1"
  op: "Const"
  attr {
    key: "dtype"
    value {
      type: DT_INT32
    }
  }
  attr {
    key: "value"
    value {
      tensor {
        dtype: DT_INT32
        tensor_shape {
        }
        int_val: 1
      }
    }
  }
}
node {
  name: "actor_agent_30/Tile_2/multiples/2"
  op: "Const"
  attr {
    key: "dtype"
    value {
      type: DT_INT32
    }
  }
  attr {
    key: "value"
    value {
      tensor {
        dtype: DT_INT32
        tensor_shape {
        }
        int_val: 1
      }
    }
  }
}
node {
  name: "actor_agent_30/Tile_2/multiples"
  op: "Pack"
  input: "actor_agent_30/strided_slice"
  input: "actor_agent_30/Tile_2/multiples/1"
  input: "actor_agent_30/Tile_2/multiples/2"
  attr {
    key: "N"
    value {
      i: 3
    }
  }
  attr {
    key: "T"
    value {
      type: DT_INT32
    }
  }
  attr {
    key: "axis"
    value {
      i: 0
    }
  }
}
node {
  name: "actor_agent_30/Tile_2"
  op: "Tile"
  input: "actor_agent_30/Reshape_3"
  input: "actor_agent_30/Tile_2/multiples"
  attr {
    key: "T"
    value {
      type: DT_FLOAT
    }
  }
  attr {
    key: "Tmultiples"
    value {
      type: DT_INT32
    }
  }
}
node {
  name: "actor_agent_30/concat_2/axis"
  op: "Const"
  attr {
    key: "dtype"
    value {
      type: DT_INT32
    }
  }
  attr {
    key: "value"
    value {
      tensor {
        dtype: DT_INT32
        tensor_shape {
        }
        int_val: 2
      }
    }
  }
}
node {
  name: "actor_agent_30/concat_2"
  op: "ConcatV2"
  input: "actor_agent_30/Reshape_1"
  input: "actor_agent_30/Tile_2"
  input: "actor_agent_30/concat_2/axis"
  attr {
    key: "N"
    value {
      i: 2
    }
  }
  attr {
    key: "T"
    value {
      type: DT_FLOAT
    }
  }
  attr {
    key: "Tidx"
    value {
      type: DT_INT32
    }
  }
}
node {
  name: "actor_agent/fully_connected_4/weights"
  op: "Const"
  attr {
    key: "dtype"
    value {
      type: DT_FLOAT
    }
  }
  attr {
    key: "value"
    value {
      tensor {
        dtype: DT_FLOAT
        tensor_shape {
          dim {
            size: 20
          }
          dim {
            size: 32
          }
        }
        tensor_content: "…"
      }
    }
  }
}
node {
  name: "actor_agent/fully_connected_4/weights/read"
  op: "Identity"
  input: "actor_agent/fully_connected_4/weights"
  attr {
    key: "T"
    value {
      type: DT_FLOAT
    }
  }
  attr {
    key: "_class"
    value {
      list {
        s: "loc:@actor_agent/fully_connected_4/weights"
      }
    }
  }
}
node {
  name: "actor_agent/fully_connected_4/biases"
  op: "Const"
  attr {
    key: "dtype"
    value {
      type: DT_FLOAT
    }
  }
  attr {
    key: "value"
    value {
      tensor {
        dtype: DT_FLOAT
        tensor_shape {
          dim {
            size: 32
          }
        }
        tensor_content: "…"
      }
    }
  }
}
node {
  name: "actor_agent/fully_connected_4/biases/read"
  op: "Identity"
  input: "actor_agent/fully_connected_4/biases"
  attr {
    key: "T"
    value {
      type: DT_FLOAT
    }
  }
  attr {
    key: "_class"
    value {
      list {
        s: "loc:@actor_agent/fully_connected_4/biases"
      }
    }
  }
}
node {
  name: "actor_agent_30/fully_connected_4/Tensordot/axes"
  op: "Const"
  attr {
    key: "dtype"
    value {
      type: DT_INT32
    }
  }
  attr {
    key: "value"
    value {
      tensor {
        dtype: DT_INT32
        tensor_shape {
          dim {
            size: 1
          }
        }
        int_val: 2
      }
    }
  }
}
node {
  name: "actor_agent_30/fully_connected_4/Tensordot/free"
  op: "Const"
  attr {
    key: "dtype"
    value {
      type: DT_INT32
    }
  }
  attr {
    key: "value"
    value {
      tensor {
        dtype: DT_INT32
        tensor_shape {
          dim {
            size: 2
          }
        }
        tensor_content: "\000\000\000\000\001\000\000\000"
      }
    }
  }
}
node {
  name: "actor_agent_30/fully_connected_4/Tensordot/Shape"
  op: "Shape"
  input: "actor_agent_30/concat_2"
  attr {
    key: "T"
    value {
      type: DT_FLOAT
    }
  }
  attr {
    key: "out_type"
    value {
      type: DT_INT32
    }
  }
}
node {
  name: "actor_agent_30/fully_connected_4/Tensordot/GatherV2/axis"
  op: "Const"
  attr {
    key: "dtype"
    value {
      type: DT_INT32
    }
  }
  attr {
    key: "value"
    value {
      tensor {
        dtype: DT_INT32
        tensor_shape {
        }
        int_val: 0
      }
    }
  }
}
node {
  name: "actor_agent_30/fully_connected_4/Tensordot/GatherV2"
  op: "GatherV2"
  input: "actor_agent_30/fully_connected_4/Tensordot/Shape"
  input: "actor_agent_30/fully_connected_4/Tensordot/free"
  input: "actor_agent_30/fully_connected_4/Tensordot/GatherV2/axis"
  attr {
    key: "Taxis"
    value {
      type: DT_INT32
    }
  }
  attr {
    key: "Tindices"
    value {
      type: DT_INT32
    }
  }
  attr {
    key: "Tparams"
    value {
      type: DT_INT32
    }
  }
  attr {
    key: "batch_dims"
    value {
      i: 0
    }
  }
}
node {
  name: "actor_agent_30/fully_connected_4/Tensordot/GatherV2_1/axis"
  op: "Const"
  attr {
    key: "dtype"
    value {
      type: DT_INT32
    }
  }
  attr {
    key: "value"
    value {
      tensor {
        dtype: DT_INT32
        tensor_shape {
        }
        int_val: 0
      }
    }
  }
}
node {
  name: "actor_agent_30/fully_connected_4/Tensordot/GatherV2_1"
  op: "GatherV2"
  input: "actor_agent_30/fully_connected_4/Tensordot/Shape"
  input: "actor_agent_30/fully_connected_4/Tensordot/axes"
  input: "actor_agent_30/fully_connected_4/Tensordot/GatherV2_1/axis"
  attr {
    key: "Taxis"
    value {
      type: DT_INT32
    }
  }
  attr {
    key: "Tindices"
    value {
      type: DT_INT32
    }
  }
  attr {
    key: "Tparams"
    value {
      type: DT_INT32
    }
  }
  attr {
    key: "batch_dims"
    value {
      i: 0
    }
  }
}
node {
  name: "actor_agent_30/fully_connected_4/Tensordot/Const"
  op: "Const"
  attr {
    key: "dtype"
    value {
      type: DT_INT32
    }
  }
  attr {
    key: "value"
    value {
      tensor {
        dtype: DT_INT32
        tensor_shape {
          dim {
            size: 1
          }
        }
        int_val: 0
      }
    }
  }
}
node {
  name: "actor_agent_30/fully_connected_4/Tensordot/Prod"
  op: "Prod"
  input: "actor_agent_30/fully_connected_4/Tensordot/GatherV2"
  input: "actor_agent_30/fully_connected_4/Tensordot/Const"
  attr {
    key: "T"
    value {
      type: DT_INT32
    }
  }
  attr {
    key: "Tidx"
    value {
      type: DT_INT32
    }
  }
  attr {
    key: "keep_dims"
    value {
      b: false
    }
  }
}
node {
  name: "actor_agent_30/fully_connected_4/Tensordot/Const_1"
  op: "Const"
  attr {
    key: "dtype"
    value {
      type: DT_INT32
    }
  }
  attr {
    key: "value"
    value {
      tensor {
        dtype: DT_INT32
        tensor_shape {
          dim {
            size: 1
          }
        }
        int_val: 0
      }
    }
  }
}
node {
  name: "actor_agent_30/fully_connected_4/Tensordot/Prod_1"
  op: "Prod"
  input: "actor_agent_30/fully_connected_4/Tensordot/GatherV2_1"
  input: "actor_agent_30/fully_connected_4/Tensordot/Const_1"
  attr {
    key: "T"
    value {
      type: DT_INT32
    }
  }
  attr {
    key: "Tidx"
    value {
      type: DT_INT32
    }
  }
  attr {
    key: "keep_dims"
    value {
      b: false
    }
  }
}
node {
  name: "actor_agent_30/fully_connected_4/Tensordot/concat/axis"
  op: "Const"
  attr {
    key: "dtype"
    value {
      type: DT_INT32
    }
  }
  attr {
    key: "value"
    value {
      tensor {
        dtype: DT_INT32
        tensor_shape {
        }
        int_val: 0
      }
    }
  }
}
node {
  name: "actor_agent_30/fully_connected_4/Tensordot/concat"
  op: "ConcatV2"
  input: "actor_agent_30/fully_connected_4/Tensordot/free"
  input: "actor_agent_30/fully_connected_4/Tensordot/axes"
  input: "actor_agent_30/fully_connected_4/Tensordot/concat/axis"
  attr {
    key: "N"
    value {
      i: 2
    }
  }
  attr {
    key: "T"
    value {
      type: DT_INT32
    }
  }
  attr {
    key: "Tidx"
    value {
      type: DT_INT32
    }
  }
}
node {
  name: "actor_agent_30/fully_connected_4/Tensordot/stack"
  op: "Pack"
  input: "actor_agent_30/fully_connected_4/Tensordot/Prod"
  input: "actor_agent_30/fully_connected_4/Tensordot/Prod_1"
  attr {
    key: "N"
    value {
      i: 2
    }
  }
  attr {
    key: "T"
    value {
      type: DT_INT32
    }
  }
  attr {
    key: "axis"
    value {
      i: 0
    }
  }
}
node {
  name: "actor_agent_30/fully_connected_4/Tensordot/transpose"
  op: "Transpose"
  input: "actor_agent_30/concat_2"
  input: "actor_agent_30/fully_connected_4/Tensordot/concat"
  attr {
    key: "T"
    value {
      type: DT_FLOAT
    }
  }
  attr {
    key: "Tperm"
    value {
      type: DT_INT32
    }
  }
}
node {
  name: "actor_agent_30/fully_connected_4/Tensordot/Reshape"
  op: "Reshape"
  input: "actor_agent_30/fully_connected_4/Tensordot/transpose"
  input: "actor_agent_30/fully_connected_4/Tensordot/stack"
  attr {
    key: "T"
    value {
      type: DT_FLOAT
    }
  }
  attr {
    key: "Tshape"
    value {
      type: DT_INT32
    }
  }
}
node {
  name: "actor_agent_30/fully_connected_4/Tensordot/transpose_1/perm"
  op: "Const"
  attr {
    key: "dtype"
    value {
      type: DT_INT32
    }
  }
  attr {
    key: "value"
    value {
      tensor {
        dtype: DT_INT32
        tensor_shape {
          dim {
            size: 2
          }
        }
        tensor_content: "\000\000\000\000\001\000\000\000"
      }
    }
  }
}
node {
  name: "actor_agent_30/fully_connected_4/Tensordot/transpose_1"
  op: "Transpose"
  input: "actor_agent/fully_connected_4/weights/read"
  input: "actor_agent_30/fully_connected_4/Tensordot/transpose_1/perm"
  attr {
    key: "T"
    value {
      type: DT_FLOAT
    }
  }
  attr {
    key: "Tperm"
    value {
      type: DT_INT32
    }
  }
}
node {
  name: "actor_agent_30/fully_connected_4/Tensordot/Reshape_1/shape"
  op: "Const"
  attr {
    key: "dtype"
    value {
      type: DT_INT32
    }
  }
  attr {
    key: "value"
    value {
      tensor {
        dtype: DT_INT32
        tensor_shape {
          dim {
            size: 2
          }
        }
        tensor_content: "\024\000\000\000 \000\000\000"
      }
    }
  }
}
node {
  name: "actor_agent_30/fully_connected_4/Tensordot/Reshape_1"
  op: "Reshape"
  input: "actor_agent_30/fully_connected_4/Tensordot/transpose_1"
  input: "actor_agent_30/fully_connected_4/Tensordot/Reshape_1/shape"
  attr {
    key: "T"
    value {
      type: DT_FLOAT
    }
  }
  attr {
    key: "Tshape"
    value {
      type: DT_INT32
    }
  }
}
node {
  name: "actor_agent_30/fully_connected_4/Tensordot/MatMul"
  op: "MatMul"
  input: "actor_agent_30/fully_connected_4/Tensordot/Reshape"
  input: "actor_agent_30/fully_connected_4/Tensordot/Reshape_1"
  attr {
    key: "T"
    value {
      type: DT_FLOAT
    }
  }
  attr {
    key: "transpose_a"
    value {
      b: false
    }
  }
  attr {
    key: "transpose_b"
    value {
      b: false
    }
  }
}
node {
  name: "actor_agent_30/fully_connected_4/Tensordot/Const_2"
  op: "Const"
  attr {
    key: "dtype"
    value {
      type: DT_INT32
    }
  }
  attr {
    key: "value"
    value {
      tensor {
        dtype: DT_INT32
        tensor_shape {
          dim {
            size: 1
          }
        }
        int_val: 32
      }
    }
  }
}
node {
  name: "actor_agent_30/fully_connected_4/Tensordot/concat_1/axis"
  op: "Const"
  attr {
    key: "dtype"
    value {
      type: DT_INT32
    }
  }
  attr {
    key: "value"
    value {
      tensor {
        dtype: DT_INT32
        tensor_shape {
        }
        int_val: 0
      }
    }
  }
}
node {
  name: "actor_agent_30/fully_connected_4/Tensordot/concat_1"
  op: "ConcatV2"
  input: "actor_agent_30/fully_connected_4/Tensordot/GatherV2"
  input: "actor_agent_30/fully_connected_4/Tensordot/Const_2"
  input: "actor_agent_30/fully_connected_4/Tensordot/concat_1/axis"
  attr {
    key: "N"
    value {
      i: 2
    }
  }
  attr {
    key: "T"
    value {
      type: DT_INT32
    }
  }
  attr {
    key: "Tidx"
    value {
      type: DT_INT32
    }
  }
}
node {
  name: "actor_agent_30/fully_connected_4/Tensordot"
  op: "Reshape"
  input: "actor_agent_30/fully_connected_4/Tensordot/MatMul"
  input: "actor_agent_30/fully_connected_4/Tensordot/concat_1"
  attr {
    key: "T"
    value {
      type: DT_FLOAT
    }
  }
  attr {
    key: "Tshape"
    value {
      type: DT_INT32
    }
  }
}
node {
  name: "actor_agent_30/fully_connected_4/BiasAdd"
  op: "BiasAdd"
  input: "actor_agent_30/fully_connected_4/Tensordot"
  input: "actor_agent/fully_connected_4/biases/read"
  attr {
    key: "T"
    value {
      type: DT_FLOAT
    }
  }
  attr {
    key: "data_format"
    value {
      s: "NHWC"
    }
  }
}
node {
  name: "actor_agent_30/fully_connected_4/LeakyRelu/alpha"
  op: "Const"
  attr {
    key: "dtype"
    value {
      type: DT_FLOAT
    }
  }
  attr {
    key: "value"
    value {
      tensor {
        dtype: DT_FLOAT
        tensor_shape {
        }
        float_val: 0.20000000298023224
      }
    }
  }
}
node {
  name: "actor_agent_30/fully_connected_4/LeakyRelu/mul"
  op: "Mul"
  input: "actor_agent_30/fully_connected_4/LeakyRelu/alpha"
  input: "actor_agent_30/fully_connected_4/BiasAdd"
  attr {
    key: "T"
    value {
      type: DT_FLOAT
    }
  }
}
node {
  name: "actor_agent_30/fully_connected_4/LeakyRelu/Maximum"
  op: "Maximum"
  input: "actor_agent_30/fully_connected_4/LeakyRelu/mul"
  input: "actor_agent_30/fully_connected_4/BiasAdd"
  attr {
    key: "T"
    value {
      type: DT_FLOAT
    }
  }
}
node {
  name: "actor_agent/fully_connected_5/weights"
  op: "Const"
  attr {
    key: "dtype"
    value {
      type: DT_FLOAT
    }
  }
  attr {
    key: "value"
    value {
      tensor {
        dtype: DT_FLOAT
        tensor_shape {
          dim {
            size: 32
          }
          dim {
            size: 16
          }
        }
        tensor_content: "…"
      }
    }
  }
}
node {
  name: "actor_agent/fully_connected_5/weights/read"
  op: "Identity"
  input: "actor_agent/fully_connected_5/weights"
  attr {
    key: "T"
    value {
      type: DT_FLOAT
    }
  }
  attr {
    key: "_class"
    value {
      list {
        s: "loc:@actor_agent/fully_connected_5/weights"
      }
    }
  }
}
node {
  name: "actor_agent/fully_connected_5/biases"
  op: "Const"
  attr {
    key: "dtype"
    value {
      type: DT_FLOAT
    }
  }
  attr {
    key: "value"
    value {
      tensor {
        dtype: DT_FLOAT
        tensor_shape {
          dim {
            size: 16
          }
        }
        tensor_content: "…"
      }
    }
  }
}
node {
  name: "actor_agent/fully_connected_5/biases/read"
  op: "Identity"
  input: "actor_agent/fully_connected_5/biases"
  attr {
    key: "T"
    value {
      type: DT_FLOAT
    }
  }
  attr {
    key: "_class"
    value {
      list {
        s: "loc:@actor_agent/fully_connected_5/biases"
      }
    }
  }
}
node {
  name: "actor_agent_30/fully_connected_5/Tensordot/axes"
  op: "Const"
  attr {
    key: "dtype"
    value {
      type: DT_INT32
    }
  }
  attr {
    key: "value"
    value {
      tensor {
        dtype: DT_INT32
        tensor_shape {
          dim {
            size: 1
          }
        }
        int_val: 2
      }
    }
  }
}
node {
  name: "actor_agent_30/fully_connected_5/Tensordot/free"
  op: "Const"
  attr {
    key: "dtype"
    value {
      type: DT_INT32
    }
  }
  attr {
    key: "value"
    value {
      tensor {
        dtype: DT_INT32
        tensor_shape {
          dim {
            size: 2
          }
        }
        tensor_content: "\000\000\000\000\001\000\000\000"
      }
    }
  }
}
node {
  name: "actor_agent_30/fully_connected_5/Tensordot/Shape"
  op: "Shape"
  input: "actor_agent_30/fully_connected_4/LeakyRelu/Maximum"
  attr {
    key: "T"
    value {
      type: DT_FLOAT
    }
  }
  attr {
    key: "out_type"
    value {
      type: DT_INT32
    }
  }
}
node {
  name: "actor_agent_30/fully_connected_5/Tensordot/GatherV2/axis"
  op: "Const"
  attr {
    key: "dtype"
    value {
      type: DT_INT32
    }
  }
  attr {
    key: "value"
    value {
      tensor {
        dtype: DT_INT32
        tensor_shape {
        }
        int_val: 0
      }
    }
  }
}
node {
  name: "actor_agent_30/fully_connected_5/Tensordot/GatherV2"
  op: "GatherV2"
  input: "actor_agent_30/fully_connected_5/Tensordot/Shape"
  input: "actor_agent_30/fully_connected_5/Tensordot/free"
  input: "actor_agent_30/fully_connected_5/Tensordot/GatherV2/axis"
  attr {
    key: "Taxis"
    value {
      type: DT_INT32
    }
  }
  attr {
    key: "Tindices"
    value {
      type: DT_INT32
    }
  }
  attr {
    key: "Tparams"
    value {
      type: DT_INT32
    }
  }
  attr {
    key: "batch_dims"
    value {
      i: 0
    }
  }
}
node {
  name: "actor_agent_30/fully_connected_5/Tensordot/GatherV2_1/axis"
  op: "Const"
  attr {
    key: "dtype"
    value {
      type: DT_INT32
    }
  }
  attr {
    key: "value"
    value {
      tensor {
        dtype: DT_INT32
        tensor_shape {
        }
        int_val: 0
      }
    }
  }
}
node {
  name: "actor_agent_30/fully_connected_5/Tensordot/GatherV2_1"
  op: "GatherV2"
  input: "actor_agent_30/fully_connected_5/Tensordot/Shape"
  input: "actor_agent_30/fully_connected_5/Tensordot/axes"
  input: "actor_agent_30/fully_connected_5/Tensordot/GatherV2_1/axis"
  attr {
    key: "Taxis"
    value {
      type: DT_INT32
    }
  }
  attr {
    key: "Tindices"
    value {
      type: DT_INT32
    }
  }
  attr {
    key: "Tparams"
    value {
      type: DT_INT32
    }
  }
  attr {
    key: "batch_dims"
    value {
      i: 0
    }
  }
}
node {
  name: "actor_agent_30/fully_connected_5/Tensordot/Const"
  op: "Const"
  attr {
    key: "dtype"
    value {
      type: DT_INT32
    }
  }
  attr {
    key: "value"
    value {
      tensor {
        dtype: DT_INT32
        tensor_shape {
          dim {
            size: 1
          }
        }
        int_val: 0
      }
    }
  }
}
node {
  name: "actor_agent_30/fully_connected_5/Tensordot/Prod"
  op: "Prod"
  input: "actor_agent_30/fully_connected_5/Tensordot/GatherV2"
  input: "actor_agent_30/fully_connected_5/Tensordot/Const"
  attr {
    key: "T"
    value {
      type: DT_INT32
    }
  }
  attr {
    key: "Tidx"
    value {
      type: DT_INT32
    }
  }
  attr {
    key: "keep_dims"
    value {
      b: false
    }
  }
}
node {
  name: "actor_agent_30/fully_connected_5/Tensordot/Const_1"
  op: "Const"
  attr {
    key: "dtype"
    value {
      type: DT_INT32
    }
  }
  attr {
    key: "value"
    value {
      tensor {
        dtype: DT_INT32
        tensor_shape {
          dim {
            size: 1
          }
        }
        int_val: 0
      }
    }
  }
}
node {
  name: "actor_agent_30/fully_connected_5/Tensordot/Prod_1"
  op: "Prod"
  input: "actor_agent_30/fully_connected_5/Tensordot/GatherV2_1"
  input: "actor_agent_30/fully_connected_5/Tensordot/Const_1"
  attr {
    key: "T"
    value {
      type: DT_INT32
    }
  }
  attr {
    key: "Tidx"
    value {
      type: DT_INT32
    }
  }
  attr {
    key: "keep_dims"
    value {
      b: false
    }
  }
}
node {
  name: "actor_agent_30/fully_connected_5/Tensordot/concat/axis"
  op: "Const"
  attr {
    key: "dtype"
    value {
      type: DT_INT32
    }
  }
  attr {
    key: "value"
    value {
      tensor {
        dtype: DT_INT32
        tensor_shape {
        }
        int_val: 0
      }
    }
  }
}
node {
  name: "actor_agent_30/fully_connected_5/Tensordot/concat"
  op: "ConcatV2"
  input: "actor_agent_30/fully_connected_5/Tensordot/free"
  input: "actor_agent_30/fully_connected_5/Tensordot/axes"
  input: "actor_agent_30/fully_connected_5/Tensordot/concat/axis"
  attr {
    key: "N"
    value {
      i: 2
    }
  }
  attr {
    key: "T"
    value {
      type: DT_INT32
    }
  }
  attr {
    key: "Tidx"
    value {
      type: DT_INT32
    }
  }
}
node {
  name: "actor_agent_30/fully_connected_5/Tensordot/stack"
  op: "Pack"
  input: "actor_agent_30/fully_connected_5/Tensordot/Prod"
  input: "actor_agent_30/fully_connected_5/Tensordot/Prod_1"
  attr {
    key: "N"
    value {
      i: 2
    }
  }
  attr {
    key: "T"
    value {
      type: DT_INT32
    }
  }
  attr {
    key: "axis"
    value {
      i: 0
    }
  }
}
node {
  name: "actor_agent_30/fully_connected_5/Tensordot/transpose"
  op: "Transpose"
  input: "actor_agent_30/fully_connected_4/LeakyRelu/Maximum"
  input: "actor_agent_30/fully_connected_5/Tensordot/concat"
  attr {
    key: "T"
    value {
      type: DT_FLOAT
    }
  }
  attr {
    key: "Tperm"
    value {
      type: DT_INT32
    }
  }
}
node {
  name: "actor_agent_30/fully_connected_5/Tensordot/Reshape"
  op: "Reshape"
  input: "actor_agent_30/fully_connected_5/Tensordot/transpose"
  input: "actor_agent_30/fully_connected_5/Tensordot/stack"
  attr {
    key: "T"
    value {
      type: DT_FLOAT
    }
  }
  attr {
    key: "Tshape"
    value {
      type: DT_INT32
    }
  }
}
node {
  name: "actor_agent_30/fully_connected_5/Tensordot/transpose_1/perm"
  op: "Const"
  attr {
    key: "dtype"
    value {
      type: DT_INT32
    }
  }
  attr {
    key: "value"
    value {
      tensor {
        dtype: DT_INT32
        tensor_shape {
          dim {
            size: 2
          }
        }
        tensor_content: "\000\000\000\000\001\000\000\000"
      }
    }
  }
}
node {
  name: "actor_agent_30/fully_connected_5/Tensordot/transpose_1"
  op: "Transpose"
  input: "actor_agent/fully_connected_5/weights/read"
  input: "actor_agent_30/fully_connected_5/Tensordot/transpose_1/perm"
  attr {
    key: "T"
    value {
      type: DT_FLOAT
    }
  }
  attr {
    key: "Tperm"
    value {
      type: DT_INT32
    }
  }
}
node {
  name: "actor_agent_30/fully_connected_5/Tensordot/Reshape_1/shape"
  op: "Const"
  attr {
    key: "dtype"
    value {
      type: DT_INT32
    }
  }
  attr {
    key: "value"
    value {
      tensor {
        dtype: DT_INT32
        tensor_shape {
          dim {
            size: 2
          }
        }
        tensor_content: " \000\000\000\020\000\000\000"
      }
    }
  }
}
node {
  name: "actor_agent_30/fully_connected_5/Tensordot/Reshape_1"
  op: "Reshape"
  input: "actor_agent_30/fully_connected_5/Tensordot/transpose_1"
  input: "actor_agent_30/fully_connected_5/Tensordot/Reshape_1/shape"
  attr {
    key: "T"
    value {
      type: DT_FLOAT
    }
  }
  attr {
    key: "Tshape"
    value {
      type: DT_INT32
    }
  }
}
node {
  name: "actor_agent_30/fully_connected_5/Tensordot/MatMul"
  op: "MatMul"
  input: "actor_agent_30/fully_connected_5/Tensordot/Reshape"
  input: "actor_agent_30/fully_connected_5/Tensordot/Reshape_1"
  attr {
    key: "T"
    value {
      type: DT_FLOAT
    }
  }
  attr {
    key: "transpose_a"
    value {
      b: false
    }
  }
  attr {
    key: "transpose_b"
    value {
      b: false
    }
  }
}
node {
  name: "actor_agent_30/fully_connected_5/Tensordot/Const_2"
  op: "Const"
  attr {
    key: "dtype"
    value {
      type: DT_INT32
    }
  }
  attr {
    key: "value"
    value {
      tensor {
        dtype: DT_INT32
        tensor_shape {
          dim {
            size: 1
          }
        }
        int_val: 16
      }
    }
  }
}
node {
  name: "actor_agent_30/fully_connected_5/Tensordot/concat_1/axis"
  op: "Const"
  attr {
    key: "dtype"
    value {
      type: DT_INT32
    }
  }
  attr {
    key: "value"
    value {
      tensor {
        dtype: DT_INT32
        tensor_shape {
        }
        int_val: 0
      }
    }
  }
}
node {
  name: "actor_agent_30/fully_connected_5/Tensordot/concat_1"
  op: "ConcatV2"
  input: "actor_agent_30/fully_connected_5/Tensordot/GatherV2"
  input: "actor_agent_30/fully_connected_5/Tensordot/Const_2"
  input: "actor_agent_30/fully_connected_5/Tensordot/concat_1/axis"
  attr {
    key: "N"
    value {
      i: 2
    }
  }
  attr {
    key: "T"
    value {
      type: DT_INT32
    }
  }
  attr {
    key: "Tidx"
    value {
      type: DT_INT32
    }
  }
}
node {
  name: "actor_agent_30/fully_connected_5/Tensordot"
  op: "Reshape"
  input: "actor_agent_30/fully_connected_5/Tensordot/MatMul"
  input: "actor_agent_30/fully_connected_5/Tensordot/concat_1"
  attr {
    key: "T"
    value {
      type: DT_FLOAT
    }
  }
  attr {
    key: "Tshape"
    value {
      type: DT_INT32
    }
  }
}
node {
  name: "actor_agent_30/fully_connected_5/BiasAdd"
  op: "BiasAdd"
  input: "actor_agent_30/fully_connected_5/Tensordot"
  input: "actor_agent/fully_connected_5/biases/read"
  attr {
    key: "T"
    value {
      type: DT_FLOAT
    }
  }
  attr {
    key: "data_format"
    value {
      s: "NHWC"
    }
  }
}
node {
  name: "actor_agent_30/fully_connected_5/LeakyRelu/alpha"
  op: "Const"
  attr {
    key: "dtype"
    value {
      type: DT_FLOAT
    }
  }
  attr {
    key: "value"
    value {
      tensor {
        dtype: DT_FLOAT
        tensor_shape {
        }
        float_val: 0.20000000298023224
      }
    }
  }
}
node {
  name: "actor_agent_30/fully_connected_5/LeakyRelu/mul"
  op: "Mul"
  input: "actor_agent_30/fully_connected_5/LeakyRelu/alpha"
  input: "actor_agent_30/fully_connected_5/BiasAdd"
  attr {
    key: "T"
    value {
      type: DT_FLOAT
    }
  }
}
node {
  name: "actor_agent_30/fully_connected_5/LeakyRelu/Maximum"
  op: "Maximum"
  input: "actor_agent_30/fully_connected_5/LeakyRelu/mul"
  input: "actor_agent_30/fully_connected_5/BiasAdd"
  attr {
    key: "T"
    value {
      type: DT_FLOAT
    }
  }
}
node {
  name: "actor_agent/fully_connected_6/weights"
  op: "Const"
  attr {
    key: "dtype"
    value {
      type: DT_FLOAT
    }
  }
  attr {
    key: "value"
    value {
      tensor {
        dtype: DT_FLOAT
        tensor_shape {
          dim {
            size: 16
          }
          dim {
            size: 8
          }
        }
        tensor_content: "…"
      }
    }
  }
}
node {
  name: "actor_agent/fully_connected_6/weights/read"
  op: "Identity"
  input: "actor_agent/fully_connected_6/weights"
  attr {
    key: "T"
    value {
      type: DT_FLOAT
    }
  }
  attr {
    key: "_class"
    value {
      list {
        s: "loc:@actor_agent/fully_connected_6/weights"
      }
    }
  }
}
node {
  name: "actor_agent/fully_connected_6/biases"
  op: "Const"
  attr {
    key: "dtype"
    value {
      type: DT_FLOAT
    }
  }
  attr {
    key: "value"
    value {
      tensor {
        dtype: DT_FLOAT
        tensor_shape {
          dim {
            size: 8
          }
        }
        tensor_content: "…"
      }
    }
  }
}
node {
  name: "actor_agent/fully_connected_6/biases/read"
  op: "Identity"
  input: "actor_agent/fully_connected_6/biases"
  attr {
    key: "T"
    value {
      type: DT_FLOAT
    }
  }
  attr {
    key: "_class"
    value {
      list {
        s: "loc:@actor_agent/fully_connected_6/biases"
      }
    }
  }
}
node {
  name: "actor_agent_30/fully_connected_6/Tensordot/axes"
  op: "Const"
  attr {
    key: "dtype"
    value {
      type: DT_INT32
    }
  }
  attr {
    key: "value"
    value {
      tensor {
        dtype: DT_INT32
        tensor_shape {
          dim {
            size: 1
          }
        }
        int_val: 2
      }
    }
  }
}
node {
  name: "actor_agent_30/fully_connected_6/Tensordot/free"
  op: "Const"
  attr {
    key: "dtype"
    value {
      type: DT_INT32
    }
  }
  attr {
    key: "value"
    value {
      tensor {
        dtype: DT_INT32
        tensor_shape {
          dim {
            size: 2
          }
        }
        tensor_content: "\000\000\000\000\001\000\000\000"
      }
    }
  }
}
node {
  name: "actor_agent_30/fully_connected_6/Tensordot/Shape"
  op: "Shape"
  input: "actor_agent_30/fully_connected_5/LeakyRelu/Maximum"
  attr {
    key: "T"
    value {
      type: DT_FLOAT
    }
  }
  attr {
    key: "out_type"
    value {
      type: DT_INT32
    }
  }
}
node {
  name: "actor_agent_30/fully_connected_6/Tensordot/GatherV2/axis"
  op: "Const"
  attr {
    key: "dtype"
    value {
      type: DT_INT32
    }
  }
  attr {
    key: "value"
    value {
      tensor {
        dtype: DT_INT32
        tensor_shape {
        }
        int_val: 0
      }
    }
  }
}
node {
  name: "actor_agent_30/fully_connected_6/Tensordot/GatherV2"
  op: "GatherV2"
  input: "actor_agent_30/fully_connected_6/Tensordot/Shape"
  input: "actor_agent_30/fully_connected_6/Tensordot/free"
  input: "actor_agent_30/fully_connected_6/Tensordot/GatherV2/axis"
  attr {
    key: "Taxis"
    value {
      type: DT_INT32
    }
  }
  attr {
    key: "Tindices"
    value {
      type: DT_INT32
    }
  }
  attr {
    key: "Tparams"
    value {
      type: DT_INT32
    }
  }
  attr {
    key: "batch_dims"
    value {
      i: 0
    }
  }
}
node {
  name: "actor_agent_30/fully_connected_6/Tensordot/GatherV2_1/axis"
  op: "Const"
  attr {
    key: "dtype"
    value {
      type: DT_INT32
    }
  }
  attr {
    key: "value"
    value {
      tensor {
        dtype: DT_INT32
        tensor_shape {
        }
        int_val: 0
      }
    }
  }
}
node {
  name: "actor_agent_30/fully_connected_6/Tensordot/GatherV2_1"
  op: "GatherV2"
  input: "actor_agent_30/fully_connected_6/Tensordot/Shape"
  input: "actor_agent_30/fully_connected_6/Tensordot/axes"
  input: "actor_agent_30/fully_connected_6/Tensordot/GatherV2_1/axis"
  attr {
    key: "Taxis"
    value {
      type: DT_INT32
    }
  }
  attr {
    key: "Tindices"
    value {
      type: DT_INT32
    }
  }
  attr {
    key: "Tparams"
    value {
      type: DT_INT32
    }
  }
  attr {
    key: "batch_dims"
    value {
      i: 0
    }
  }
}
node {
  name: "actor_agent_30/fully_connected_6/Tensordot/Const"
  op: "Const"
  attr {
    key: "dtype"
    value {
      type: DT_INT32
    }
  }
  attr {
    key: "value"
    value {
      tensor {
        dtype: DT_INT32
        tensor_shape {
          dim {
            size: 1
          }
        }
        int_val: 0
      }
    }
  }
}
node {
  name: "actor_agent_30/fully_connected_6/Tensordot/Prod"
  op: "Prod"
  input: "actor_agent_30/fully_connected_6/Tensordot/GatherV2"
  input: "actor_agent_30/fully_connected_6/Tensordot/Const"
  attr {
    key: "T"
    value {
      type: DT_INT32
    }
  }
  attr {
    key: "Tidx"
    value {
      type: DT_INT32
    }
  }
  attr {
    key: "keep_dims"
    value {
      b: false
    }
  }
}
node {
  name: "actor_agent_30/fully_connected_6/Tensordot/Const_1"
  op: "Const"
  attr {
    key: "dtype"
    value {
      type: DT_INT32
    }
  }
  attr {
    key: "value"
    value {
      tensor {
        dtype: DT_INT32
        tensor_shape {
          dim {
            size: 1
          }
        }
        int_val: 0
      }
    }
  }
}
node {
  name: "actor_agent_30/fully_connected_6/Tensordot/Prod_1"
  op: "Prod"
  input: "actor_agent_30/fully_connected_6/Tensordot/GatherV2_1"
  input: "actor_agent_30/fully_connected_6/Tensordot/Const_1"
  attr {
    key: "T"
    value {
      type: DT_INT32
    }
  }
  attr {
    key: "Tidx"
    value {
      type: DT_INT32
    }
  }
  attr {
    key: "keep_dims"
    value {
      b: false
    }
  }
}
node {
  name: "actor_agent_30/fully_connected_6/Tensordot/concat/axis"
  op: "Const"
  attr {
    key: "dtype"
    value {
      type: DT_INT32
    }
  }
  attr {
    key: "value"
    value {
      tensor {
        dtype: DT_INT32
        tensor_shape {
        }
        int_val: 0
      }
    }
  }
}
node {
  name: "actor_agent_30/fully_connected_6/Tensordot/concat"
  op: "ConcatV2"
  input: "actor_agent_30/fully_connected_6/Tensordot/free"
  input: "actor_agent_30/fully_connected_6/Tensordot/axes"
  input: "actor_agent_30/fully_connected_6/Tensordot/concat/axis"
  attr {
    key: "N"
    value {
      i: 2
    }
  }
  attr {
    key: "T"
    value {
      type: DT_INT32
    }
  }
  attr {
    key: "Tidx"
    value {
      type: DT_INT32
    }
  }
}
node {
  name: "actor_agent_30/fully_connected_6/Tensordot/stack"
  op: "Pack"
  input: "actor_agent_30/fully_connected_6/Tensordot/Prod"
  input: "actor_agent_30/fully_connected_6/Tensordot/Prod_1"
  attr {
    key: "N"
    value {
      i: 2
    }
  }
  attr {
    key: "T"
    value {
      type: DT_INT32
    }
  }
  attr {
    key: "axis"
    value {
      i: 0
    }
  }
}
node {
  name: "actor_agent_30/fully_connected_6/Tensordot/transpose"
  op: "Transpose"
  input: "actor_agent_30/fully_connected_5/LeakyRelu/Maximum"
  input: "actor_agent_30/fully_connected_6/Tensordot/concat"
  attr {
    key: "T"
    value {
      type: DT_FLOAT
    }
  }
  attr {
    key: "Tperm"
    value {
      type: DT_INT32
    }
  }
}
node {
  name: "actor_agent_30/fully_connected_6/Tensordot/Reshape"
  op: "Reshape"
  input: "actor_agent_30/fully_connected_6/Tensordot/transpose"
  input: "actor_agent_30/fully_connected_6/Tensordot/stack"
  attr {
    key: "T"
    value {
      type: DT_FLOAT
    }
  }
  attr {
    key: "Tshape"
    value {
      type: DT_INT32
    }
  }
}
node {
  name: "actor_agent_30/fully_connected_6/Tensordot/transpose_1/perm"
  op: "Const"
  attr {
    key: "dtype"
    value {
      type: DT_INT32
    }
  }
  attr {
    key: "value"
    value {
      tensor {
        dtype: DT_INT32
        tensor_shape {
          dim {
            size: 2
          }
        }
        tensor_content: "\000\000\000\000\001\000\000\000"
      }
    }
  }
}
node {
  name: "actor_agent_30/fully_connected_6/Tensordot/transpose_1"
  op: "Transpose"
  input: "actor_agent/fully_connected_6/weights/read"
  input: "actor_agent_30/fully_connected_6/Tensordot/transpose_1/perm"
  attr {
    key: "T"
    value {
      type: DT_FLOAT
    }
  }
  attr {
    key: "Tperm"
    value {
      type: DT_INT32
    }
  }
}
node {
  name: "actor_agent_30/fully_connected_6/Tensordot/Reshape_1/shape"
  op: "Const"
  attr {
    key: "dtype"
    value {
      type: DT_INT32
    }
  }
  attr {
    key: "value"
    value {
      tensor {
        dtype: DT_INT32
        tensor_shape {
          dim {
            size: 2
          }
        }
        tensor_content: "\020\000\000\000\010\000\000\000"
      }
    }
  }
}
node {
  name: "actor_agent_30/fully_connected_6/Tensordot/Reshape_1"
  op: "Reshape"
  input: "actor_agent_30/fully_connected_6/Tensordot/transpose_1"
  input: "actor_agent_30/fully_connected_6/Tensordot/Reshape_1/shape"
  attr {
    key: "T"
    value {
      type: DT_FLOAT
    }
  }
  attr {
    key: "Tshape"
    value {
      type: DT_INT32
    }
  }
}
node {
  name: "actor_agent_30/fully_connected_6/Tensordot/MatMul"
  op: "MatMul"
  input: "actor_agent_30/fully_connected_6/Tensordot/Reshape"
  input: "actor_agent_30/fully_connected_6/Tensordot/Reshape_1"
  attr {
    key: "T"
    value {
      type: DT_FLOAT
    }
  }
  attr {
    key: "transpose_a"
    value {
      b: false
    }
  }
  attr {
    key: "transpose_b"
    value {
      b: false
    }
  }
}
node {
  name: "actor_agent_30/fully_connected_6/Tensordot/Const_2"
  op: "Const"
  attr {
    key: "dtype"
    value {
      type: DT_INT32
    }
  }
  attr {
    key: "value"
    value {
      tensor {
        dtype: DT_INT32
        tensor_shape {
          dim {
            size: 1
          }
        }
        int_val: 8
      }
    }
  }
}
node {
  name: "actor_agent_30/fully_connected_6/Tensordot/concat_1/axis"
  op: "Const"
  attr {
    key: "dtype"
    value {
      type: DT_INT32
    }
  }
  attr {
    key: "value"
    value {
      tensor {
        dtype: DT_INT32
        tensor_shape {
        }
        int_val: 0
      }
    }
  }
}
node {
  name: "actor_agent_30/fully_connected_6/Tensordot/concat_1"
  op: "ConcatV2"
  input: "actor_agent_30/fully_connected_6/Tensordot/GatherV2"
  input: "actor_agent_30/fully_connected_6/Tensordot/Const_2"
  input: "actor_agent_30/fully_connected_6/Tensordot/concat_1/axis"
  attr {
    key: "N"
    value {
      i: 2
    }
  }
  attr {
    key: "T"
    value {
      type: DT_INT32
    }
  }
  attr {
    key: "Tidx"
    value {
      type: DT_INT32
    }
  }
}
node {
  name: "actor_agent_30/fully_connected_6/Tensordot"
  op: "Reshape"
  input: "actor_agent_30/fully_connected_6/Tensordot/MatMul"
  input: "actor_agent_30/fully_connected_6/Tensordot/concat_1"
  attr {
    key: "T"
    value {
      type: DT_FLOAT
    }
  }
  attr {
    key: "Tshape"
    value {
      type: DT_INT32
    }
  }
}
node {
  name: "actor_agent_30/fully_connected_6/BiasAdd"
  op: "BiasAdd"
  input: "actor_agent_30/fully_connected_6/Tensordot"
  input: "actor_agent/fully_connected_6/biases/read"
  attr {
    key: "T"
    value {
      type: DT_FLOAT
    }
  }
  attr {
    key: "data_format"
    value {
      s: "NHWC"
    }
  }
}
node {
  name: "actor_agent_30/fully_connected_6/LeakyRelu/alpha"
  op: "Const"
  attr {
    key: "dtype"
    value {
      type: DT_FLOAT
    }
  }
  attr {
    key: "value"
    value {
      tensor {
        dtype: DT_FLOAT
        tensor_shape {
        }
        float_val: 0.20000000298023224
      }
    }
  }
}
node {
  name: "actor_agent_30/fully_connected_6/LeakyRelu/mul"
  op: "Mul"
  input: "actor_agent_30/fully_connected_6/LeakyRelu/alpha"
  input: "actor_agent_30/fully_connected_6/BiasAdd"
  attr {
    key: "T"
    value {
      type: DT_FLOAT
    }
  }
}
node {
  name: "actor_agent_30/fully_connected_6/LeakyRelu/Maximum"
  op: "Maximum"
  input: "actor_agent_30/fully_connected_6/LeakyRelu/mul"
  input: "actor_agent_30/fully_connected_6/BiasAdd"
  attr {
    key: "T"
    value {
      type: DT_FLOAT
    }
  }
}
node {
  name: "actor_agent/fully_connected_7/weights"
  op: "Const"
  attr {
    key: "dtype"
    value {
      type: DT_FLOAT
    }
  }
  attr {
    key: "value"
    value {
      tensor {
        dtype: DT_FLOAT
        tensor_shape {
          dim {
            size: 8
          }
          dim {
            size: 1
          }
        }
        tensor_content: ";;\252\276\3622,\277\034/@?\000\025\346>\026\217>?\000\352k>\370\212\322\275\374\326B?"
      }
    }
  }
}
node {
  name: "actor_agent/fully_connected_7/weights/read"
  op: "Identity"
  input: "actor_agent/fully_connected_7/weights"
  attr {
    key: "T"
    value {
      type: DT_FLOAT
    }
  }
  attr {
    key: "_class"
    value {
      list {
        s: "loc:@actor_agent/fully_connected_7/weights"
      }
    }
  }
}
node {
  name: "actor_agent/fully_connected_7/biases"
  op: "Const"
  attr {
    key: "dtype"
    value {
      type: DT_FLOAT
    }
  }
  attr {
    key: "value"
    value {
      tensor {
        dtype: DT_FLOAT
        tensor_shape {
          dim {
            size: 1
          }
        }
        float_val: 0.0
      }
    }
  }
}
node {
  name: "actor_agent/fully_connected_7/biases/read"
  op: "Identity"
  input: "actor_agent/fully_connected_7/biases"
  attr {
    key: "T"
    value {
      type: DT_FLOAT
    }
  }
  attr {
    key: "_class"
    value {
      list {
        s: "loc:@actor_agent/fully_connected_7/biases"
      }
    }
  }
}
node {
  name: "actor_agent_30/fully_connected_7/Tensordot/axes"
  op: "Const"
  attr {
    key: "dtype"
    value {
      type: DT_INT32
    }
  }
  attr {
    key: "value"
    value {
      tensor {
        dtype: DT_INT32
        tensor_shape {
          dim {
            size: 1
          }
        }
        int_val: 2
      }
    }
  }
}
node {
  name: "actor_agent_30/fully_connected_7/Tensordot/free"
  op: "Const"
  attr {
    key: "dtype"
    value {
      type: DT_INT32
    }
  }
  attr {
    key: "value"
    value {
      tensor {
        dtype: DT_INT32
        tensor_shape {
          dim {
            size: 2
          }
        }
        tensor_content: "\000\000\000\000\001\000\000\000"
      }
    }
  }
}
node {
  name: "actor_agent_30/fully_connected_7/Tensordot/Shape"
  op: "Shape"
  input: "actor_agent_30/fully_connected_6/LeakyRelu/Maximum"
  attr {
    key: "T"
    value {
      type: DT_FLOAT
    }
  }
  attr {
    key: "out_type"
    value {
      type: DT_INT32
    }
  }
}
node {
  name: "actor_agent_30/fully_connected_7/Tensordot/GatherV2/axis"
  op: "Const"
  attr {
    key: "dtype"
    value {
      type: DT_INT32
    }
  }
  attr {
    key: "value"
    value {
      tensor {
        dtype: DT_INT32
        tensor_shape {
        }
        int_val: 0
      }
    }
  }
}
node {
  name: "actor_agent_30/fully_connected_7/Tensordot/GatherV2"
  op: "GatherV2"
  input: "actor_agent_30/fully_connected_7/Tensordot/Shape"
  input: "actor_agent_30/fully_connected_7/Tensordot/free"
  input: "actor_agent_30/fully_connected_7/Tensordot/GatherV2/axis"
  attr {
    key: "Taxis"
    value {
      type: DT_INT32
    }
  }
  attr {
    key: "Tindices"
    value {
      type: DT_INT32
    }
  }
  attr {
    key: "Tparams"
    value {
      type: DT_INT32
    }
  }
  attr {
    key: "batch_dims"
    value {
      i: 0
    }
  }
}
node {
  name: "actor_agent_30/fully_connected_7/Tensordot/GatherV2_1/axis"
  op: "Const"
  attr {
    key: "dtype"
    value {
      type: DT_INT32
    }
  }
  attr {
    key: "value"
    value {
      tensor {
        dtype: DT_INT32
        tensor_shape {
        }
        int_val: 0
      }
    }
  }
}
node {
  name: "actor_agent_30/fully_connected_7/Tensordot/GatherV2_1"
  op: "GatherV2"
  input: "actor_agent_30/fully_connected_7/Tensordot/Shape"
  input: "actor_agent_30/fully_connected_7/Tensordot/axes"
  input: "actor_agent_30/fully_connected_7/Tensordot/GatherV2_1/axis"
  attr {
    key: "Taxis"
    value {
      type: DT_INT32
    }
  }
  attr {
    key: "Tindices"
    value {
      type: DT_INT32
    }
  }
  attr {
    key: "Tparams"
    value {
      type: DT_INT32
    }
  }
  attr {
    key: "batch_dims"
    value {
      i: 0
    }
  }
}
node {
  name: "actor_agent_30/fully_connected_7/Tensordot/Const"
  op: "Const"
  attr {
    key: "dtype"
    value {
      type: DT_INT32
    }
  }
  attr {
    key: "value"
    value {
      tensor {
        dtype: DT_INT32
        tensor_shape {
          dim {
            size: 1
          }
        }
        int_val: 0
      }
    }
  }
}
node {
  name: "actor_agent_30/fully_connected_7/Tensordot/Prod"
  op: "Prod"
  input: "actor_agent_30/fully_connected_7/Tensordot/GatherV2"
  input: "actor_agent_30/fully_connected_7/Tensordot/Const"
  attr {
    key: "T"
    value {
      type: DT_INT32
    }
  }
  attr {
    key: "Tidx"
    value {
      type: DT_INT32
    }
  }
  attr {
    key: "keep_dims"
    value {
      b: false
    }
  }
}
node {
  name: "actor_agent_30/fully_connected_7/Tensordot/Const_1"
  op: "Const"
  attr {
    key: "dtype"
    value {
      type: DT_INT32
    }
  }
  attr {
    key: "value"
    value {
      tensor {
        dtype: DT_INT32
        tensor_shape {
          dim {
            size: 1
          }
        }
        int_val: 0
      }
    }
  }
}
node {
  name: "actor_agent_30/fully_connected_7/Tensordot/Prod_1"
  op: "Prod"
  input: "actor_agent_30/fully_connected_7/Tensordot/GatherV2_1"
  input: "actor_agent_30/fully_connected_7/Tensordot/Const_1"
  attr {
    key: "T"
    value {
      type: DT_INT32
    }
  }
  attr {
    key: "Tidx"
    value {
      type: DT_INT32
    }
  }
  attr {
    key: "keep_dims"
    value {
      b: false
    }
  }
}
node {
  name: "actor_agent_30/fully_connected_7/Tensordot/concat/axis"
  op: "Const"
  attr {
    key: "dtype"
    value {
      type: DT_INT32
    }
  }
  attr {
    key: "value"
    value {
      tensor {
        dtype: DT_INT32
        tensor_shape {
        }
        int_val: 0
      }
    }
  }
}
node {
  name: "actor_agent_30/fully_connected_7/Tensordot/concat"
  op: "ConcatV2"
  input: "actor_agent_30/fully_connected_7/Tensordot/free"
  input: "actor_agent_30/fully_connected_7/Tensordot/axes"
  input: "actor_agent_30/fully_connected_7/Tensordot/concat/axis"
  attr {
    key: "N"
    value {
      i: 2
    }
  }
  attr {
    key: "T"
    value {
      type: DT_INT32
    }
  }
  attr {
    key: "Tidx"
    value {
      type: DT_INT32
    }
  }
}
node {
  name: "actor_agent_30/fully_connected_7/Tensordot/stack"
  op: "Pack"
  input: "actor_agent_30/fully_connected_7/Tensordot/Prod"
  input: "actor_agent_30/fully_connected_7/Tensordot/Prod_1"
  attr {
    key: "N"
    value {
      i: 2
    }
  }
  attr {
    key: "T"
    value {
      type: DT_INT32
    }
  }
  attr {
    key: "axis"
    value {
      i: 0
    }
  }
}
node {
  name: "actor_agent_30/fully_connected_7/Tensordot/transpose"
  op: "Transpose"
  input: "actor_agent_30/fully_connected_6/LeakyRelu/Maximum"
  input: "actor_agent_30/fully_connected_7/Tensordot/concat"
  attr {
    key: "T"
    value {
      type: DT_FLOAT
    }
  }
  attr {
    key: "Tperm"
    value {
      type: DT_INT32
    }
  }
}
node {
  name: "actor_agent_30/fully_connected_7/Tensordot/Reshape"
  op: "Reshape"
  input: "actor_agent_30/fully_connected_7/Tensordot/transpose"
  input: "actor_agent_30/fully_connected_7/Tensordot/stack"
  attr {
    key: "T"
    value {
      type: DT_FLOAT
    }
  }
  attr {
    key: "Tshape"
    value {
      type: DT_INT32
    }
  }
}
node {
  name: "actor_agent_30/fully_connected_7/Tensordot/transpose_1/perm"
  op: "Const"
  attr {
    key: "dtype"
    value {
      type: DT_INT32
    }
  }
  attr {
    key: "value"
    value {
      tensor {
        dtype: DT_INT32
        tensor_shape {
          dim {
            size: 2
          }
        }
        tensor_content: "\000\000\000\000\001\000\000\000"
      }
    }
  }
}
node {
  name: "actor_agent_30/fully_connected_7/Tensordot/transpose_1"
  op: "Transpose"
  input: "actor_agent/fully_connected_7/weights/read"
  input: "actor_agent_30/fully_connected_7/Tensordot/transpose_1/perm"
  attr {
    key: "T"
    value {
      type: DT_FLOAT
    }
  }
  attr {
    key: "Tperm"
    value {
      type: DT_INT32
    }
  }
}
node {
  name: "actor_agent_30/fully_connected_7/Tensordot/Reshape_1/shape"
  op: "Const"
  attr {
    key: "dtype"
    value {
      type: DT_INT32
    }
  }
  attr {
    key: "value"
    value {
      tensor {
        dtype: DT_INT32
        tensor_shape {
          dim {
            size: 2
          }
        }
        tensor_content: "\010\000\000\000\001\000\000\000"
      }
    }
  }
}
node {
  name: "actor_agent_30/fully_connected_7/Tensordot/Reshape_1"
  op: "Reshape"
  input: "actor_agent_30/fully_connected_7/Tensordot/transpose_1"
  input: "actor_agent_30/fully_connected_7/Tensordot/Reshape_1/shape"
  attr {
    key: "T"
    value {
      type: DT_FLOAT
    }
  }
  attr {
    key: "Tshape"
    value {
      type: DT_INT32
    }
  }
}
node {
  name: "actor_agent_30/fully_connected_7/Tensordot/MatMul"
  op: "MatMul"
  input: "actor_agent_30/fully_connected_7/Tensordot/Reshape"
  input: "actor_agent_30/fully_connected_7/Tensordot/Reshape_1"
  attr {
    key: "T"
    value {
      type: DT_FLOAT
    }
  }
  attr {
    key: "transpose_a"
    value {
      b: false
    }
  }
  attr {
    key: "transpose_b"
    value {
      b: false
    }
  }
}
node {
  name: "actor_agent_30/fully_connected_7/Tensordot/Const_2"
  op: "Const"
  attr {
    key: "dtype"
    value {
      type: DT_INT32
    }
  }
  attr {
    key: "value"
    value {
      tensor {
        dtype: DT_INT32
        tensor_shape {
          dim {
            size: 1
          }
        }
        int_val: 1
      }
    }
  }
}
node {
  name: "actor_agent_30/fully_connected_7/Tensordot/concat_1/axis"
  op: "Const"
  attr {
    key: "dtype"
    value {
      type: DT_INT32
    }
  }
  attr {
    key: "value"
    value {
      tensor {
        dtype: DT_INT32
        tensor_shape {
        }
        int_val: 0
      }
    }
  }
}
node {
  name: "actor_agent_30/fully_connected_7/Tensordot/concat_1"
  op: "ConcatV2"
  input: "actor_agent_30/fully_connected_7/Tensordot/GatherV2"
  input: "actor_agent_30/fully_connected_7/Tensordot/Const_2"
  input: "actor_agent_30/fully_connected_7/Tensordot/concat_1/axis"
  attr {
    key: "N"
    value {
      i: 2
    }
  }
  attr {
    key: "T"
    value {
      type: DT_INT32
    }
  }
  attr {
    key: "Tidx"
    value {
      type: DT_INT32
    }
  }
}
node {
  name: "actor_agent_30/fully_connected_7/Tensordot"
  op: "Reshape"
  input: "actor_agent_30/fully_connected_7/Tensordot/MatMul"
  input: "actor_agent_30/fully_connected_7/Tensordot/concat_1"
  attr {
    key: "T"
    value {
      type: DT_FLOAT
    }
  }
  attr {
    key: "Tshape"
    value {
      type: DT_INT32
    }
  }
}
node {
  name: "actor_agent_30/fully_connected_7/BiasAdd"
  op: "BiasAdd"
  input: "actor_agent_30/fully_connected_7/Tensordot"
  input: "actor_agent/fully_connected_7/biases/read"
  attr {
    key: "T"
    value {
      type: DT_FLOAT
    }
  }
  attr {
    key: "data_format"
    value {
      s: "NHWC"
    }
  }
}
library {
}
