node {
  name: "inputs/observations"
  op: "Placeholder"
  attr {
    key: "dtype"
    value {
      type: DT_FLOAT
    }
  }
  attr {
    key: "shape"
    value {
      shape {
        dim {
          size: -1
        }
        dim {
          size: 2480
        }
      }
    }
  }
}
node {
  name: "inputs/actions_num"
  op: "Placeholder"
  attr {
    key: "dtype"
    value {
      type: DT_INT32
    }
  }
  attr {
    key: "shape"
    value {
      shape {
        dim {
          size: -1
        }
      }
    }
  }
}
node {
  name: "inputs/actions_value"
  op: "Placeholder"
  attr {
    key: "dtype"
    value {
      type: DT_FLOAT
    }
  }
  attr {
    key: "shape"
    value {
      shape {
        dim {
          size: -1
        }
      }
    }
  }
}
node {
  name: "dense/kernel/Initializer/random_normal/shape"
  op: "Const"
  attr {
    key: "_class"
    value {
      list {
        s: "loc:@dense/kernel"
      }
    }
  }
  attr {
    key: "dtype"
    value {
      type: DT_INT32
    }
  }
  attr {
    key: "value"
    value {
      tensor {
        dtype: DT_INT32
        tensor_shape {
          dim {
            size: 2
          }
        }
        tensor_content: "\260\t\000\000\n\000\000\000"
      }
    }
  }
}
node {
  name: "dense/kernel/Initializer/random_normal/mean"
  op: "Const"
  attr {
    key: "_class"
    value {
      list {
        s: "loc:@dense/kernel"
      }
    }
  }
  attr {
    key: "dtype"
    value {
      type: DT_FLOAT
    }
  }
  attr {
    key: "value"
    value {
      tensor {
        dtype: DT_FLOAT
        tensor_shape {
        }
        float_val: 0.0
      }
    }
  }
}
node {
  name: "dense/kernel/Initializer/random_normal/stddev"
  op: "Const"
  attr {
    key: "_class"
    value {
      list {
        s: "loc:@dense/kernel"
      }
    }
  }
  attr {
    key: "dtype"
    value {
      type: DT_FLOAT
    }
  }
  attr {
    key: "value"
    value {
      tensor {
        dtype: DT_FLOAT
        tensor_shape {
        }
        float_val: 0.30000001192092896
      }
    }
  }
}
node {
  name: "dense/kernel/Initializer/random_normal/RandomStandardNormal"
  op: "RandomStandardNormal"
  input: "dense/kernel/Initializer/random_normal/shape"
  attr {
    key: "T"
    value {
      type: DT_INT32
    }
  }
  attr {
    key: "_class"
    value {
      list {
        s: "loc:@dense/kernel"
      }
    }
  }
  attr {
    key: "dtype"
    value {
      type: DT_FLOAT
    }
  }
  attr {
    key: "seed"
    value {
      i: 1
    }
  }
  attr {
    key: "seed2"
    value {
      i: 6
    }
  }
}
node {
  name: "dense/kernel/Initializer/random_normal/mul"
  op: "Mul"
  input: "dense/kernel/Initializer/random_normal/RandomStandardNormal"
  input: "dense/kernel/Initializer/random_normal/stddev"
  attr {
    key: "T"
    value {
      type: DT_FLOAT
    }
  }
  attr {
    key: "_class"
    value {
      list {
        s: "loc:@dense/kernel"
      }
    }
  }
}
node {
  name: "dense/kernel/Initializer/random_normal"
  op: "Add"
  input: "dense/kernel/Initializer/random_normal/mul"
  input: "dense/kernel/Initializer/random_normal/mean"
  attr {
    key: "T"
    value {
      type: DT_FLOAT
    }
  }
  attr {
    key: "_class"
    value {
      list {
        s: "loc:@dense/kernel"
      }
    }
  }
}
node {
  name: "dense/kernel"
  op: "Const"
  attr {
    key: "dtype"
    value {
      type: DT_FLOAT
    }
  }
  attr {
    key: "value"
    value {
      tensor {
        dtype: DT_FLOAT
        tensor_shape {
          dim {
            size: 2480
          }
          dim {
            size: 10
          }
        }
        tensor_content: "…"
      }
    }
  }
}
node {
  name: "dense/kernel/Assign"
  op: "Identity"
  input: "dense/kernel/Initializer/random_normal"
  attr {
    key: "T"
    value {
      type: DT_FLOAT
    }
  }
  attr {
    key: "_class"
    value {
      list {
        s: "loc:@dense/kernel"
      }
    }
  }
}
node {
  name: "dense/kernel/read"
  op: "Identity"
  input: "dense/kernel"
  attr {
    key: "T"
    value {
      type: DT_FLOAT
    }
  }
  attr {
    key: "_class"
    value {
      list {
        s: "loc:@dense/kernel"
      }
    }
  }
}
node {
  name: "dense/bias/Initializer/Const"
  op: "Const"
  attr {
    key: "_class"
    value {
      list {
        s: "loc:@dense/bias"
      }
    }
  }
  attr {
    key: "dtype"
    value {
      type: DT_FLOAT
    }
  }
  attr {
    key: "value"
    value {
      tensor {
        dtype: DT_FLOAT
        tensor_shape {
          dim {
            size: 10
          }
        }
        float_val: 0.10000000149011612
      }
    }
  }
}
node {
  name: "dense/bias"
  op: "Const"
  attr {
    key: "dtype"
    value {
      type: DT_FLOAT
    }
  }
  attr {
    key: "value"
    value {
      tensor {
        dtype: DT_FLOAT
        tensor_shape {
          dim {
            size: 10
          }
        }
        tensor_content: "?\327\263;\217\316Q>h\2152>\343\324\353=\016\232&=]^X>\273WW>\214m\225>\354|\007<&\311\016>"
      }
    }
  }
}
node {
  name: "dense/bias/Assign"
  op: "Identity"
  input: "dense/bias/Initializer/Const"
  attr {
    key: "T"
    value {
      type: DT_FLOAT
    }
  }
  attr {
    key: "_class"
    value {
      list {
        s: "loc:@dense/bias"
      }
    }
  }
}
node {
  name: "dense/bias/read"
  op: "Identity"
  input: "dense/bias"
  attr {
    key: "T"
    value {
      type: DT_FLOAT
    }
  }
  attr {
    key: "_class"
    value {
      list {
        s: "loc:@dense/bias"
      }
    }
  }
}
node {
  name: "dense/MatMul"
  op: "MatMul"
  input: "inputs/observations"
  input: "dense/kernel/read"
  attr {
    key: "T"
    value {
      type: DT_FLOAT
    }
  }
  attr {
    key: "transpose_a"
    value {
      b: false
    }
  }
  attr {
    key: "transpose_b"
    value {
      b: false
    }
  }
}
node {
  name: "dense/BiasAdd"
  op: "BiasAdd"
  input: "dense/MatMul"
  input: "dense/bias/read"
  attr {
    key: "T"
    value {
      type: DT_FLOAT
    }
  }
  attr {
    key: "data_format"
    value {
      s: "NHWC"
    }
  }
}
node {
  name: "dense/Tanh"
  op: "Tanh"
  input: "dense/BiasAdd"
  attr {
    key: "T"
    value {
      type: DT_FLOAT
    }
  }
}
node {
  name: "dense_1/kernel/Initializer/random_normal/shape"
  op: "Const"
  attr {
    key: "_class"
    value {
      list {
        s: "loc:@dense_1/kernel"
      }
    }
  }
  attr {
    key: "dtype"
    value {
      type: DT_INT32
    }
  }
  attr {
    key: "value"
    value {
      tensor {
        dtype: DT_INT32
        tensor_shape {
          dim {
            size: 2
          }
        }
        tensor_content: "\n\000\000\000\006\000\000\000"
      }
    }
  }
}
node {
  name: "dense_1/kernel/Initializer/random_normal/mean"
  op: "Const"
  attr {
    key: "_class"
    value {
      list {
        s: "loc:@dense_1/kernel"
      }
    }
  }
  attr {
    key: "dtype"
    value {
      type: DT_FLOAT
    }
  }
  attr {
    key: "value"
    value {
      tensor {
        dtype: DT_FLOAT
        tensor_shape {
        }
        float_val: 0.0
      }
    }
  }
}
node {
  name: "dense_1/kernel/Initializer/random_normal/stddev"
  op: "Const"
  attr {
    key: "_class"
    value {
      list {
        s: "loc:@dense_1/kernel"
      }
    }
  }
  attr {
    key: "dtype"
    value {
      type: DT_FLOAT
    }
  }
  attr {
    key: "value"
    value {
      tensor {
        dtype: DT_FLOAT
        tensor_shape {
        }
        float_val: 0.30000001192092896
      }
    }
  }
}
node {
  name: "dense_1/kernel/Initializer/random_normal/RandomStandardNormal"
  op: "RandomStandardNormal"
  input: "dense_1/kernel/Initializer/random_normal/shape"
  attr {
    key: "T"
    value {
      type: DT_INT32
    }
  }
  attr {
    key: "_class"
    value {
      list {
        s: "loc:@dense_1/kernel"
      }
    }
  }
  attr {
    key: "dtype"
    value {
      type: DT_FLOAT
    }
  }
  attr {
    key: "seed"
    value {
      i: 1
    }
  }
  attr {
    key: "seed2"
    value {
      i: 22
    }
  }
}
node {
  name: "dense_1/kernel/Initializer/random_normal/mul"
  op: "Mul"
  input: "dense_1/kernel/Initializer/random_normal/RandomStandardNormal"
  input: "dense_1/kernel/Initializer/random_normal/stddev"
  attr {
    key: "T"
    value {
      type: DT_FLOAT
    }
  }
  attr {
    key: "_class"
    value {
      list {
        s: "loc:@dense_1/kernel"
      }
    }
  }
}
node {
  name: "dense_1/kernel/Initializer/random_normal"
  op: "Add"
  input: "dense_1/kernel/Initializer/random_normal/mul"
  input: "dense_1/kernel/Initializer/random_normal/mean"
  attr {
    key: "T"
    value {
      type: DT_FLOAT
    }
  }
  attr {
    key: "_class"
    value {
      list {
        s: "loc:@dense_1/kernel"
      }
    }
  }
}
node {
  name: "dense_1/kernel"
  op: "Const"
  attr {
    key: "dtype"
    value {
      type: DT_FLOAT
    }
  }
  attr {
    key: "value"
    value {
      tensor {
        dtype: DT_FLOAT
        tensor_shape {
          dim {
            size: 10
          }
          dim {
            size: 6
          }
        }
        tensor_content: "…"
      }
    }
  }
}
node {
  name: "dense_1/kernel/Assign"
  op: "Identity"
  input: "dense_1/kernel/Initializer/random_normal"
  attr {
    key: "T"
    value {
      type: DT_FLOAT
    }
  }
  attr {
    key: "_class"
    value {
      list {
        s: "loc:@dense_1/kernel"
      }
    }
  }
}
node {
  name: "dense_1/kernel/read"
  op: "Identity"
  input: "dense_1/kernel"
  attr {
    key: "T"
    value {
      type: DT_FLOAT
    }
  }
  attr {
    key: "_class"
    value {
      list {
        s: "loc:@dense_1/kernel"
      }
    }
  }
}
node {
  name: "dense_1/bias/Initializer/Const"
  op: "Const"
  attr {
    key: "_class"
    value {
      list {
        s: "loc:@dense_1/bias"
      }
    }
  }
  attr {
    key: "dtype"
    value {
      type: DT_FLOAT
    }
  }
  attr {
    key: "value"
    value {
      tensor {
        dtype: DT_FLOAT
        tensor_shape {
          dim {
            size: 6
          }
        }
        float_val: 0.10000000149011612
      }
    }
  }
}
node {
  name: "dense_1/bias"
  op: "Const"
  attr {
    key: "dtype"
    value {
      type: DT_FLOAT
    }
  }
  attr {
    key: "value"
    value {
      tensor {
        dtype: DT_FLOAT
        tensor_shape {
          dim {
            size: 6
          }
        }
        tensor_content: "\025\243<>\005\245#>\373\256<>\243)l>\204\326\263;fg\030\276"
      }
    }
  }
}
node {
  name: "dense_1/bias/Assign"
  op: "Identity"
  input: "dense_1/bias/Initializer/Const"
  attr {
    key: "T"
    value {
      type: DT_FLOAT
    }
  }
  attr {
    key: "_class"
    value {
      list {
        s: "loc:@dense_1/bias"
      }
    }
  }
}
node {
  name: "dense_1/bias/read"
  op: "Identity"
  input: "dense_1/bias"
  attr {
    key: "T"
    value {
      type: DT_FLOAT
    }
  }
  attr {
    key: "_class"
    value {
      list {
        s: "loc:@dense_1/bias"
      }
    }
  }
}
node {
  name: "dense_1/MatMul"
  op: "MatMul"
  input: "dense/Tanh"
  input: "dense_1/kernel/read"
  attr {
    key: "T"
    value {
      type: DT_FLOAT
    }
  }
  attr {
    key: "transpose_a"
    value {
      b: false
    }
  }
  attr {
    key: "transpose_b"
    value {
      b: false
    }
  }
}
node {
  name: "dense_1/BiasAdd"
  op: "BiasAdd"
  input: "dense_1/MatMul"
  input: "dense_1/bias/read"
  attr {
    key: "T"
    value {
      type: DT_FLOAT
    }
  }
  attr {
    key: "data_format"
    value {
      s: "NHWC"
    }
  }
}
node {
  name: "act_prob"
  op: "Softmax"
  input: "dense_1/BiasAdd"
  attr {
    key: "T"
    value {
      type: DT_FLOAT
    }
  }
}
node {
  name: "loss/SparseSoftmaxCrossEntropyWithLogits/Shape"
  op: "Shape"
  input: "inputs/actions_num"
  attr {
    key: "T"
    value {
      type: DT_INT32
    }
  }
  attr {
    key: "out_type"
    value {
      type: DT_INT32
    }
  }
}
node {
  name: "loss/SparseSoftmaxCrossEntropyWithLogits/SparseSoftmaxCrossEntropyWithLogits"
  op: "SparseSoftmaxCrossEntropyWithLogits"
  input: "dense_1/BiasAdd"
  input: "inputs/actions_num"
  attr {
    key: "T"
    value {
      type: DT_FLOAT
    }
  }
  attr {
    key: "Tlabels"
    value {
      type: DT_INT32
    }
  }
}
node {
  name: "loss/mul"
  op: "Mul"
  input: "loss/SparseSoftmaxCrossEntropyWithLogits/SparseSoftmaxCrossEntropyWithLogits"
  input: "inputs/actions_value"
  attr {
    key: "T"
    value {
      type: DT_FLOAT
    }
  }
}
node {
  name: "loss/Const"
  op: "Const"
  attr {
    key: "dtype"
    value {
      type: DT_INT32
    }
  }
  attr {
    key: "value"
    value {
      tensor {
        dtype: DT_INT32
        tensor_shape {
          dim {
            size: 1
          }
        }
        int_val: 0
      }
    }
  }
}
node {
  name: "loss/Mean"
  op: "Mean"
  input: "loss/mul"
  input: "loss/Const"
  attr {
    key: "T"
    value {
      type: DT_FLOAT
    }
  }
  attr {
    key: "Tidx"
    value {
      type: DT_INT32
    }
  }
  attr {
    key: "keep_dims"
    value {
      b: false
    }
  }
}
node {
  name: "train/gradients/Shape"
  op: "Const"
  attr {
    key: "dtype"
    value {
      type: DT_INT32
    }
  }
  attr {
    key: "value"
    value {
      tensor {
        dtype: DT_INT32
        tensor_shape {
          dim {
          }
        }
      }
    }
  }
}
node {
  name: "train/gradients/grad_ys_0"
  op: "Const"
  attr {
    key: "dtype"
    value {
      type: DT_FLOAT
    }
  }
  attr {
    key: "value"
    value {
      tensor {
        dtype: DT_FLOAT
        tensor_shape {
        }
        float_val: 1.0
      }
    }
  }
}
node {
  name: "train/gradients/Fill"
  op: "Fill"
  input: "train/gradients/Shape"
  input: "train/gradients/grad_ys_0"
  attr {
    key: "T"
    value {
      type: DT_FLOAT
    }
  }
  attr {
    key: "index_type"
    value {
      type: DT_INT32
    }
  }
}
node {
  name: "train/gradients/loss/Mean_grad/Reshape/shape"
  op: "Const"
  attr {
    key: "dtype"
    value {
      type: DT_INT32
    }
  }
  attr {
    key: "value"
    value {
      tensor {
        dtype: DT_INT32
        tensor_shape {
          dim {
            size: 1
          }
        }
        int_val: 1
      }
    }
  }
}
node {
  name: "train/gradients/loss/Mean_grad/Reshape"
  op: "Reshape"
  input: "train/gradients/Fill"
  input: "train/gradients/loss/Mean_grad/Reshape/shape"
  attr {
    key: "T"
    value {
      type: DT_FLOAT
    }
  }
  attr {
    key: "Tshape"
    value {
      type: DT_INT32
    }
  }
}
node {
  name: "train/gradients/loss/Mean_grad/Shape"
  op: "Shape"
  input: "loss/mul"
  attr {
    key: "T"
    value {
      type: DT_FLOAT
    }
  }
  attr {
    key: "out_type"
    value {
      type: DT_INT32
    }
  }
}
node {
  name: "train/gradients/loss/Mean_grad/Tile"
  op: "Tile"
  input: "train/gradients/loss/Mean_grad/Reshape"
  input: "train/gradients/loss/Mean_grad/Shape"
  attr {
    key: "T"
    value {
      type: DT_FLOAT
    }
  }
  attr {
    key: "Tmultiples"
    value {
      type: DT_INT32
    }
  }
}
node {
  name: "train/gradients/loss/Mean_grad/Shape_1"
  op: "Shape"
  input: "loss/mul"
  attr {
    key: "T"
    value {
      type: DT_FLOAT
    }
  }
  attr {
    key: "out_type"
    value {
      type: DT_INT32
    }
  }
}
node {
  name: "train/gradients/loss/Mean_grad/Shape_2"
  op: "Const"
  attr {
    key: "dtype"
    value {
      type: DT_INT32
    }
  }
  attr {
    key: "value"
    value {
      tensor {
        dtype: DT_INT32
        tensor_shape {
          dim {
          }
        }
      }
    }
  }
}
node {
  name: "train/gradients/loss/Mean_grad/Const"
  op: "Const"
  attr {
    key: "dtype"
    value {
      type: DT_INT32
    }
  }
  attr {
    key: "value"
    value {
      tensor {
        dtype: DT_INT32
        tensor_shape {
          dim {
            size: 1
          }
        }
        int_val: 0
      }
    }
  }
}
node {
  name: "train/gradients/loss/Mean_grad/Prod"
  op: "Prod"
  input: "train/gradients/loss/Mean_grad/Shape_1"
  input: "train/gradients/loss/Mean_grad/Const"
  attr {
    key: "T"
    value {
      type: DT_INT32
    }
  }
  attr {
    key: "Tidx"
    value {
      type: DT_INT32
    }
  }
  attr {
    key: "keep_dims"
    value {
      b: false
    }
  }
}
node {
  name: "train/gradients/loss/Mean_grad/Const_1"
  op: "Const"
  attr {
    key: "dtype"
    value {
      type: DT_INT32
    }
  }
  attr {
    key: "value"
    value {
      tensor {
        dtype: DT_INT32
        tensor_shape {
          dim {
            size: 1
          }
        }
        int_val: 0
      }
    }
  }
}
node {
  name: "train/gradients/loss/Mean_grad/Prod_1"
  op: "Prod"
  input: "train/gradients/loss/Mean_grad/Shape_2"
  input: "train/gradients/loss/Mean_grad/Const_1"
  attr {
    key: "T"
    value {
      type: DT_INT32
    }
  }
  attr {
    key: "Tidx"
    value {
      type: DT_INT32
    }
  }
  attr {
    key: "keep_dims"
    value {
      b: false
    }
  }
}
node {
  name: "train/gradients/loss/Mean_grad/Maximum/y"
  op: "Const"
  attr {
    key: "dtype"
    value {
      type: DT_INT32
    }
  }
  attr {
    key: "value"
    value {
      tensor {
        dtype: DT_INT32
        tensor_shape {
        }
        int_val: 1
      }
    }
  }
}
node {
  name: "train/gradients/loss/Mean_grad/Maximum"
  op: "Maximum"
  input: "train/gradients/loss/Mean_grad/Prod_1"
  input: "train/gradients/loss/Mean_grad/Maximum/y"
  attr {
    key: "T"
    value {
      type: DT_INT32
    }
  }
}
node {
  name: "train/gradients/loss/Mean_grad/floordiv"
  op: "FloorDiv"
  input: "train/gradients/loss/Mean_grad/Prod"
  input: "train/gradients/loss/Mean_grad/Maximum"
  attr {
    key: "T"
    value {
      type: DT_INT32
    }
  }
}
node {
  name: "train/gradients/loss/Mean_grad/Cast"
  op: "Cast"
  input: "train/gradients/loss/Mean_grad/floordiv"
  attr {
    key: "DstT"
    value {
      type: DT_FLOAT
    }
  }
  attr {
    key: "SrcT"
    value {
      type: DT_INT32
    }
  }
  attr {
    key: "Truncate"
    value {
      b: false
    }
  }
}
node {
  name: "train/gradients/loss/Mean_grad/truediv"
  op: "RealDiv"
  input: "train/gradients/loss/Mean_grad/Tile"
  input: "train/gradients/loss/Mean_grad/Cast"
  attr {
    key: "T"
    value {
      type: DT_FLOAT
    }
  }
}
node {
  name: "train/gradients/loss/mul_grad/Shape"
  op: "Shape"
  input: "loss/SparseSoftmaxCrossEntropyWithLogits/SparseSoftmaxCrossEntropyWithLogits"
  attr {
    key: "T"
    value {
      type: DT_FLOAT
    }
  }
  attr {
    key: "out_type"
    value {
      type: DT_INT32
    }
  }
}
node {
  name: "train/gradients/loss/mul_grad/Shape_1"
  op: "Shape"
  input: "inputs/actions_value"
  attr {
    key: "T"
    value {
      type: DT_FLOAT
    }
  }
  attr {
    key: "out_type"
    value {
      type: DT_INT32
    }
  }
}
node {
  name: "train/gradients/loss/mul_grad/BroadcastGradientArgs"
  op: "BroadcastGradientArgs"
  input: "train/gradients/loss/mul_grad/Shape"
  input: "train/gradients/loss/mul_grad/Shape_1"
  attr {
    key: "T"
    value {
      type: DT_INT32
    }
  }
}
node {
  name: "train/gradients/loss/mul_grad/Mul"
  op: "Mul"
  input: "train/gradients/loss/Mean_grad/truediv"
  input: "inputs/actions_value"
  attr {
    key: "T"
    value {
      type: DT_FLOAT
    }
  }
}
node {
  name: "train/gradients/loss/mul_grad/Sum"
  op: "Sum"
  input: "train/gradients/loss/mul_grad/Mul"
  input: "train/gradients/loss/mul_grad/BroadcastGradientArgs"
  attr {
    key: "T"
    value {
      type: DT_FLOAT
    }
  }
  attr {
    key: "Tidx"
    value {
      type: DT_INT32
    }
  }
  attr {
    key: "keep_dims"
    value {
      b: false
    }
  }
}
node {
  name: "train/gradients/loss/mul_grad/Reshape"
  op: "Reshape"
  input: "train/gradients/loss/mul_grad/Sum"
  input: "train/gradients/loss/mul_grad/Shape"
  attr {
    key: "T"
    value {
      type: DT_FLOAT
    }
  }
  attr {
    key: "Tshape"
    value {
      type: DT_INT32
    }
  }
}
node {
  name: "train/gradients/loss/mul_grad/Mul_1"
  op: "Mul"
  input: "loss/SparseSoftmaxCrossEntropyWithLogits/SparseSoftmaxCrossEntropyWithLogits"
  input: "train/gradients/loss/Mean_grad/truediv"
  attr {
    key: "T"
    value {
      type: DT_FLOAT
    }
  }
}
node {
  name: "train/gradients/loss/mul_grad/Sum_1"
  op: "Sum"
  input: "train/gradients/loss/mul_grad/Mul_1"
  input: "train/gradients/loss/mul_grad/BroadcastGradientArgs:1"
  attr {
    key: "T"
    value {
      type: DT_FLOAT
    }
  }
  attr {
    key: "Tidx"
    value {
      type: DT_INT32
    }
  }
  attr {
    key: "keep_dims"
    value {
      b: false
    }
  }
}
node {
  name: "train/gradients/loss/mul_grad/Reshape_1"
  op: "Reshape"
  input: "train/gradients/loss/mul_grad/Sum_1"
  input: "train/gradients/loss/mul_grad/Shape_1"
  attr {
    key: "T"
    value {
      type: DT_FLOAT
    }
  }
  attr {
    key: "Tshape"
    value {
      type: DT_INT32
    }
  }
}
node {
  name: "train/gradients/loss/mul_grad/tuple/group_deps"
  op: "NoOp"
  input: "^train/gradients/loss/mul_grad/Reshape"
  input: "^train/gradients/loss/mul_grad/Reshape_1"
}
node {
  name: "train/gradients/loss/mul_grad/tuple/control_dependency"
  op: "Identity"
  input: "train/gradients/loss/mul_grad/Reshape"
  input: "^train/gradients/loss/mul_grad/tuple/group_deps"
  attr {
    key: "T"
    value {
      type: DT_FLOAT
    }
  }
  attr {
    key: "_class"
    value {
      list {
        s: "loc:@train/gradients/loss/mul_grad/Reshape"
      }
    }
  }
}
node {
  name: "train/gradients/loss/mul_grad/tuple/control_dependency_1"
  op: "Identity"
  input: "train/gradients/loss/mul_grad/Reshape_1"
  input: "^train/gradients/loss/mul_grad/tuple/group_deps"
  attr {
    key: "T"
    value {
      type: DT_FLOAT
    }
  }
  attr {
    key: "_class"
    value {
      list {
        s: "loc:@train/gradients/loss/mul_grad/Reshape_1"
      }
    }
  }
}
node {
  name: "train/gradients/zeros_like"
  op: "ZerosLike"
  input: "loss/SparseSoftmaxCrossEntropyWithLogits/SparseSoftmaxCrossEntropyWithLogits:1"
  attr {
    key: "T"
    value {
      type: DT_FLOAT
    }
  }
}
node {
  name: "train/gradients/loss/SparseSoftmaxCrossEntropyWithLogits/SparseSoftmaxCrossEntropyWithLogits_grad/PreventGradient"
  op: "PreventGradient"
  input: "loss/SparseSoftmaxCrossEntropyWithLogits/SparseSoftmaxCrossEntropyWithLogits:1"
  attr {
    key: "T"
    value {
      type: DT_FLOAT
    }
  }
  attr {
    key: "message"
    value {
      s: "Currently there is no way to take the second derivative of sparse_softmax_cross_entropy_with_logits due to the fused implementation\'s interaction with tf.gradients()"
    }
  }
}
node {
  name: "train/gradients/loss/SparseSoftmaxCrossEntropyWithLogits/SparseSoftmaxCrossEntropyWithLogits_grad/ExpandDims/dim"
  op: "Const"
  attr {
    key: "dtype"
    value {
      type: DT_INT32
    }
  }
  attr {
    key: "value"
    value {
      tensor {
        dtype: DT_INT32
        tensor_shape {
        }
        int_val: -1
      }
    }
  }
}
node {
  name: "train/gradients/loss/SparseSoftmaxCrossEntropyWithLogits/SparseSoftmaxCrossEntropyWithLogits_grad/ExpandDims"
  op: "ExpandDims"
  input: "train/gradients/loss/mul_grad/tuple/control_dependency"
  input: "train/gradients/loss/SparseSoftmaxCrossEntropyWithLogits/SparseSoftmaxCrossEntropyWithLogits_grad/ExpandDims/dim"
  attr {
    key: "T"
    value {
      type: DT_FLOAT
    }
  }
  attr {
    key: "Tdim"
    value {
      type: DT_INT32
    }
  }
}
node {
  name: "train/gradients/loss/SparseSoftmaxCrossEntropyWithLogits/SparseSoftmaxCrossEntropyWithLogits_grad/mul"
  op: "Mul"
  input: "train/gradients/loss/SparseSoftmaxCrossEntropyWithLogits/SparseSoftmaxCrossEntropyWithLogits_grad/ExpandDims"
  input: "train/gradients/loss/SparseSoftmaxCrossEntropyWithLogits/SparseSoftmaxCrossEntropyWithLogits_grad/PreventGradient"
  attr {
    key: "T"
    value {
      type: DT_FLOAT
    }
  }
}
node {
  name: "train/gradients/dense_1/BiasAdd_grad/BiasAddGrad"
  op: "BiasAddGrad"
  input: "train/gradients/loss/SparseSoftmaxCrossEntropyWithLogits/SparseSoftmaxCrossEntropyWithLogits_grad/mul"
  attr {
    key: "T"
    value {
      type: DT_FLOAT
    }
  }
  attr {
    key: "data_format"
    value {
      s: "NHWC"
    }
  }
}
node {
  name: "train/gradients/dense_1/BiasAdd_grad/tuple/group_deps"
  op: "NoOp"
  input: "^train/gradients/dense_1/BiasAdd_grad/BiasAddGrad"
  input: "^train/gradients/loss/SparseSoftmaxCrossEntropyWithLogits/SparseSoftmaxCrossEntropyWithLogits_grad/mul"
}
node {
  name: "train/gradients/dense_1/BiasAdd_grad/tuple/control_dependency"
  op: "Identity"
  input: "train/gradients/loss/SparseSoftmaxCrossEntropyWithLogits/SparseSoftmaxCrossEntropyWithLogits_grad/mul"
  input: "^train/gradients/dense_1/BiasAdd_grad/tuple/group_deps"
  attr {
    key: "T"
    value {
      type: DT_FLOAT
    }
  }
  attr {
    key: "_class"
    value {
      list {
        s: "loc:@train/gradients/loss/SparseSoftmaxCrossEntropyWithLogits/SparseSoftmaxCrossEntropyWithLogits_grad/mul"
      }
    }
  }
}
node {
  name: "train/gradients/dense_1/BiasAdd_grad/tuple/control_dependency_1"
  op: "Identity"
  input: "train/gradients/dense_1/BiasAdd_grad/BiasAddGrad"
  input: "^train/gradients/dense_1/BiasAdd_grad/tuple/group_deps"
  attr {
    key: "T"
    value {
      type: DT_FLOAT
    }
  }
  attr {
    key: "_class"
    value {
      list {
        s: "loc:@train/gradients/dense_1/BiasAdd_grad/BiasAddGrad"
      }
    }
  }
}
node {
  name: "train/gradients/dense_1/MatMul_grad/MatMul"
  op: "MatMul"
  input: "train/gradients/dense_1/BiasAdd_grad/tuple/control_dependency"
  input: "dense_1/kernel/read"
  attr {
    key: "T"
    value {
      type: DT_FLOAT
    }
  }
  attr {
    key: "transpose_a"
    value {
      b: false
    }
  }
  attr {
    key: "transpose_b"
    value {
      b: true
    }
  }
}
node {
  name: "train/gradients/dense_1/MatMul_grad/MatMul_1"
  op: "MatMul"
  input: "dense/Tanh"
  input: "train/gradients/dense_1/BiasAdd_grad/tuple/control_dependency"
  attr {
    key: "T"
    value {
      type: DT_FLOAT
    }
  }
  attr {
    key: "transpose_a"
    value {
      b: true
    }
  }
  attr {
    key: "transpose_b"
    value {
      b: false
    }
  }
}
node {
  name: "train/gradients/dense_1/MatMul_grad/tuple/group_deps"
  op: "NoOp"
  input: "^train/gradients/dense_1/MatMul_grad/MatMul"
  input: "^train/gradients/dense_1/MatMul_grad/MatMul_1"
}
node {
  name: "train/gradients/dense_1/MatMul_grad/tuple/control_dependency"
  op: "Identity"
  input: "train/gradients/dense_1/MatMul_grad/MatMul"
  input: "^train/gradients/dense_1/MatMul_grad/tuple/group_deps"
  attr {
    key: "T"
    value {
      type: DT_FLOAT
    }
  }
  attr {
    key: "_class"
    value {
      list {
        s: "loc:@train/gradients/dense_1/MatMul_grad/MatMul"
      }
    }
  }
}
node {
  name: "train/gradients/dense_1/MatMul_grad/tuple/control_dependency_1"
  op: "Identity"
  input: "train/gradients/dense_1/MatMul_grad/MatMul_1"
  input: "^train/gradients/dense_1/MatMul_grad/tuple/group_deps"
  attr {
    key: "T"
    value {
      type: DT_FLOAT
    }
  }
  attr {
    key: "_class"
    value {
      list {
        s: "loc:@train/gradients/dense_1/MatMul_grad/MatMul_1"
      }
    }
  }
}
node {
  name: "train/gradients/dense/Tanh_grad/TanhGrad"
  op: "TanhGrad"
  input: "dense/Tanh"
  input: "train/gradients/dense_1/MatMul_grad/tuple/control_dependency"
  attr {
    key: "T"
    value {
      type: DT_FLOAT
    }
  }
}
node {
  name: "train/gradients/dense/BiasAdd_grad/BiasAddGrad"
  op: "BiasAddGrad"
  input: "train/gradients/dense/Tanh_grad/TanhGrad"
  attr {
    key: "T"
    value {
      type: DT_FLOAT
    }
  }
  attr {
    key: "data_format"
    value {
      s: "NHWC"
    }
  }
}
node {
  name: "train/gradients/dense/BiasAdd_grad/tuple/group_deps"
  op: "NoOp"
  input: "^train/gradients/dense/BiasAdd_grad/BiasAddGrad"
  input: "^train/gradients/dense/Tanh_grad/TanhGrad"
}
node {
  name: "train/gradients/dense/BiasAdd_grad/tuple/control_dependency"
  op: "Identity"
  input: "train/gradients/dense/Tanh_grad/TanhGrad"
  input: "^train/gradients/dense/BiasAdd_grad/tuple/group_deps"
  attr {
    key: "T"
    value {
      type: DT_FLOAT
    }
  }
  attr {
    key: "_class"
    value {
      list {
        s: "loc:@train/gradients/dense/Tanh_grad/TanhGrad"
      }
    }
  }
}
node {
  name: "train/gradients/dense/BiasAdd_grad/tuple/control_dependency_1"
  op: "Identity"
  input: "train/gradients/dense/BiasAdd_grad/BiasAddGrad"
  input: "^train/gradients/dense/BiasAdd_grad/tuple/group_deps"
  attr {
    key: "T"
    value {
      type: DT_FLOAT
    }
  }
  attr {
    key: "_class"
    value {
      list {
        s: "loc:@train/gradients/dense/BiasAdd_grad/BiasAddGrad"
      }
    }
  }
}
node {
  name: "train/gradients/dense/MatMul_grad/MatMul"
  op: "MatMul"
  input: "train/gradients/dense/BiasAdd_grad/tuple/control_dependency"
  input: "dense/kernel/read"
  attr {
    key: "T"
    value {
      type: DT_FLOAT
    }
  }
  attr {
    key: "transpose_a"
    value {
      b: false
    }
  }
  attr {
    key: "transpose_b"
    value {
      b: true
    }
  }
}
node {
  name: "train/gradients/dense/MatMul_grad/MatMul_1"
  op: "MatMul"
  input: "inputs/observations"
  input: "train/gradients/dense/BiasAdd_grad/tuple/control_dependency"
  attr {
    key: "T"
    value {
      type: DT_FLOAT
    }
  }
  attr {
    key: "transpose_a"
    value {
      b: true
    }
  }
  attr {
    key: "transpose_b"
    value {
      b: false
    }
  }
}
node {
  name: "train/gradients/dense/MatMul_grad/tuple/group_deps"
  op: "NoOp"
  input: "^train/gradients/dense/MatMul_grad/MatMul"
  input: "^train/gradients/dense/MatMul_grad/MatMul_1"
}
node {
  name: "train/gradients/dense/MatMul_grad/tuple/control_dependency"
  op: "Identity"
  input: "train/gradients/dense/MatMul_grad/MatMul"
  input: "^train/gradients/dense/MatMul_grad/tuple/group_deps"
  attr {
    key: "T"
    value {
      type: DT_FLOAT
    }
  }
  attr {
    key: "_class"
    value {
      list {
        s: "loc:@train/gradients/dense/MatMul_grad/MatMul"
      }
    }
  }
}
node {
  name: "train/gradients/dense/MatMul_grad/tuple/control_dependency_1"
  op: "Identity"
  input: "train/gradients/dense/MatMul_grad/MatMul_1"
  input: "^train/gradients/dense/MatMul_grad/tuple/group_deps"
  attr {
    key: "T"
    value {
      type: DT_FLOAT
    }
  }
  attr {
    key: "_class"
    value {
      list {
        s: "loc:@train/gradients/dense/MatMul_grad/MatMul_1"
      }
    }
  }
}
node {
  name: "train/beta1_power/initial_value"
  op: "Const"
  attr {
    key: "_class"
    value {
      list {
        s: "loc:@dense/bias"
      }
    }
  }
  attr {
    key: "dtype"
    value {
      type: DT_FLOAT
    }
  }
  attr {
    key: "value"
    value {
      tensor {
        dtype: DT_FLOAT
        tensor_shape {
        }
        float_val: 0.8999999761581421
      }
    }
  }
}
node {
  name: "train/beta1_power"
  op: "Const"
  attr {
    key: "dtype"
    value {
      type: DT_FLOAT
    }
  }
  attr {
    key: "value"
    value {
      tensor {
        dtype: DT_FLOAT
        tensor_shape {
        }
        float_val: 0.03815200924873352
      }
    }
  }
}
node {
  name: "train/beta1_power/Assign"
  op: "Identity"
  input: "train/beta1_power/initial_value"
  attr {
    key: "T"
    value {
      type: DT_FLOAT
    }
  }
  attr {
    key: "_class"
    value {
      list {
        s: "loc:@dense/bias"
      }
    }
  }
}
node {
  name: "train/beta1_power/read"
  op: "Identity"
  input: "train/beta1_power"
  attr {
    key: "T"
    value {
      type: DT_FLOAT
    }
  }
  attr {
    key: "_class"
    value {
      list {
        s: "loc:@dense/bias"
      }
    }
  }
}
node {
  name: "train/beta2_power/initial_value"
  op: "Const"
  attr {
    key: "_class"
    value {
      list {
        s: "loc:@dense/bias"
      }
    }
  }
  attr {
    key: "dtype"
    value {
      type: DT_FLOAT
    }
  }
  attr {
    key: "value"
    value {
      tensor {
        dtype: DT_FLOAT
        tensor_shape {
        }
        float_val: 0.9990000128746033
      }
    }
  }
}
node {
  name: "train/beta2_power"
  op: "Const"
  attr {
    key: "dtype"
    value {
      type: DT_FLOAT
    }
  }
  attr {
    key: "value"
    value {
      tensor {
        dtype: DT_FLOAT
        tensor_shape {
        }
        float_val: 0.9694608449935913
      }
    }
  }
}
node {
  name: "train/beta2_power/Assign"
  op: "Identity"
  input: "train/beta2_power/initial_value"
  attr {
    key: "T"
    value {
      type: DT_FLOAT
    }
  }
  attr {
    key: "_class"
    value {
      list {
        s: "loc:@dense/bias"
      }
    }
  }
}
node {
  name: "train/beta2_power/read"
  op: "Identity"
  input: "train/beta2_power"
  attr {
    key: "T"
    value {
      type: DT_FLOAT
    }
  }
  attr {
    key: "_class"
    value {
      list {
        s: "loc:@dense/bias"
      }
    }
  }
}
node {
  name: "dense/kernel/Adam/Initializer/zeros/shape_as_tensor"
  op: "Const"
  attr {
    key: "_class"
    value {
      list {
        s: "loc:@dense/kernel"
      }
    }
  }
  attr {
    key: "dtype"
    value {
      type: DT_INT32
    }
  }
  attr {
    key: "value"
    value {
      tensor {
        dtype: DT_INT32
        tensor_shape {
          dim {
            size: 2
          }
        }
        tensor_content: "\260\t\000\000\n\000\000\000"
      }
    }
  }
}
node {
  name: "dense/kernel/Adam/Initializer/zeros/Const"
  op: "Const"
  attr {
    key: "_class"
    value {
      list {
        s: "loc:@dense/kernel"
      }
    }
  }
  attr {
    key: "dtype"
    value {
      type: DT_FLOAT
    }
  }
  attr {
    key: "value"
    value {
      tensor {
        dtype: DT_FLOAT
        tensor_shape {
        }
        float_val: 0.0
      }
    }
  }
}
node {
  name: "dense/kernel/Adam/Initializer/zeros"
  op: "Fill"
  input: "dense/kernel/Adam/Initializer/zeros/shape_as_tensor"
  input: "dense/kernel/Adam/Initializer/zeros/Const"
  attr {
    key: "T"
    value {
      type: DT_FLOAT
    }
  }
  attr {
    key: "_class"
    value {
      list {
        s: "loc:@dense/kernel"
      }
    }
  }
  attr {
    key: "index_type"
    value {
      type: DT_INT32
    }
  }
}
node {
  name: "dense/kernel/Adam"
  op: "Const"
  attr {
    key: "dtype"
    value {
      type: DT_FLOAT
    }
  }
  attr {
    key: "value"
    value {
      tensor {
        dtype: DT_FLOAT
        tensor_shape {
          dim {
            size: 2480
          }
          dim {
            size: 10
          }
        }
        tensor_content: "…"
      }
    }
  }
}
node {
  name: "dense/kernel/Adam/Assign"
  op: "Identity"
  input: "dense/kernel/Adam/Initializer/zeros"
  attr {
    key: "T"
    value {
      type: DT_FLOAT
    }
  }
  attr {
    key: "_class"
    value {
      list {
        s: "loc:@dense/kernel"
      }
    }
  }
}
node {
  name: "dense/kernel/Adam/read"
  op: "Identity"
  input: "dense/kernel/Adam"
  attr {
    key: "T"
    value {
      type: DT_FLOAT
    }
  }
  attr {
    key: "_class"
    value {
      list {
        s: "loc:@dense/kernel"
      }
    }
  }
}
node {
  name: "dense/kernel/Adam_1/Initializer/zeros/shape_as_tensor"
  op: "Const"
  attr {
    key: "_class"
    value {
      list {
        s: "loc:@dense/kernel"
      }
    }
  }
  attr {
    key: "dtype"
    value {
      type: DT_INT32
    }
  }
  attr {
    key: "value"
    value {
      tensor {
        dtype: DT_INT32
        tensor_shape {
          dim {
            size: 2
          }
        }
        tensor_content: "\260\t\000\000\n\000\000\000"
      }
    }
  }
}
node {
  name: "dense/kernel/Adam_1/Initializer/zeros/Const"
  op: "Const"
  attr {
    key: "_class"
    value {
      list {
        s: "loc:@dense/kernel"
      }
    }
  }
  attr {
    key: "dtype"
    value {
      type: DT_FLOAT
    }
  }
  attr {
    key: "value"
    value {
      tensor {
        dtype: DT_FLOAT
        tensor_shape {
        }
        float_val: 0.0
      }
    }
  }
}
node {
  name: "dense/kernel/Adam_1/Initializer/zeros"
  op: "Fill"
  input: "dense/kernel/Adam_1/Initializer/zeros/shape_as_tensor"
  input: "dense/kernel/Adam_1/Initializer/zeros/Const"
  attr {
    key: "T"
    value {
      type: DT_FLOAT
    }
  }
  attr {
    key: "_class"
    value {
      list {
        s: "loc:@dense/kernel"
      }
    }
  }
  attr {
    key: "index_type"
    value {
      type: DT_INT32
    }
  }
}
node {
  name: "dense/kernel/Adam_1"
  op: "Const"
  attr {
    key: "dtype"
    value {
      type: DT_FLOAT
    }
  }
  attr {
    key: "value"
    value {
      tensor {
        dtype: DT_FLOAT
        tensor_shape {
          dim {
            size: 2480
          }
          dim {
            size: 10
          }
        }
        tensor_content: "…"
      }
    }
  }
}
node {
  name: "dense/kernel/Adam_1/Assign"
  op: "Identity"
  input: "dense/kernel/Adam_1/Initializer/zeros"
  attr {
    key: "T"
    value {
      type: DT_FLOAT
    }
  }
  attr {
    key: "_class"
    value {
      list {
        s: "loc:@dense/kernel"
      }
    }
  }
}
node {
  name: "dense/kernel/Adam_1/read"
  op: "Identity"
  input: "dense/kernel/Adam_1"
  attr {
    key: "T"
    value {
      type: DT_FLOAT
    }
  }
  attr {
    key: "_class"
    value {
      list {
        s: "loc:@dense/kernel"
      }
    }
  }
}
node {
  name: "dense/bias/Adam/Initializer/zeros"
  op: "Const"
  attr {
    key: "_class"
    value {
      list {
        s: "loc:@dense/bias"
      }
    }
  }
  attr {
    key: "dtype"
    value {
      type: DT_FLOAT
    }
  }
  attr {
    key: "value"
    value {
      tensor {
        dtype: DT_FLOAT
        tensor_shape {
          dim {
            size: 10
          }
        }
        float_val: 0.0
      }
    }
  }
}
node {
  name: "dense/bias/Adam"
  op: "Const"
  attr {
    key: "dtype"
    value {
      type: DT_FLOAT
    }
  }
  attr {
    key: "value"
    value {
      tensor {
        dtype: DT_FLOAT
        tensor_shape {
          dim {
            size: 10
          }
        }
        tensor_content: "…"
      }
    }
  }
}
node {
  name: "dense/bias/Adam/Assign"
  op: "Identity"
  input: "dense/bias/Adam/Initializer/zeros"
  attr {
    key: "T"
    value {
      type: DT_FLOAT
    }
  }
  attr {
    key: "_class"
    value {
      list {
        s: "loc:@dense/bias"
      }
    }
  }
}
node {
  name: "dense/bias/Adam/read"
  op: "Identity"
  input: "dense/bias/Adam"
  attr {
    key: "T"
    value {
      type: DT_FLOAT
    }
  }
  attr {
    key: "_class"
    value {
      list {
        s: "loc:@dense/bias"
      }
    }
  }
}
node {
  name: "dense/bias/Adam_1/Initializer/zeros"
  op: "Const"
  attr {
    key: "_class"
    value {
      list {
        s: "loc:@dense/bias"
      }
    }
  }
  attr {
    key: "dtype"
    value {
      type: DT_FLOAT
    }
  }
  attr {
    key: "value"
    value {
      tensor {
        dtype: DT_FLOAT
        tensor_shape {
          dim {
            size: 10
          }
        }
        float_val: 0.0
      }
    }
  }
}
node {
  name: "dense/bias/Adam_1"
  op: "Const"
  attr {
    key: "dtype"
    value {
      type: DT_FLOAT
    }
  }
  attr {
    key: "value"
    value {
      tensor {
        dtype: DT_FLOAT
        tensor_shape {
          dim {
            size: 10
          }
        }
        tensor_content: "\207{\2579\353\200:9Y\302\0278<\363!8)3\2538p-\2619j\336\0229\331\013\2569\327\\\25483Q\3718"
      }
    }
  }
}
node {
  name: "dense/bias/Adam_1/Assign"
  op: "Identity"
  input: "dense/bias/Adam_1/Initializer/zeros"
  attr {
    key: "T"
    value {
      type: DT_FLOAT
    }
  }
  attr {
    key: "_class"
    value {
      list {
        s: "loc:@dense/bias"
      }
    }
  }
}
node {
  name: "dense/bias/Adam_1/read"
  op: "Identity"
  input: "dense/bias/Adam_1"
  attr {
    key: "T"
    value {
      type: DT_FLOAT
    }
  }
  attr {
    key: "_class"
    value {
      list {
        s: "loc:@dense/bias"
      }
    }
  }
}
node {
  name: "dense_1/kernel/Adam/Initializer/zeros"
  op: "Const"
  attr {
    key: "_class"
    value {
      list {
        s: "loc:@dense_1/kernel"
      }
    }
  }
  attr {
    key: "dtype"
    value {
      type: DT_FLOAT
    }
  }
  attr {
    key: "value"
    value {
      tensor {
        dtype: DT_FLOAT
        tensor_shape {
          dim {
            size: 10
          }
          dim {
            size: 6
          }
        }
        float_val: 0.0
      }
    }
  }
}
node {
  name: "dense_1/kernel/Adam"
  op: "Const"
  attr {
    key: "dtype"
    value {
      type: DT_FLOAT
    }
  }
  attr {
    key: "value"
    value {
      tensor {
        dtype: DT_FLOAT
        tensor_shape {
          dim {
            size: 10
          }
          dim {
            size: 6
          }
        }
        tensor_content: "…"
      }
    }
  }
}
node {
  name: "dense_1/kernel/Adam/Assign"
  op: "Identity"
  input: "dense_1/kernel/Adam/Initializer/zeros"
  attr {
    key: "T"
    value {
      type: DT_FLOAT
    }
  }
  attr {
    key: "_class"
    value {
      list {
        s: "loc:@dense_1/kernel"
      }
    }
  }
}
node {
  name: "dense_1/kernel/Adam/read"
  op: "Identity"
  input: "dense_1/kernel/Adam"
  attr {
    key: "T"
    value {
      type: DT_FLOAT
    }
  }
  attr {
    key: "_class"
    value {
      list {
        s: "loc:@dense_1/kernel"
      }
    }
  }
}
node {
  name: "dense_1/kernel/Adam_1/Initializer/zeros"
  op: "Const"
  attr {
    key: "_class"
    value {
      list {
        s: "loc:@dense_1/kernel"
      }
    }
  }
  attr {
    key: "dtype"
    value {
      type: DT_FLOAT
    }
  }
  attr {
    key: "value"
    value {
      tensor {
        dtype: DT_FLOAT
        tensor_shape {
          dim {
            size: 10
          }
          dim {
            size: 6
          }
        }
        float_val: 0.0
      }
    }
  }
}
node {
  name: "dense_1/kernel/Adam_1"
  op: "Const"
  attr {
    key: "dtype"
    value {
      type: DT_FLOAT
    }
  }
  attr {
    key: "value"
    value {
      tensor {
        dtype: DT_FLOAT
        tensor_shape {
          dim {
            size: 10
          }
          dim {
            size: 6
          }
        }
        tensor_content: "…"
      }
    }
  }
}
node {
  name: "dense_1/kernel/Adam_1/Assign"
  op: "Identity"
  input: "dense_1/kernel/Adam_1/Initializer/zeros"
  attr {
    key: "T"
    value {
      type: DT_FLOAT
    }
  }
  attr {
    key: "_class"
    value {
      list {
        s: "loc:@dense_1/kernel"
      }
    }
  }
}
node {
  name: "dense_1/kernel/Adam_1/read"
  op: "Identity"
  input: "dense_1/kernel/Adam_1"
  attr {
    key: "T"
    value {
      type: DT_FLOAT
    }
  }
  attr {
    key: "_class"
    value {
      list {
        s: "loc:@dense_1/kernel"
      }
    }
  }
}
node {
  name: "dense_1/bias/Adam/Initializer/zeros"
  op: "Const"
  attr {
    key: "_class"
    value {
      list {
        s: "loc:@dense_1/bias"
      }
    }
  }
  attr {
    key: "dtype"
    value {
      type: DT_FLOAT
    }
  }
  attr {
    key: "value"
    value {
      tensor {
        dtype: DT_FLOAT
        tensor_shape {
          dim {
            size: 6
          }
        }
        float_val: 0.0
      }
    }
  }
}
node {
  name: "dense_1/bias/Adam"
  op: "Const"
  attr {
    key: "dtype"
    value {
      type: DT_FLOAT
    }
  }
  attr {
    key: "value"
    value {
      tensor {
        dtype: DT_FLOAT
        tensor_shape {
          dim {
            size: 6
          }
        }
        tensor_content: ".\222\310=\326T\221\276\305w\376\275\345G\302\274\322\364&>\203\360.>"
      }
    }
  }
}
node {
  name: "dense_1/bias/Adam/Assign"
  op: "Identity"
  input: "dense_1/bias/Adam/Initializer/zeros"
  attr {
    key: "T"
    value {
      type: DT_FLOAT
    }
  }
  attr {
    key: "_class"
    value {
      list {
        s: "loc:@dense_1/bias"
      }
    }
  }
}
node {
  name: "dense_1/bias/Adam/read"
  op: "Identity"
  input: "dense_1/bias/Adam"
  attr {
    key: "T"
    value {
      type: DT_FLOAT
    }
  }
  attr {
    key: "_class"
    value {
      list {
        s: "loc:@dense_1/bias"
      }
    }
  }
}
node {
  name: "dense_1/bias/Adam_1/Initializer/zeros"
  op: "Const"
  attr {
    key: "_class"
    value {
      list {
        s: "loc:@dense_1/bias"
      }
    }
  }
  attr {
    key: "dtype"
    value {
      type: DT_FLOAT
    }
  }
  attr {
    key: "value"
    value {
      tensor {
        dtype: DT_FLOAT
        tensor_shape {
          dim {
            size: 6
          }
        }
        float_val: 0.0
      }
    }
  }
}
node {
  name: "dense_1/bias/Adam_1"
  op: "Const"
  attr {
    key: "dtype"
    value {
      type: DT_FLOAT
    }
  }
  attr {
    key: "value"
    value {
      tensor {
        dtype: DT_FLOAT
        tensor_shape {
          dim {
            size: 6
          }
        }
        tensor_content: "X\275\025<t8\315;\206\311x;\256\347\244;\364\301\302;\251Q\333;"
      }
    }
  }
}
node {
  name: "dense_1/bias/Adam_1/Assign"
  op: "Identity"
  input: "dense_1/bias/Adam_1/Initializer/zeros"
  attr {
    key: "T"
    value {
      type: DT_FLOAT
    }
  }
  attr {
    key: "_class"
    value {
      list {
        s: "loc:@dense_1/bias"
      }
    }
  }
}
node {
  name: "dense_1/bias/Adam_1/read"
  op: "Identity"
  input: "dense_1/bias/Adam_1"
  attr {
    key: "T"
    value {
      type: DT_FLOAT
    }
  }
  attr {
    key: "_class"
    value {
      list {
        s: "loc:@dense_1/bias"
      }
    }
  }
}
node {
  name: "train/Adam/learning_rate"
  op: "Const"
  attr {
    key: "dtype"
    value {
      type: DT_FLOAT
    }
  }
  attr {
    key: "value"
    value {
      tensor {
        dtype: DT_FLOAT
        tensor_shape {
        }
        float_val: 0.019999999552965164
      }
    }
  }
}
node {
  name: "train/Adam/beta1"
  op: "Const"
  attr {
    key: "dtype"
    value {
      type: DT_FLOAT
    }
  }
  attr {
    key: "value"
    value {
      tensor {
        dtype: DT_FLOAT
        tensor_shape {
        }
        float_val: 0.8999999761581421
      }
    }
  }
}
node {
  name: "train/Adam/beta2"
  op: "Const"
  attr {
    key: "dtype"
    value {
      type: DT_FLOAT
    }
  }
  attr {
    key: "value"
    value {
      tensor {
        dtype: DT_FLOAT
        tensor_shape {
        }
        float_val: 0.9990000128746033
      }
    }
  }
}
node {
  name: "train/Adam/epsilon"
  op: "Const"
  attr {
    key: "dtype"
    value {
      type: DT_FLOAT
    }
  }
  attr {
    key: "value"
    value {
      tensor {
        dtype: DT_FLOAT
        tensor_shape {
        }
        float_val: 9.99999993922529e-09
      }
    }
  }
}
node {
  name: "train/Adam/update_dense/kernel/ApplyAdam"
  op: "ApplyAdam"
  input: "dense/kernel"
  input: "dense/kernel/Adam"
  input: "dense/kernel/Adam_1"
  input: "train/beta1_power/read"
  input: "train/beta2_power/read"
  input: "train/Adam/learning_rate"
  input: "train/Adam/beta1"
  input: "train/Adam/beta2"
  input: "train/Adam/epsilon"
  input: "train/gradients/dense/MatMul_grad/tuple/control_dependency_1"
  attr {
    key: "T"
    value {
      type: DT_FLOAT
    }
  }
  attr {
    key: "_class"
    value {
      list {
        s: "loc:@dense/kernel"
      }
    }
  }
  attr {
    key: "use_locking"
    value {
      b: false
    }
  }
  attr {
    key: "use_nesterov"
    value {
      b: false
    }
  }
}
node {
  name: "train/Adam/update_dense/bias/ApplyAdam"
  op: "ApplyAdam"
  input: "dense/bias"
  input: "dense/bias/Adam"
  input: "dense/bias/Adam_1"
  input: "train/beta1_power/read"
  input: "train/beta2_power/read"
  input: "train/Adam/learning_rate"
  input: "train/Adam/beta1"
  input: "train/Adam/beta2"
  input: "train/Adam/epsilon"
  input: "train/gradients/dense/BiasAdd_grad/tuple/control_dependency_1"
  attr {
    key: "T"
    value {
      type: DT_FLOAT
    }
  }
  attr {
    key: "_class"
    value {
      list {
        s: "loc:@dense/bias"
      }
    }
  }
  attr {
    key: "use_locking"
    value {
      b: false
    }
  }
  attr {
    key: "use_nesterov"
    value {
      b: false
    }
  }
}
node {
  name: "train/Adam/update_dense_1/kernel/ApplyAdam"
  op: "ApplyAdam"
  input: "dense_1/kernel"
  input: "dense_1/kernel/Adam"
  input: "dense_1/kernel/Adam_1"
  input: "train/beta1_power/read"
  input: "train/beta2_power/read"
  input: "train/Adam/learning_rate"
  input: "train/Adam/beta1"
  input: "train/Adam/beta2"
  input: "train/Adam/epsilon"
  input: "train/gradients/dense_1/MatMul_grad/tuple/control_dependency_1"
  attr {
    key: "T"
    value {
      type: DT_FLOAT
    }
  }
  attr {
    key: "_class"
    value {
      list {
        s: "loc:@dense_1/kernel"
      }
    }
  }
  attr {
    key: "use_locking"
    value {
      b: false
    }
  }
  attr {
    key: "use_nesterov"
    value {
      b: false
    }
  }
}
node {
  name: "train/Adam/update_dense_1/bias/ApplyAdam"
  op: "ApplyAdam"
  input: "dense_1/bias"
  input: "dense_1/bias/Adam"
  input: "dense_1/bias/Adam_1"
  input: "train/beta1_power/read"
  input: "train/beta2_power/read"
  input: "train/Adam/learning_rate"
  input: "train/Adam/beta1"
  input: "train/Adam/beta2"
  input: "train/Adam/epsilon"
  input: "train/gradients/dense_1/BiasAdd_grad/tuple/control_dependency_1"
  attr {
    key: "T"
    value {
      type: DT_FLOAT
    }
  }
  attr {
    key: "_class"
    value {
      list {
        s: "loc:@dense_1/bias"
      }
    }
  }
  attr {
    key: "use_locking"
    value {
      b: false
    }
  }
  attr {
    key: "use_nesterov"
    value {
      b: false
    }
  }
}
node {
  name: "train/Adam/mul"
  op: "Mul"
  input: "train/beta1_power/read"
  input: "train/Adam/beta1"
  input: "^train/Adam/update_dense/bias/ApplyAdam"
  input: "^train/Adam/update_dense/kernel/ApplyAdam"
  input: "^train/Adam/update_dense_1/bias/ApplyAdam"
  input: "^train/Adam/update_dense_1/kernel/ApplyAdam"
  attr {
    key: "T"
    value {
      type: DT_FLOAT
    }
  }
  attr {
    key: "_class"
    value {
      list {
        s: "loc:@dense/bias"
      }
    }
  }
}
node {
  name: "train/Adam/Assign"
  op: "Identity"
  input: "train/Adam/mul"
  attr {
    key: "T"
    value {
      type: DT_FLOAT
    }
  }
  attr {
    key: "_class"
    value {
      list {
        s: "loc:@dense/bias"
      }
    }
  }
}
node {
  name: "train/Adam/mul_1"
  op: "Mul"
  input: "train/beta2_power/read"
  input: "train/Adam/beta2"
  input: "^train/Adam/update_dense/bias/ApplyAdam"
  input: "^train/Adam/update_dense/kernel/ApplyAdam"
  input: "^train/Adam/update_dense_1/bias/ApplyAdam"
  input: "^train/Adam/update_dense_1/kernel/ApplyAdam"
  attr {
    key: "T"
    value {
      type: DT_FLOAT
    }
  }
  attr {
    key: "_class"
    value {
      list {
        s: "loc:@dense/bias"
      }
    }
  }
}
node {
  name: "train/Adam/Assign_1"
  op: "Identity"
  input: "train/Adam/mul_1"
  attr {
    key: "T"
    value {
      type: DT_FLOAT
    }
  }
  attr {
    key: "_class"
    value {
      list {
        s: "loc:@dense/bias"
      }
    }
  }
}
node {
  name: "train/Adam"
  op: "NoOp"
  input: "^train/Adam/Assign"
  input: "^train/Adam/Assign_1"
  input: "^train/Adam/update_dense/bias/ApplyAdam"
  input: "^train/Adam/update_dense/kernel/ApplyAdam"
  input: "^train/Adam/update_dense_1/bias/ApplyAdam"
  input: "^train/Adam/update_dense_1/kernel/ApplyAdam"
}
node {
  name: "save/filename/input"
  op: "Const"
  attr {
    key: "dtype"
    value {
      type: DT_STRING
    }
  }
  attr {
    key: "value"
    value {
      tensor {
        dtype: DT_STRING
        tensor_shape {
        }
        string_val: "model"
      }
    }
  }
}
node {
  name: "save/filename"
  op: "PlaceholderWithDefault"
  input: "save/filename/input"
  attr {
    key: "dtype"
    value {
      type: DT_STRING
    }
  }
  attr {
    key: "shape"
    value {
      shape {
      }
    }
  }
}
node {
  name: "save/Const"
  op: "PlaceholderWithDefault"
  input: "save/filename"
  attr {
    key: "dtype"
    value {
      type: DT_STRING
    }
  }
  attr {
    key: "shape"
    value {
      shape {
      }
    }
  }
}
node {
  name: "save/SaveV2/tensor_names"
  op: "Const"
  attr {
    key: "dtype"
    value {
      type: DT_STRING
    }
  }
  attr {
    key: "value"
    value {
      tensor {
        dtype: DT_STRING
        tensor_shape {
          dim {
            size: 14
          }
        }
        string_val: "dense/bias"
        string_val: "dense/bias/Adam"
        string_val: "dense/bias/Adam_1"
        string_val: "dense/kernel"
        string_val: "dense/kernel/Adam"
        string_val: "dense/kernel/Adam_1"
        string_val: "dense_1/bias"
        string_val: "dense_1/bias/Adam"
        string_val: "dense_1/bias/Adam_1"
        string_val: "dense_1/kernel"
        string_val: "dense_1/kernel/Adam"
        string_val: "dense_1/kernel/Adam_1"
        string_val: "train/beta1_power"
        string_val: "train/beta2_power"
      }
    }
  }
}
node {
  name: "save/SaveV2/shape_and_slices"
  op: "Const"
  attr {
    key: "dtype"
    value {
      type: DT_STRING
    }
  }
  attr {
    key: "value"
    value {
      tensor {
        dtype: DT_STRING
        tensor_shape {
          dim {
            size: 14
          }
        }
        string_val: ""
        string_val: ""
        string_val: ""
        string_val: ""
        string_val: ""
        string_val: ""
        string_val: ""
        string_val: ""
        string_val: ""
        string_val: ""
        string_val: ""
        string_val: ""
        string_val: ""
        string_val: ""
      }
    }
  }
}
node {
  name: "save/SaveV2"
  op: "SaveV2"
  input: "save/Const"
  input: "save/SaveV2/tensor_names"
  input: "save/SaveV2/shape_and_slices"
  input: "dense/bias"
  input: "dense/bias/Adam"
  input: "dense/bias/Adam_1"
  input: "dense/kernel"
  input: "dense/kernel/Adam"
  input: "dense/kernel/Adam_1"
  input: "dense_1/bias"
  input: "dense_1/bias/Adam"
  input: "dense_1/bias/Adam_1"
  input: "dense_1/kernel"
  input: "dense_1/kernel/Adam"
  input: "dense_1/kernel/Adam_1"
  input: "train/beta1_power"
  input: "train/beta2_power"
  attr {
    key: "dtypes"
    value {
      list {
        type: DT_FLOAT
        type: DT_FLOAT
        type: DT_FLOAT
        type: DT_FLOAT
        type: DT_FLOAT
        type: DT_FLOAT
        type: DT_FLOAT
        type: DT_FLOAT
        type: DT_FLOAT
        type: DT_FLOAT
        type: DT_FLOAT
        type: DT_FLOAT
        type: DT_FLOAT
        type: DT_FLOAT
      }
    }
  }
}
node {
  name: "save/control_dependency"
  op: "Identity"
  input: "save/Const"
  input: "^save/SaveV2"
  attr {
    key: "T"
    value {
      type: DT_STRING
    }
  }
  attr {
    key: "_class"
    value {
      list {
        s: "loc:@save/Const"
      }
    }
  }
}
node {
  name: "save/RestoreV2/tensor_names"
  op: "Const"
  device: "/device:CPU:0"
  attr {
    key: "dtype"
    value {
      type: DT_STRING
    }
  }
  attr {
    key: "value"
    value {
      tensor {
        dtype: DT_STRING
        tensor_shape {
          dim {
            size: 14
          }
        }
        string_val: "dense/bias"
        string_val: "dense/bias/Adam"
        string_val: "dense/bias/Adam_1"
        string_val: "dense/kernel"
        string_val: "dense/kernel/Adam"
        string_val: "dense/kernel/Adam_1"
        string_val: "dense_1/bias"
        string_val: "dense_1/bias/Adam"
        string_val: "dense_1/bias/Adam_1"
        string_val: "dense_1/kernel"
        string_val: "dense_1/kernel/Adam"
        string_val: "dense_1/kernel/Adam_1"
        string_val: "train/beta1_power"
        string_val: "train/beta2_power"
      }
    }
  }
}
node {
  name: "save/RestoreV2/shape_and_slices"
  op: "Const"
  device: "/device:CPU:0"
  attr {
    key: "dtype"
    value {
      type: DT_STRING
    }
  }
  attr {
    key: "value"
    value {
      tensor {
        dtype: DT_STRING
        tensor_shape {
          dim {
            size: 14
          }
        }
        string_val: ""
        string_val: ""
        string_val: ""
        string_val: ""
        string_val: ""
        string_val: ""
        string_val: ""
        string_val: ""
        string_val: ""
        string_val: ""
        string_val: ""
        string_val: ""
        string_val: ""
        string_val: ""
      }
    }
  }
}
node {
  name: "save/RestoreV2"
  op: "RestoreV2"
  input: "save/Const"
  input: "save/RestoreV2/tensor_names"
  input: "save/RestoreV2/shape_and_slices"
  device: "/device:CPU:0"
  attr {
    key: "dtypes"
    value {
      list {
        type: DT_FLOAT
        type: DT_FLOAT
        type: DT_FLOAT
        type: DT_FLOAT
        type: DT_FLOAT
        type: DT_FLOAT
        type: DT_FLOAT
        type: DT_FLOAT
        type: DT_FLOAT
        type: DT_FLOAT
        type: DT_FLOAT
        type: DT_FLOAT
        type: DT_FLOAT
        type: DT_FLOAT
      }
    }
  }
}
node {
  name: "save/Assign"
  op: "Identity"
  input: "save/RestoreV2"
  attr {
    key: "T"
    value {
      type: DT_FLOAT
    }
  }
  attr {
    key: "_class"
    value {
      list {
        s: "loc:@dense/bias"
      }
    }
  }
}
node {
  name: "save/Assign_1"
  op: "Identity"
  input: "save/RestoreV2:1"
  attr {
    key: "T"
    value {
      type: DT_FLOAT
    }
  }
  attr {
    key: "_class"
    value {
      list {
        s: "loc:@dense/bias"
      }
    }
  }
}
node {
  name: "save/Assign_2"
  op: "Identity"
  input: "save/RestoreV2:2"
  attr {
    key: "T"
    value {
      type: DT_FLOAT
    }
  }
  attr {
    key: "_class"
    value {
      list {
        s: "loc:@dense/bias"
      }
    }
  }
}
node {
  name: "save/Assign_3"
  op: "Identity"
  input: "save/RestoreV2:3"
  attr {
    key: "T"
    value {
      type: DT_FLOAT
    }
  }
  attr {
    key: "_class"
    value {
      list {
        s: "loc:@dense/kernel"
      }
    }
  }
}
node {
  name: "save/Assign_4"
  op: "Identity"
  input: "save/RestoreV2:4"
  attr {
    key: "T"
    value {
      type: DT_FLOAT
    }
  }
  attr {
    key: "_class"
    value {
      list {
        s: "loc:@dense/kernel"
      }
    }
  }
}
node {
  name: "save/Assign_5"
  op: "Identity"
  input: "save/RestoreV2:5"
  attr {
    key: "T"
    value {
      type: DT_FLOAT
    }
  }
  attr {
    key: "_class"
    value {
      list {
        s: "loc:@dense/kernel"
      }
    }
  }
}
node {
  name: "save/Assign_6"
  op: "Identity"
  input: "save/RestoreV2:6"
  attr {
    key: "T"
    value {
      type: DT_FLOAT
    }
  }
  attr {
    key: "_class"
    value {
      list {
        s: "loc:@dense_1/bias"
      }
    }
  }
}
node {
  name: "save/Assign_7"
  op: "Identity"
  input: "save/RestoreV2:7"
  attr {
    key: "T"
    value {
      type: DT_FLOAT
    }
  }
  attr {
    key: "_class"
    value {
      list {
        s: "loc:@dense_1/bias"
      }
    }
  }
}
node {
  name: "save/Assign_8"
  op: "Identity"
  input: "save/RestoreV2:8"
  attr {
    key: "T"
    value {
      type: DT_FLOAT
    }
  }
  attr {
    key: "_class"
    value {
      list {
        s: "loc:@dense_1/bias"
      }
    }
  }
}
node {
  name: "save/Assign_9"
  op: "Identity"
  input: "save/RestoreV2:9"
  attr {
    key: "T"
    value {
      type: DT_FLOAT
    }
  }
  attr {
    key: "_class"
    value {
      list {
        s: "loc:@dense_1/kernel"
      }
    }
  }
}
node {
  name: "save/Assign_10"
  op: "Identity"
  input: "save/RestoreV2:10"
  attr {
    key: "T"
    value {
      type: DT_FLOAT
    }
  }
  attr {
    key: "_class"
    value {
      list {
        s: "loc:@dense_1/kernel"
      }
    }
  }
}
node {
  name: "save/Assign_11"
  op: "Identity"
  input: "save/RestoreV2:11"
  attr {
    key: "T"
    value {
      type: DT_FLOAT
    }
  }
  attr {
    key: "_class"
    value {
      list {
        s: "loc:@dense_1/kernel"
      }
    }
  }
}
node {
  name: "save/Assign_12"
  op: "Identity"
  input: "save/RestoreV2:12"
  attr {
    key: "T"
    value {
      type: DT_FLOAT
    }
  }
  attr {
    key: "_class"
    value {
      list {
        s: "loc:@dense/bias"
      }
    }
  }
}
node {
  name: "save/Assign_13"
  op: "Identity"
  input: "save/RestoreV2:13"
  attr {
    key: "T"
    value {
      type: DT_FLOAT
    }
  }
  attr {
    key: "_class"
    value {
      list {
        s: "loc:@dense/bias"
      }
    }
  }
}
node {
  name: "save/restore_all"
  op: "NoOp"
  input: "^save/Assign"
  input: "^save/Assign_1"
  input: "^save/Assign_10"
  input: "^save/Assign_11"
  input: "^save/Assign_12"
  input: "^save/Assign_13"
  input: "^save/Assign_2"
  input: "^save/Assign_3"
  input: "^save/Assign_4"
  input: "^save/Assign_5"
  input: "^save/Assign_6"
  input: "^save/Assign_7"
  input: "^save/Assign_8"
  input: "^save/Assign_9"
}
node {
  name: "init"
  op: "NoOp"
  input: "^dense/bias/Adam/Assign"
  input: "^dense/bias/Adam_1/Assign"
  input: "^dense/bias/Assign"
  input: "^dense/kernel/Adam/Assign"
  input: "^dense/kernel/Adam_1/Assign"
  input: "^dense/kernel/Assign"
  input: "^dense_1/bias/Adam/Assign"
  input: "^dense_1/bias/Adam_1/Assign"
  input: "^dense_1/bias/Assign"
  input: "^dense_1/kernel/Adam/Assign"
  input: "^dense_1/kernel/Adam_1/Assign"
  input: "^dense_1/kernel/Assign"
  input: "^train/beta1_power/Assign"
  input: "^train/beta2_power/Assign"
}
library {
}
